Lab_4/logs_task_1a/epoch=0-step=600.ckpt (torch, 125259 bytes, 8 tensors)

conv1.weight f4 [16, 1, 5, 5]
000000 1f 37 a5 3e ba 2a 8f 3e 65 5e 00 3e 8b 67 09 be
       0.32268617 0.27962285 0.12536009 -0.13418405
000010 a8 9d bf be f1 d5 c5 3d 8e 53 ce 3e fb 42 ba 3d
       -0.3742497 0.09659947 0.40298122 0.09094807
000020 cf b0 75 be 8b 2e 9d be 84 da 46 bc 2a 50 a3 3e
       -0.23993228 -0.30699572 -0.012137059 0.31897098
000030 d4 6d fe 3c 04 69 d1 3d dd 2d 5d bd ad 43 71 3e
       0.03105823 0.10225108 -0.053998817 0.23560973
000040 8f ae b7 3e b0 e8 4e 3e ef 69 e9 bd bb 85 87 be
       0.35875365 0.2020595 -0.11397158 -0.26469216
000050 e2 c8 a2 3e 23 a5 db 3e e3 67 9d 3e 3f fd 38 3e
       0.31793886 0.42899427 0.30743322 0.18065356
000060 29 10 b2 3c 40 45 15 3e d6 5c 48 be 08 ea ee bb
       0.021736221 0.14577198 -0.19566664 -0.0072910823
000070 76 ee b6 3d 34 44 22 be 36 1c 8f bd a1 75 2e 3e
       0.089322016 -0.1584633 -0.06987803 0.1703706
000080 24 d5 52 3e 8f 4a 26 bc af 4a 02 be 24 bb c7 bd
       0.20589119 -0.010149612 -0.12723802 -0.09752491
000090 cc 20 07 3e 10 da 19 3d da c1 aa bd 03 89 fd 3d
       0.13196105 0.037561476 -0.083377555 0.123796485
0000a0 23 a7 d5 3d 65 7c 84 3d ab ec 12 be 1f d9 3b be
       0.104322694 0.06469039 -0.14348094 -0.18344544
0000b0 cf 25 d0 3c 88 f5 f8 bd 99 01 2f be a0 2c 63 bd
       0.025408654 -0.12156206 -0.17090453 -0.05546248
0000c0 4a a6 39 bd 8a 1b c5 3d fd eb 6b be f1 95 31 be
       -0.0453246 0.09624393 -0.23039241 -0.17342354
0000d0 d1 3a ac 3c 31 77 b9 3d 67 6b 96 3e 08 d1 ec bd
       0.02102414 0.09055937 0.29378816 -0.11563307
0000e0 aa 5b 9a be 07 cf 6b 3e fd d6 c0 3d ef ff 63 3e
       -0.3014806 0.23028193 0.09416006 0.222656
0000f0 30 d9 7e be db 88 81 be 9c 4e b1 3d 26 a1 8a 3e
       -0.24887538 -0.25299725 0.08657572 0.27076072
000100 91 0f c4 bd 95 67 88 be 01 0b a8 3d 88 d6 1a 3e
       -0.095732816 -0.26641527 0.08205224 0.151209
000110 c0 8a 26 3e 8a ba 36 3e f7 19 00 be 60 42 e3 bd
       0.16263866 0.17844597 -0.12509905 -0.110966444
000120 ba 85 6f 3c a2 0b 3f 3d 5f 78 fb bd d4 71 03 bd
       0.014619285 0.046641953 -0.12278818 -0.032090977
000130 ab e6 1b bd c3 c3 9c be 93 77 1f 3e 52 63 69 3e
       -0.03806178 -0.30618104 0.15572958 0.22791794
000140 2f 09 29 3e f7 65 4a be b2 de 72 be aa 52 57 3d
       0.1650741 -0.19765459 -0.23717764 0.05256907
000150 f6 6c 81 3e 87 62 3e 3c bb 3e 3c be 3d cd 99 bc
       0.25278443 0.01162017 -0.18383305 -0.018774623
000160 2a 68 bd 3c 64 85 16 3e b7 c2 0c 3e 7f 97 4c be
       0.023120958 0.14699322 0.13746153 -0.19979666
000170 91 d7 58 be 50 1b 36 3e 40 d3 c0 3d 6e 8f c1 bd
       -0.21175982 0.17783856 0.09415293 -0.09451185
000180 40 6d f7 bc 0e ce 2e be 87 69 1a 3e 56 1f 09 3e
       -0.030203462 -0.17070791 0.15079318 0.1339086
000190 9f 73 89 3e 87 35 8a 3d e4 f8 a3 3d 90 94 b5 3e
       0.26846024 0.06748491 0.080064565 0.35464907
0001a0 79 23 06 3e ba 89 e7 bd 3a dd 88 bd 45 d0 51 3e
       0.13099469 -0.11305566 -0.066828206 0.20489605
0001b0 f0 3f 89 3e ab b0 6a 3e bf 48 88 3b 36 70 0a 3e
       0.26806593 0.22918956 0.0041590626 0.13519368
0001c0 ca b4 d1 3d 85 a4 63 3d d1 8f 81 3d 02 4e 28 3e
       0.10239561 0.05557682 0.06326259 0.16436008
0001d0 39 63 9b bd 89 5d c1 3c 6e 2f ef bb 72 30 35 bd
       -0.075872846 0.023604171 -0.007299355 -0.044235654
0001e0 a4 05 55 bd e4 5e 2b ba b9 62 4c bd 30 90 10 3c
       -0.052007332 -0.0006537272 -0.049898837 0.0088234395
0001f0 04 70 45 3e 76 ab 78 3e a6 d5 1c be b7 ac fe 3d
       0.19281012 0.24284157 -0.15315875 0.124352865
000200 88 e8 ef bd b4 80 0e be 83 bf 6f 3e 3e 13 4d bd
       -0.11714274 -0.13916284 0.234129 -0.05006718
000210 67 3f ce 3d a3 49 2e 3e 81 04 16 be c7 aa 91 bd
       0.10070687 0.17020278 -0.14650156 -0.07112651
000220 87 27 0c be fe da ac bc 4b 90 5d 3e bf ca 2d 3e
       -0.13686953 -0.021100517 0.21637075 0.16971873
000230 d0 d5 69 3e ca 64 f0 3d 57 73 84 be 93 37 16 be
       0.22835469 0.11737974 -0.25869247 -0.14669637
000240 67 41 e0 3d 5e 1b ed 3d 61 fc 08 be 05 b0 da bd
       0.109499745 0.115774855 -0.13377525 -0.10678104
000250 30 e5 29 be ce 9e 8e bd 93 fa a0 bd a5 16 d3 bd
       -0.16591334 -0.06963883 -0.07860293 -0.103070535
000260 51 62 24 be 3e bc bb bd 53 4a fd bd 93 2d 20 bb
       -0.1605313 -0.09166764 -0.12367692 -0.0024441227
000270 10 a3 46 3e f3 ec 0e be 47 13 54 3d e8 fe 93 bd
       0.19398141 -0.13957576 0.051776197 -0.07226354
000280 98 16 19 3e c2 55 99 3d 5e a2 a0 bc de 5c 3d be
       0.14950025 0.0748706 -0.019608673 -0.18492457
000290 bb e4 57 be 72 87 a5 bd e7 bd 56 3e 1c 6e 13 be
       -0.21083347 -0.08082475 0.2097088 -0.14397472
0002a0 9a 4b 61 bc a1 ed 00 3d 74 46 99 3e e8 f8 65 3e
       -0.013750935 0.03147662 0.29936564 0.22458231
0002b0 15 c6 6a 3d 9f 45 e6 3d 36 4f 19 3e 21 e1 2e 3d
       0.057317812 0.11243748 0.14971623 0.04269517
0002c0 c8 fc 17 3e 5b 99 36 3e 8f c8 56 3e e7 af 1f 3e
       0.14842522 0.17831938 0.20974945 0.15594445
0002d0 70 f2 0c 3e 7d 42 0e bd 0b f1 58 bd d4 ec 85 3e
       0.13764358 -0.034731377 -0.05296425 0.26157248
0002e0 9a 6f 04 3e 83 8d 1a 3e ab 34 4d 3d 0e 43 1a 3e
       0.12933198 0.15093045 0.050099056 0.15064642
0002f0 86 fc be bd 8a 25 9e bc 26 1b 0e be ab c7 4d 3e
       -0.09325509 -0.01930501 -0.13877544 0.20095699
000300 01 a1 47 3e 1d b7 db 3d 98 79 fc 3d 5b a0 81 bc
       0.19495012 0.107282855 0.1232788 -0.015823534
000310 40 0c ca 3d 48 c4 90 3d 0c 59 80 3e 57 83 23 3e
       0.09865618 0.07068688 0.25067937 0.15968071
000320 36 7b 43 3e ac 72 91 ba 96 20 ab 3e 19 e1 a5 3e
       0.1908997 -0.0011096797 0.334233 0.32398298
000330 bf 84 5f 3e 9b 2d 6c 3e 90 f5 8a 3e ef 48 53 bd
       0.21827982 0.23064272 0.27140474 -0.051583227
000340 a4 4b 7b 3e 12 42 69 3e 4c 14 7e 3c ac 66 b6 bd
       0.24540573 0.2277911 0.015507769 -0.08906302
000350 39 ac 64 3d 40 f2 73 bd ad e5 4a bd db 8e 18 3e
       0.055828307 -0.0595572 -0.049535442 0.14898245
000360 22 b7 4c 3e 1e 57 f7 3c 4c 39 ab 3c fc 0e 2c be
       0.19991735 0.030192908 0.020901345 -0.16802591
000370 b9 b7 ed bd d5 c4 d4 bc e5 7a d0 bd 78 18 01 be
       -0.11607308 -0.025972763 -0.1017969 -0.1260699
000380 65 c9 92 3d 21 ce 0b 3e 7e 9d f9 3d fc 12 80 3e
       0.07167319 0.1365285 0.121882424 0.25014484
000390 90 b0 9f bd 53 20 3b 3e 5a 85 0b bd 2e ad ae 3d
       -0.077973485 0.1827405 -0.03406272 0.08529125
0003a0 bf 1d a1 bd a0 b3 38 3e 5b 04 23 3e 9f aa a5 3d
       -0.07867002 0.18037271 0.1591963 0.08089184
0003b0 c5 2e 8c bd 9d 23 a9 3c 19 02 10 be 76 fe 73 3e
       -0.06844858 0.020646865 -0.140633 0.23827538
0003c0 c6 37 6a bd 2c 05 7d be fe c0 dd 3d 72 36 b8 bd
       -0.057182096 -0.24709004 0.10827826 -0.089947596
0003d0 c4 47 db bc 1c 12 96 be ff 2f 56 be c8 2c 92 be
       -0.026767619 -0.2931069 -0.20916747 -0.2854979
0003e0 e5 4b 36 be f3 20 7c be ca e6 3a 3d 09 f8 ab bd
       -0.17802389 -0.24621944 0.045630254 -0.08396918
0003f0 a4 2d aa bd 22 1a 91 3e c4 e7 61 3e 3d d5 8c 3c
       -0.083094865 0.2834025 0.22061068 0.017191524

conv1.bias f4 [16]
000000 6c 2b dc bb 72 0e ba bc 04 e1 90 3d 78 fe 92 bc
       -0.0067190435 -0.022711966 0.07074168 -0.017943606
000010 cc 47 8c bc 77 08 42 3c 2d e6 e3 bd 5d 5e ab bb
       -0.01712408 0.0118428385 -0.11127887 -0.005229755
000020 60 58 7c 3c ce d6 90 3e 90 ee 4d 3d 37 36 e5 bb
       0.01540193 0.28288883 0.05027634 -0.0069949883
000030 86 30 6b 3e 75 7e 48 be 03 e0 82 3e 16 d5 a9 3e
       0.22967729 -0.1957949 0.25561532 0.33170384

conv2.weight f4 [32, 16, 5, 5]
000000 96 b8 80 bd 1f 24 5d bd 34 e5 15 3d 3a fe 87 3d
       -0.06285207 -0.053989526 0.03659554 0.06640287
000010 69 b7 ca 3c 3d a7 97 bd 5a 87 fe bd ba 10 f8 3c
       0.02474566 -0.07404945 -0.1242816 0.030281413
000020 0f e6 59 3d 06 31 9a 3b b0 2d 2f bd 76 7a e1 bd
       0.053197917 0.004705551 -0.04276818 -0.11009686
000030 f0 94 d5 3d 00 90 cb 3b 1c a2 ce bd 3d e3 4d bd
       0.10428798 0.0062122345 -0.10089514 -0.05026554
000040 97 00 e2 bd 5c 6b d3 3d 51 55 31 3d 55 65 9d bd
       -0.11035269 0.103232116 0.043294255 -0.07685343
000050 2b fe e4 bd 58 28 d8 bd 86 c7 fe 3d 00 80 c9 3d
       -0.11181291 -0.1055457 0.124404 0.09838867
000060 d2 ef a2 bd 57 0b ca 3c f6 c6 ba 3c 70 58 37 bd
       -0.07955898 0.02466361 0.02279995 -0.044762075
000070 4d 6c 02 bd 75 f5 47 bd 64 65 02 3c 79 02 e5 3b
       -0.031841565 -0.04881807 0.007958744 0.00698882
000080 76 40 d3 bc 1e 83 4c 3d d1 ca 76 bc 03 7a 15 3b
       -0.025787573 0.04992973 -0.015063004 0.002280832
000090 ab 9f 3d 3d b4 9b ea bc 5e d7 a3 3c 64 9d d8 bc
       0.04629485 -0.028638698 0.020000156 -0.026442237
0000a0 80 39 34 bd be a0 1f bd 23 4b 07 3d 56 bb 34 3d
       -0.04400015 -0.038971655 0.03303064 0.04412397
0000b0 e7 19 11 bd 1c 11 ad bc 71 20 1d bd 42 ab 9e 3c
       -0.035425093 -0.021126322 -0.038361017 0.019368771
0000c0 d8 6c df 3c 8d 02 f6 bc 2f 72 87 3c d8 e4 6a 3b
       0.02727358 -0.030030513 0.01653394 0.0035841968
0000d0 8a ea 5e bb d9 ed 27 3d 8b 79 15 bd 4c 21 2e 3d
       -0.0034014308 0.040998314 -0.036492866 0.042512223
0000e0 c1 9c 61 3d 49 3f 9b 3d 40 ab 48 bd e6 3c 08 bd
       0.055081133 0.0758043 -0.04899144 -0.033261202
0000f0 fb 57 14 bb eb 04 ae 3d 9f 2e 4d 3d 2d e9 40 bd
       -0.0022635448 0.08497032 0.05009329 -0.047097374
000100 47 48 54 3d 30 f6 58 3d f0 0b 50 3c 76 c3 c2 bb
       0.05182674 0.052969158 0.012698159 -0.005943711
000110 13 02 7c 3c fd 28 50 39 7d 55 95 3d e3 5d bf 3d
       0.015381354 0.00019851695 0.07291696 0.09344079
000120 d5 66 38 3d 1e 04 1c 3c 59 9a 08 3c e1 bf 80 b9
       0.045019943 0.009522466 0.008337581 -0.00024557023
000130 a3 0a 4c 3d 8f b1 4a 3d 51 0a 11 3d dd 5a 1e 3d
       0.04981483 0.04948574 0.03541023 0.038660873
000140 a4 bc 33 3d ae 10 a9 3d a9 f6 e2 bc 70 ff 01 3c
       0.043881074 0.082551345 -0.027705507 0.007934436
000150 b0 ed 70 bc e0 e2 8b bc 66 d5 5d 3d 6a 90 00 bd
       -0.014705107 -0.017075956 0.05415859 -0.031387724
000160 10 95 2e bd 78 be a4 3b 9e 9b 9b 3d 3c 57 c5 3c
       -0.042622626 0.0050275885 0.07598041 0.024089448
000170 d5 ca 9d 3c f1 4b 05 3d e8 71 6f 3d 6b 4d 0f bc
       0.019261757 0.032543126 0.05845824 -0.008746485
000180 bf b5 c9 3d e3 24 24 bd 56 01 d9 3c a6 8f 98 3d
       0.098491184 -0.04007424 0.026489895 0.07449274
000190 02 ed 51 bd 72 d0 5a bd d8 fa ae 3c 66 b0 96 3c
       -0.05125142 -0.053421445 0.021359846 0.01839466
0001a0 85 88 51 3b 5d 32 89 bc 8f ff 1a 3d 44 3a 02 3d
       0.003197224 -0.016747648 0.037841376 0.031793848
0001b0 66 47 03 bc 23 cf b1 3c 45 2f 54 bc ab 4a 79 3d
       -0.008012628 0.021705216 -0.012950723 0.060862225
0001c0 bd c9 bd bc 53 6d 15 bd 2f 0e 48 bc 6c 17 54 bd
       -0.023167485 -0.036481213 -0.012210413 -0.05178015
0001d0 85 58 a2 3d 0d 83 a8 3b 95 07 a0 bd e8 5f 1c 3c
       0.0792704 0.0051425756 -0.07813946 0.00954435
0001e0 de 48 c4 ba b7 99 78 3d 43 79 46 3d 7f cf 74 bd
       -0.0014975329 0.06069347 0.048455488 -0.059768196
0001f0 2e a6 8e 3c a0 e3 1f bd 1d 89 77 3a 8d 2a 09 3d
       0.017413225 -0.03903544 0.0009442734 0.033487845
000200 c2 5c 82 bc 2b 9e 46 3d 29 3d 22 bd f5 1a 01 3d
       -0.015913371 0.048490684 -0.039609108 0.03151985
000210 7b b5 ee 3c 4d a0 5c 3d 68 8f 34 3c 1a fd 30 bd
       0.029139271 0.053863812 0.011020519 -0.043210126
000220 68 0b 89 bb 78 73 ca bb b2 14 64 3d eb c2 c5 bc
       -0.004182268 -0.0061783157 0.0556838 -0.024140796
000230 e6 93 72 bd fb 2a 81 3c 9d 26 0c 3d b2 d4 da bb
       -0.05922308 0.015767565 0.034216512 -0.0066781873
000240 4f 33 8e bc bc bb b0 bc 87 72 f9 bc c5 55 b9 bc
       -0.01735845 -0.021573894 -0.030450119 -0.022623906
000250 95 25 1e 3d 37 46 a0 3c af d7 21 bd e8 63 fe 3c
       0.03861006 0.019564731 -0.039512333 0.031053498
000260 26 d6 85 bc c3 c6 31 bd 4c 82 dc 3c c6 b1 81 3c
       -0.016337465 -0.043402445 0.0269176 0.01583184
000270 70 b2 f0 3b f1 d9 39 3d 74 2b 03 3d 63 9a 2d bd
       0.00734549 0.04537386 0.032023862 -0.042383563
000280 1a 4d 68 bd 89 e3 82 bc c6 05 1c bd 30 dd 4a 3d
       -0.056714155 -0.015977638 -0.038091443 0.049527347
000290 31 ed 53 3b eb 30 e6 3c 68 8c c9 bc ca 7e 17 3c
       0.0032337422 0.028099498 -0.024603084 0.009246537
0002a0 7e 25 0f 3d 7f ba cf bc 2d e7 00 3c 42 a8 95 3c
       0.034947865 -0.025357483 0.007867617 0.018268708
0002b0 45 9e 25 3d b3 c9 5b 3d 45 fe 96 bb 90 d2 c1 bd
       0.04043414 0.053659152 -0.004607948 -0.0946399
0002c0 54 7c b1 bc 1b 6b 6e bc 67 84 00 bc 0a 8a ca ba
       -0.02166573 -0.014551903 -0.007844067 -0.0015452516
0002d0 91 f3 5a bd 2f 80 c6 3c 6c f6 10 3d e8 9e 09 bd
       -0.05345494 0.024231045 0.035391256 -0.03359881
0002e0 1b c1 ef bc b7 48 68 bd 00 4c c2 3c a9 02 21 3d
       -0.029266885 -0.05670997 0.02371788 0.039309178
0002f0 26 64 47 bd 6d e8 1d bd 1d 2d ac bb 26 0e a2 3c
       -0.048679493 -0.038551737 -0.0052544014 0.019782137
000300 12 18 76 3d 14 9e 4a bd 50 1b 2f bc 1a 23 9b bd
       0.06008155 -0.04946716 -0.010687664 -0.075750545
000310 a0 6d 24 3d d7 1a 87 3c 97 32 57 bd 48 bd bc bb
       0.04014361 0.01649229 -0.05253848 -0.005759869
000320 77 13 0f 3c ae 2a 15 bd 43 4f a9 3c 45 84 06 3d
       0.008732668 -0.036417656 0.020667678 0.032840986
000330 00 21 04 bc 74 76 84 bd 93 fa 76 bd eb 54 24 3d
       -0.008064508 -0.06467906 -0.06029756 0.040120047
000340 35 b4 3c 3d 17 70 b0 3c e4 44 15 bc db 7d 37 bd
       0.046070296 0.021537824 -0.009110663 -0.04479776
000350 ed 72 45 3d 8c da 2a 3d 92 4a 8f bc b9 88 22 bc
       0.048205305 0.04171233 -0.017491613 -0.0099202925
000360 40 29 b3 bc 5b 0b 80 3d 9b f2 d9 3c b0 e8 e3 3c
       -0.021870255 0.06252166 0.026604941 0.027820915
000370 8a 1e 87 bd d2 f3 0f 3d b8 67 0e 3d 32 52 4c bd
       -0.06597622 0.035144635 0.034766883 -0.049883075
000380 e2 9c 36 bd 7a a6 db 3b 80 4f e6 bc c4 76 19 bd
       -0.04458321 0.006703195 -0.02811408 -0.03746678
000390 18 cc 50 bd a4 fa ef bc 02 62 53 3d 05 a4 ff 3c
       -0.05097589 -0.02929432 0.05160714 0.03120614
0003a0 54 2a 04 bd c4 85 59 bd 1d 0e ef bc 70 19 05 3d
       -0.03226693 -0.053106084 -0.029181534 0.032494962
0003b0 55 dc 51 3d c8 98 fa bb 08 d4 11 bc e9 d1 4d bc
       0.051235516 -0.0076476075 -0.00890065 -0.0125622535
0003c0 f4 33 59 bc 97 e8 7a bc b7 c8 1b bd 48 1f 59 bb
       -0.0132570155 -0.015314243 -0.038033213 -0.0033130217
0003d0 5c 19 04 bd f4 3a 2e bc 9d 90 0b bd 62 20 b0 bc
       -0.032250747 -0.010634173 -0.03407346 -0.021499816
0003e0 00 ff e9 bc 40 92 41 3b de 46 90 bd 1a e2 a8 3d
       -0.028563976 0.0029536635 -0.07044767 0.082462505
0003f0 36 d1 0d 3c 5d ae f1 3c 65 e8 81 3d a5 1d 63 bc
       0.008655837 0.029502088 0.06343154 -0.013862048

conv2.bias f4 [32]
000000 d1 a9 ec 3c c2 0a 19 bd 4a be 8f 3c 47 28 33 bd
       0.028889569 -0.037363775 0.017546792 -0.043739583
000010 f1 b4 51 3d 43 e2 c3 bb f3 62 fd bc c8 a1 17 3e
       0.05119795 -0.0059779002 -0.030930972 0.14807808
000020 f8 d0 7f bc 4b 3d 7b bd 22 3c 8f 3c 21 c8 3d 3d
       -0.015613787 -0.06133775 0.017484728 0.046333436
000030 a9 1d e5 bc 47 1f 28 3d 7e 7e 34 bc 46 bc fc 3c
       -0.027968245 0.041045453 -0.011016486 0.030851495
000040 53 c4 6d 3d e1 79 ca bc de dd 32 3d 41 92 93 bc
       0.058048557 -0.02471632 0.04366862 -0.018014075
000050 ee 92 65 bc cf 89 03 bc c4 e0 c4 3d 90 ec f2 3d
       -0.014012082 -0.008028462 0.09613183 0.11861527
000060 08 46 48 3d d4 16 02 bc 30 29 24 bc 2c 9b 5d 3d
       0.048894912 -0.007940013 -0.0100195855 0.05410306
000070 97 4d e1 3c cb 2e 03 bd 11 f7 3e 3d 39 f4 00 3e
       0.027502818 -0.032027047 0.04662234 0.12593164

fc1.weight f4 [32, 512]
000000 d0 0f 49 bd d3 ee 0c 3d 7a 24 04 bd 59 d4 fb bc
       -0.049087346 0.034407448 -0.03226135 -0.030740904
000010 8a 46 fa 3c c8 27 ad 3c f9 27 b8 bc 51 1d 2c 3d
       0.030551214 0.021137133 -0.022479998 0.042020146
000020 6a 52 0f 3d af 50 a8 3b ce b0 1f bd a9 36 9c bc
       0.034990706 0.0051365714 -0.038986973 -0.019069033
000030 ec 2b 5d 3d 67 22 dd 3a 19 d8 23 3c 59 6b b9 bc
       0.053996965 0.0016871215 0.010000252 -0.022634195
000040 56 49 1c 3d 7f a7 b5 bc f3 5e ac bc 30 16 65 bd
       0.038155876 -0.022174595 -0.021041369 -0.055929363
000050 47 8d 22 bc 66 16 24 3c 5b eb 27 bd 16 40 b1 bb
       -0.009921378 0.010015106 -0.040995937 -0.005409251
000060 34 0a a0 bc ae aa df 3b 7a 42 67 bd c6 6b 66 3d
       -0.019536115 0.0068257665 -0.05645988 0.056255125
000070 2a b4 5c bd cf ce 00 3d 3c 8d f6 bc 8f b3 6b 3c
       -0.053882755 0.031447228 -0.030096643 0.014386072
000080 da a2 3b bd ad c7 83 3c 22 69 de bc c0 cd 84 bc
       -0.045809604 0.016086424 -0.02714974 -0.01621139
000090 fc 68 8d 3c a0 36 b3 bc 29 51 29 bd 36 1f f8 3c
       0.017261975 -0.021876633 -0.041337166 0.03028832
0000a0 8e 4e 06 bd 68 e4 a6 3c 03 43 d1 3c 95 79 16 3d
       -0.03278976 0.020372584 0.025544649 0.036737043
0000b0 8a 36 70 3c 30 53 3d 3b 30 5b 7d bc cb 9a 2b 3d
       0.014661441 0.0028888695 -0.015463635 0.04189567
0000c0 95 a8 e9 3c 44 e4 ee 3b 14 5c bc 3c 5a 6a f1 3c
       0.028522769 0.007290395 0.022993125 0.029469658
0000d0 55 8a bb 3c 23 ab 5b bc 29 8d 87 3b e2 9b 96 bc
       0.02289311 -0.013407501 0.0041367006 -0.018384878
0000e0 f6 2e 09 3c e4 09 87 3c 45 22 27 3d 87 13 a0 3c
       0.008373013 0.016484208 0.040804166 0.019540561
0000f0 b6 db 90 bc b6 6a 0c 3d 6e e4 2b bc 89 df 2e bd
       -0.017682891 0.034281455 -0.010491474 -0.04269365
000100 b8 7a 34 3d f8 88 0e 3d 6b a6 25 bc 25 3d 52 bc
       0.044062346 0.034798592 -0.010110478 -0.012831961
000110 af f7 95 bc 8a bc 16 3d 46 10 3f bd 10 52 39 b9
       -0.018306581 0.0368009 -0.04664638 -0.00017673546
000120 80 27 8a 3c 0b 58 c7 bc 56 2c 2a bd 43 b6 9e 3b
       0.016864538 -0.024333974 -0.04154619 0.0048435046
000130 a6 f1 85 bc 62 b9 6a bc d3 8d 1e bd 58 e5 86 3a
       -0.016350579 -0.014326425 -0.038709473 0.0010291738
000140 15 54 ac 3c c5 4b 18 bc 72 60 28 3d 23 60 79 3c
       0.021036187 -0.009295409 0.041107602 0.015220675
000150 40 32 49 bc 0b 94 80 bc ba ce 13 bd e0 78 e8 ba
       -0.012280047 -0.015695592 -0.03608582 -0.0017736219
000160 0e 5c a1 3b 99 0e 28 3b 26 19 5a bd 6f 7e df 3c
       0.004924304 0.0025643467 -0.05324664 0.027281968
000170 f5 84 05 3d 6e d2 0e bd d2 d2 6a bd 82 06 9c 3c
       0.0325975 -0.03486865 -0.05732996 0.019046072
000180 d1 db 04 3d 00 e3 64 bb e3 8f 26 bd e5 38 0c bd
       0.032436196 -0.0034925342 -0.040664565 -0.034233946
000190 ee b5 38 3c 5a 0c 19 bd c3 00 7e bc eb 8d 4c 3b
       0.011273844 -0.037365295 -0.015503111 0.003121252
0001a0 96 2f d6 3c 7f 77 cb 3c 9d c7 20 3d 6c aa cb 3c
       0.026145738 0.024837254 0.039252866 0.024861537
0001b0 8c 37 f6 bc b5 d2 ee bb 45 ec 04 3c 63 18 12 bd
       -0.030055784 -0.007288302 0.008112972 -0.03566779
0001c0 6f 2f 5e 3d a2 c9 3a 3d 67 1b 28 3d 0f 78 8d 3a
       0.054244455 0.04560245 0.041041758 0.0010793227
0001d0 cd ba 9a 3c 3f 8f bb bc a0 53 a7 bc a1 95 b7 3c
       0.018887902 -0.022895453 -0.020425618 0.022410216
0001e0 99 a6 af 3b e1 79 62 bc af e6 17 bd d3 1b 92 bc
       0.005360436 -0.0138230035 -0.03708523 -0.017835533
0001f0 6e 04 33 bd 00 79 88 bc 8d 9f fc bc f2 3e b0 3c
       -0.043705396 -0.01665926 -0.030837798 0.02151439
000200 0e c8 52 3c ee c4 97 bc 05 7a 81 3c c3 ae 18 bd
       0.01286508 -0.01852652 0.015805254 -0.03727604
000210 ee 14 52 bc 3d 1c 1e bd 29 61 81 3c 84 4d 36 3c
       -0.012822373 -0.03860115 0.0157934 0.01112688
000220 7c 8b 4c bc 03 2b 15 3c 46 8e 8f bc a3 a1 67 bb
       -0.012484428 0.009104493 -0.017523896 -0.0035344146
000230 3c 0e 85 3c 2d c0 12 bb d5 dc 1e 3d c8 7b 0c 3c
       0.016242139 -0.0022392378 0.03878482 0.008574434
000240 54 d1 98 bc a5 e6 66 3c 87 8b 32 bd f0 7a 34 3d
       -0.018654503 0.014093076 -0.043590095 0.044062555
000250 0a d8 a5 bc 38 c9 bd bc fd 18 27 3c 78 df 26 bc
       -0.020244617 -0.023167238 0.010198829 -0.010185115
000260 26 2c 8c 3c ed e9 67 bc 96 f4 bc 3b ac 87 c5 bc
       0.017110895 -0.014154893 0.0057664616 -0.024112545
000270 a4 c5 d7 3c 6d eb 73 bb 29 c4 90 3c 28 46 ab 3c
       0.02633936 -0.0037219182 0.017671661 0.020907477
000280 6b 8f c0 3c 25 4f 08 3d 0b dc 86 bc 3c 6d 48 bb
       0.023505887 0.033278603 -0.016462347 -0.0030582687
000290 8c 1e 48 3d b7 71 0d bd f2 5f f4 bc db 35 4d bd
       0.048857257 -0.034532275 -0.029830907 -0.05010019
0002a0 c6 07 e5 bc a4 1a b1 3b 23 4e c1 3c 25 d6 4a 3d
       -0.027957808 0.005404787 0.023596829 0.04952063
0002b0 bf c2 26 3c d6 75 0e bc c7 8a cb 3c 39 7c f8 3b
       0.010178267 -0.008695086 0.024846448 0.007583168
0002c0 40 61 e3 3b 2e 6a ee 3c fb fa d5 3c 56 74 15 bd
       0.0069390833 0.029103365 0.026120653 -0.0364879
0002d0 3c a8 1f 3d b1 a0 bf bc 47 4f 86 bc 73 be 16 3c
       0.0389788 -0.023392053 -0.016395224 0.00920068
0002e0 f6 13 0a 3d 95 35 92 bc 43 f2 12 bc 5e 99 b0 bc
       0.033710442 -0.017847816 -0.0089688925 -0.021557506
0002f0 bc ac f6 bc 15 5e 96 3c a0 59 c6 bc f4 c9 6d b8
       -0.030111663 0.018355409 -0.024212658 -5.6693287e-05
000300 61 9a d5 bc 88 93 c9 3c 8c 80 eb ba 86 b2 82 3c
       -0.02607459 0.024606481 -0.0017967387 0.015954267
000310 5e 9a 16 3d 0b f0 24 3c 64 29 be bc 04 ee b4 bc
       0.03676831 0.010066996 -0.023213096 -0.022086151
000320 e7 3e 8e bc 7a 1d 32 bd e9 24 13 bc 64 cc 81 bc
       -0.017363979 -0.043485142 -0.008980968 -0.015844531
000330 c5 e2 17 bd bc 6b 0b 3d 24 cb 0b b9 10 b1 13 3d
       -0.0370815 0.03403829 -0.00013331749 0.03605753
000340 8e 35 b1 bb ab 25 11 3d 3e 84 ff 3c 82 ec ef 3c
       -0.0054079955 0.035436314 0.031190988 0.02928758
000350 c1 4d d1 bc 83 6e d2 bc 82 97 dd bc 8c 28 d5 3a
       -0.025549771 -0.025687462 -0.027049784 0.0016262694
000360 5b 41 72 bb 58 a6 90 bc eb 60 f6 3c d5 3a 46 bb
       -0.0036965224 -0.017657444 0.030075511 -0.003024747
000370 a1 00 cf bc 2c c5 4a bd 7d 99 2f bd 6e 42 c2 bc
       -0.025268855 -0.049504444 -0.042870987 -0.023713317
000380 a2 3e 0f bd 54 42 9a 3c fa aa b0 bc 0e 92 8f bc
       -0.03497184 0.018830456 -0.021565903 -0.017525699
000390 62 c6 ed bc ed f3 01 3c 6b b1 4c bd 3f 6b 2c bb
       -0.02902526 0.007931692 -0.049973886 -0.002630904
0003a0 ab 8c c4 bb 57 6f 04 bd ba 43 00 bd 70 70 51 3d
       -0.0059982142 -0.032332744 -0.03131459 0.05113262
0003b0 43 ed 59 bc 0a c0 09 3d 3c 08 1e bd fb 61 64 3d
       -0.0133011965 0.03363041 -0.03858207 0.055757504
0003c0 fe ad b7 3a 62 11 0b bc 0e da 0d 3d c6 47 d9 39
       0.0014013646 -0.008488031 0.03463178 0.0004144294
0003d0 41 17 d8 bc 33 8f 48 3a c5 be 8f ba 6c 2f cc bc
       -0.026378276 0.0007650733 -0.0010966888 -0.024924956
0003e0 21 51 25 3c 7e 59 a3 bb 8c 62 90 3c 35 ed 6a bc
       0.010090143 -0.0049850335 0.017625116 -0.014338781
0003f0 05 a8 03 3d 22 f8 04 3c 89 e2 25 3d 81 41 89 bc
       0.032142658 0.0081158 0.040499244 -0.016754868

fc1.bias f4 [32]
000000 8a a7 51 3d 1d 23 3c 3c b5 94 61 3d 84 1e 82 3d
       0.05118517 0.011482981 0.05507346 0.06353477
000010 88 37 2f 3a b3 db eb 3c 34 a2 30 3d e3 bf 28 3d
       0.0006683995 0.028791284 0.04312344 0.041198622
000020 cb 94 26 3d 94 94 74 bd 0f 67 35 3d d2 67 b1 3d
       0.040669244 -0.059712008 0.044287737 0.0866238
000030 80 67 75 3c b4 78 ab 3c 40 65 a9 3d e4 04 5b 3d
       0.01497829 0.02093158 0.08271265 0.05347146
000040 46 e1 14 3a 18 eb 1c bd c1 3e 69 3d a5 b3 80 bc
       0.00056793203 -0.03831014 0.056944612 -0.015710661
000050 a3 02 9a 3d 8d 6e 8b 3d aa 04 bd bc 67 c4 ba bc
       0.07520034 0.06808195 -0.023073513 -0.02279873
000060 82 aa 5f 3b f5 87 0a 3d 28 ed e2 3c ed f2 6e 3d
       0.003412873 0.033821065 0.027700976 0.05833714
000070 87 61 e3 3c 50 28 1d bb 2c 84 3d bc 23 f7 6b 3d
       0.027756466 -0.0023980327 -0.011567157 0.057608735

out.weight f4 [10, 32]
000000 77 07 3b 3e de c8 f0 bd 7b 3c 0d 3e 1e 4a 67 3e
       0.18264566 -0.117570624 0.13792603 0.22586867
000010 51 de 62 3e 26 fb 96 be 9a 9c 1e 3d 30 be ac 3c
       0.2215512 -0.29488486 0.038723566 0.021086782
000020 9a 63 73 be 60 ec 3b be f5 76 db 3c 62 b6 80 3d
       -0.23768464 -0.18351889 0.026790122 0.06284787
000030 01 90 56 bc cb 00 69 be e3 37 ad be 04 93 9b 3e
       -0.013095857 -0.22754209 -0.338317 0.30385602
000040 ee ef 36 be 28 b4 18 be 8b dd 30 be 40 5c 18 be
       -0.17864963 -0.14912474 -0.17272012 -0.1487894
000050 b9 1f c0 3d 20 77 04 3e 97 28 90 be 60 b3 a6 3d
       0.093810506 0.12936068 -0.28155968 0.08139682
000060 5b 5e c5 3d 65 03 64 3e ff fb 94 3d 14 43 01 3f
       0.096371375 0.2226692 0.07274627 0.5049298
000070 bb 19 51 bd 88 7f bf bd e1 97 35 be 92 76 23 3e
       -0.05104993 -0.093504965 -0.17733718 0.159632
000080 33 8e 3d 3d 31 ca 53 be 26 c0 6c 3d db bf 94 3e
       0.04627819 -0.20682599 0.057800435 0.29052624
000090 a0 d5 22 be 82 08 c8 3d e6 f8 44 bd d4 38 8a 3b
       -0.15901804 0.09767248 -0.04808893 0.0042182
0000a0 8a 25 d2 bd 6b ef 46 be a5 35 fe bd 74 3e 41 be
       -0.10261066 -0.19427268 -0.12412576 -0.1887148
0000b0 e9 b7 35 be 8c e9 9d 3e 66 1c fd be a3 f0 4d be
       -0.17745937 0.30842245 -0.4943573 -0.20111327
0000c0 6a 59 30 3e 1c b2 34 3e 65 77 bd be b4 8b b5 3e
       0.17221609 0.17646068 -0.37005153 0.35458148
0000d0 24 7a a0 3e 0c 83 07 be 62 db ca ba 75 58 5e bc
       0.31343186 -0.13233584 -0.0015476758 -0.0135708945
0000e0 87 ea 9b 3c 98 e7 d6 3e 72 8e 1a be be 1c 7a 3d
       0.01903273 0.41973567 -0.15093401 0.061062567
0000f0 b1 d3 2b 3d d0 9a 89 3e f9 d1 55 3e f2 b8 c8 be
       0.04194993 0.26875925 0.2088088 -0.39203602
000100 c0 d9 4c bd db f5 8a bd 37 a8 7c be 7c 3e 88 3e
       -0.05001235 -0.067851745 -0.24673544 0.26610172
000110 72 74 aa be 80 9a 9a be 35 67 ef 3d 13 72 58 be
       -0.33291966 -0.30196 0.11689607 -0.21137266
000120 b4 bf 0c be f6 a7 f9 3c c4 96 4a be 32 75 b2 3e
       -0.13745004 0.030475598 -0.19784075 0.34855038
000130 ef e9 4e bc a8 98 5e 3e e9 b2 25 3d 3f ca c0 3e
       -0.012629016 0.21737921 0.040453825 0.37654302
000140 24 fc 59 be a4 e1 05 be 49 c0 24 bd bf cc 30 3e
       -0.2128759 -0.13074356 -0.04022244 0.17265604
000150 47 e0 50 3d 37 84 30 be a9 af 61 3e ec 8a 1a 3e
       0.050995138 -0.17237936 0.22039665 0.15092057
000160 a4 06 02 be 16 72 3a be 4c a4 1c be f9 d5 7f 3e
       -0.12697846 -0.18207583 -0.1529705 0.24983968
000170 97 fa 49 3d 69 8f 99 bd db a9 2b 3c ef ad 10 3f
       0.049311247 -0.074980564 0.010477508 0.565154
000180 f8 41 9a bd 08 b5 64 3c 2d 7c 4c be a1 b7 b6 3d
       -0.07532114 0.013959177 -0.19969244 0.08921743
000190 51 9b bd 3e 33 f3 50 3e 2e 41 01 be 6e 0d 00 be
       0.3703256 0.20405273 -0.1262252 -0.12505123
0001a0 e2 20 2d be 37 d0 01 3e 9b 06 19 be 15 8e 80 be
       -0.16907075 0.12677084 -0.14943926 -0.251084
0001b0 20 ea 83 3d 5f fa a6 3c d5 ea 40 be 7d b6 26 bd
       0.0644114 0.020383058 -0.18839581 -0.040701378
0001c0 0c f2 85 3e ac 62 75 bc 66 48 df bd 81 f3 2e 3d
       0.2616123 -0.0149771385 -0.10902481 0.042712692
0001d0 b2 e8 60 be e1 dd e3 3d dc 59 f2 bd cf 2f 9a 3d
       -0.21963766 0.111263044 -0.118335456 0.0752865
0001e0 90 87 e4 3d 9c 2b 68 bd f2 a8 82 bc 5e 29 af 3e
       0.11158669 -0.056682214 -0.0159497 0.34211248
0001f0 0f 5a 5c 3d 67 27 ae 3e 54 d1 3e bb a0 9a 54 3e
       0.053796824 0.34014437 -0.0029116469 0.2076211
000200 8e 71 bc bd a3 3a a2 3b ea 80 04 3d 16 73 86 3e
       -0.09201346 0.0049508377 0.032349505 0.2625968
000210 61 c4 63 bd 4a 54 24 be 65 4c 8b be 71 10 df 3d
       -0.055607203 -0.16047779 -0.27206722 0.10891808
000220 db ee 6b bc c1 5e 88 3d 6e 38 67 be 85 7f ca bc
       -0.014400209 0.06658698 -0.2258012 -0.02471901
000230 8f 34 01 be 87 f1 06 3f 36 c2 5d 3d 22 5c c1 bc
       -0.12617706 0.5271229 0.054140292 -0.023603503
000240 29 c8 e7 3d b3 27 5a bb 78 7e 57 3e 2b 0f 74 3e
       0.113174744 -0.0033287823 0.21044338 0.23833911
000250 61 db b9 bd 18 31 48 3a 7d d6 5e 3e ac 39 db 3d
       -0.09075046 0.000763671 0.21761508 0.107043594
000260 7c 47 82 bc 55 1b 56 3d 53 0b b0 3c a6 8d 61 be
       -0.015903227 0.05227216 0.021489775 -0.22026691
000270 7b 1f 22 3e 06 72 2b 3e e9 18 92 bd 4f e8 8a 3e
       0.15832321 0.16742715 -0.071336575 0.27130362
000280 72 db b7 bd 66 fb a4 3e 9c 2f 8b 3e c4 c8 9a bd
       -0.08977403 0.32223052 0.2718476 -0.07557824
000290 51 4e 87 be 33 73 46 3e ba f1 2f 3e 3d d8 47 bd
       -0.26426938 0.19379883 0.17182055 -0.048790205
0002a0 8b 46 a9 be ed e1 4a 3e b4 d7 f4 3e 18 7c 48 3e
       -0.33061633 0.19812746 0.47820818 0.19578588
0002b0 89 50 10 3e 91 91 6a be 8e 57 97 3e f6 4a 33 be
       0.14093222 -0.22907092 0.29558986 -0.17509064
0002c0 81 52 b1 bd 9c fb 0f 3e 5d 5a 1a be 05 0e 30 be
       -0.086583145 0.14060825 -0.15073533 -0.17192848
0002d0 6b 3f 8e 3e bd 15 9d be 8d ee 0f 3e e1 1c 05 3e
       0.2778276 -0.30680647 0.14055844 0.12999298
0002e0 d9 c2 06 3e 95 4a da 3c a8 f0 8f bc af 96 dd be
       0.13160266 0.026646892 -0.017570809 -0.43279025
0002f0 bc 1f b5 bd 47 ab 4d bd b6 b1 10 be a9 2d c9 be
       -0.088439435 -0.05021217 -0.14130291 -0.39292648
000300 84 d1 d2 3c 1f 03 91 3d a6 4b e8 3d 9e b7 bb 3e
       0.02573467 0.070806734 0.11342554 0.36663526
000310 b5 ed 3a 3e 15 55 56 be 85 e3 f6 bc 68 85 a2 3d
       0.1825474 -0.20930894 -0.030137787 0.079356015
000320 94 1e d8 3c ba ea 0b be 21 9c 88 be 9e 86 0e be
       0.026381768 -0.1366376 -0.26681617 -0.1391854
000330 64 54 36 be e4 b1 9c 3e 27 2e 2b bd c6 29 6a 3e
       -0.1780563 0.3060447 -0.04179206 0.22867498
000340 75 22 98 be 10 f0 4f be 35 7e 47 3e b2 bc e6 3d
       -0.2971379 -0.2030642 0.19481738 0.112664595
000350 5a fe e1 3d 3a b6 b5 3d f1 d4 66 bd 6f 78 6e bd
       0.11034842 0.088726476 -0.05635542 -0.058220323
000360 0c cd ac bd 0c 5f c8 bd ca 6c 11 be 52 69 cf 3e
       -0.08437547 -0.09783754 -0.14201656 0.4051004
000370 6b 8d a1 3d c8 ad 83 be 62 15 2f be ff e0 50 3e
       0.078883015 -0.25718522 -0.17098 0.20398329
000380 a3 f6 21 3d 7d 54 45 3e 7e d1 8f be 6d 3c 8e bd
       0.03954185 0.19270511 -0.28089517 -0.06945119
000390 54 4a 6a bd 8d f9 62 bc b2 76 84 3e d6 14 2d be
       -0.05719979 -0.013853443 0.25871807 -0.1690248
0003a0 10 b3 e4 3e f8 b2 33 bd 6d 68 38 3e d4 18 05 be
       0.44667864 -0.04387185 0.18008585 -0.12997752
0003b0 fc dc 0f 3e e6 db 82 be 10 cc ae 3e 6c 54 f7 be
       0.14049143 -0.25558394 0.34140062 -0.48306596
0003c0 64 2b d4 3e e1 0e 7c 3c 03 a8 8d 3d 49 96 88 be
       0.41439354 0.015384407 0.06916811 -0.26677158
0003d0 a8 79 5b 3e 96 fe 6b be ac 5e 12 be a1 dd 23 3d
       0.21433127 -0.23046336 -0.14293927 0.040006284
0003e0 7b 94 37 be 90 01 a4 3b f5 66 46 3e 71 f7 ce be
       -0.17927735 0.005005069 0.19375212 -0.40423158
0003f0 93 45 eb 3c 47 2b 32 3e 5b 50 7b 3e dd cf eb be
       0.028719699 0.17399321 0.24542372 -0.46057025

out.bias f4 [10]
000000 48 2f 09 3e e0 08 84 be e6 b4 5f 3c 8b df e8 bd
       0.13396943 -0.2578802 0.013653969 -0.113707624
000010 2c f0 93 be 39 78 24 bc 11 73 25 3e 32 ac ba 3c
       -0.28894174 -0.010038429 0.16157176 0.022787187
000020 31 dd 30 bd ae 25 65 bd
       -0.043179695 -0.055944137
