Lab_4/logs_task_1a/epoch=27-step=16800.ckpt (torch, 125259 bytes, 8 tensors)

conv1.weight f4 [16, 1, 5, 5]
00000000: 5267 863e a327 29be 1809 c1be ed96 12bf
00000010: 6f59 a5be 4061 dfbd d269 75be 6cf4 94be
00000020: fa5f d9be 5ddb 803d 5440 b9bd 33d7 6c3e
00000030: a536 5bbe 1641 f3be df44 a8be c76d 953d
00000040: 8588 63be a503 2ebe 6617 bfbe 87f3 abbe
00000050: 9010 633e 8151 91be f26e 15be e069 f8be
00000060: c6a8 57be 14a8 4b3f 5884 0d3e ffb6 1c3e
00000070: a3a0 103f f2a6 093e 99d3 983e 6d93 bcbe
00000080: 5606 99be 1e2f cb3e 1ea1 c9bd 3aea 6c3e
00000090: 4960 78be 154a 9cbe 9038 d53e 30db 15be
000000a0: 57e2 0dbe fa38 27bf 6fbd 26be 8ce5 6b3e
000000b0: 2546 65bd 7c6f a7be 3269 2abf 35ce bebe
000000c0: 6598 813d 0d9b 0a3e d83b 21bb 6d76 32be
000000d0: be35 013f ad6e 2ebd 5d56 4ebe 75a3 2dbf
000000e0: 0035 0d3f 16cc 973e 942a d2bd 55c8 c2bd
000000f0: 5804 42bf e93b 093f 2c5d 103f 62b8 9b3d
00000100: 1323 d3be 1036 18bf d69a bfbe 08ba 8a3f
00000110: b271 253e 8b90 88be ec5f 6cbe 0195 c6be
00000120: 6019 203e 2425 bb3e 8b5d 78bc c0e3 05bf
00000130: 0e87 62be 1e35 c0be 2f5a dd3e 1db4 843e
00000140: 0e55 2cbe 901a 01be a1b6 523c 1b5c 213f
00000150: 26cd ae3e c85f dc3e 85b5 a43e 9e90 be3e
00000160: ad64 213e 3d92 bf3e 8ebd aabe 8fd6 273e
00000170: fa11 4ebe 66d5 2cbe fac6 973e 364d c9be
00000180: 9a56 b23e a3df a7be a2cd 81be 3a45 4f3d
00000190: c663 773e 18e9 353f da34 113d e9a1 493e
000001a0: 04c2 24be 9782 693e bdb6 923e b049 56be
000001b0: 454b 053f 45b7 78be fdda 383e b54c 60be
000001c0: a9ca ce3c 0d29 023f 2e1f ccbe f607 b1be
000001d0: 0837 acbe 6a6e a6bc db46 503e 8ad9 0abe
000001e0: d414 41be 8a8f d1be 5b10 793e 9674 cebe
000001f0: a4d3 bcbe 8fcc 83be 9c9e 233d f809 0ebe
00000200: e38f dd3e 5097 b43d 278e 3dbf ff25 cebe
00000210: dbc9 863d 0971 c13e 076b f43e 3b31 a73d
00000220: 94a3 dbbe 0a51 03be e2aa 8a3e 0cea 153e
00000230: 898b 04bf c8b0 ebbe ffbe 983e 3b98 e33e
00000240: e5ec 483e 7e09 26bf 25db 4f3d ada1 f83c
00000250: a5bc 983e f3aa 7dbb f7a3 45be 5893 abbe
00000260: ccb6 303f c150 6cbe 8f3a 423e f09a 9ebd
00000270: 72b0 24bf 6746 a23f 16ac b5be 604a 6bbe
00000280: 7934 d8bd d01f 1dbf 44ea 8b3f af1f a1bd
00000290: 9acb 44be 5e79 633e 1ede 52bf a7b0 f53e
000002a0: fe7d 883d 04b6 0f3e 9d18 2a3d c6c8 63bf
000002b0: da92 cb3e 54bf 973e 640c 3a3e acbb 88bf
000002c0: 349a 443f 8a0e 093f ff2a 9bbe b8fe 8bbe
000002d0: 493a 85be 10b3 9e3e 7a9e b0bd da53 ad3e
000002e0: 23b6 b03e 2306 9e3e 9659 f8be f27f 4dbd
000002f0: d978 ad3d 1af5 e1bd 65b3 733e 0148 d2be
00000300: b697 47be 3670 4b3e d25b 633e e948 f33e
00000310: c7bb 67be ad51 c93b 8acc f1bd d037 95bb
00000320: 4b48 1b3e cd5f 163f bcb7 553e 0f03 8c3d
00000330: 2aad 89be fc29 203d 50ac e4be 0baf aa3e
00000340: 04a8 153d cae1 3ebd f78c 9cbd 2f7b 123d
00000350: 5ed2 643e 629a 0abe 09cb 133e 8ae7 723e
00000360: 279d 913e b5c0 3c3e 457d 2abe 0503 813d
00000370: 406b 2d3e c249 773e 3e0a cfbd c35c 94be
00000380: 3cf7 87be b53d b0bc c3fd f4be 2105 9bbe
00000390: 6b1b 5bbf f778 3bbe e5cf 263f 0294 ae3d
000003a0: 6313 91be 0cf7 d3be 8792 91be 77d6 263f
000003b0: e36c d4be 879a ee3e ede6 453e 18d2 36be
000003c0: 54f9 973e 5747 aabe 6d07 573c 736c 1d3f
000003d0: 7243 053f 86cd a9bd c955 04bf e3f3 81be
000003e0: dbb6 123f b106 8bbd e367 74be b55d 743d
000003f0: f492 db3e 3aa8 b53e 6e0e 683e 9c68 52bd
0.26250702 -0.16519026 -0.3770225 -0.57261544 -0.32294795 -0.10907221 -0.23966148 -0.2909273
-0.42456037 0.0629184 -0.09045473 0.23128967 -0.21407564 -0.47510594 -0.32865044 0.07296329
-0.22220047 -0.16993578 -0.3732254 -0.33584234 0.22174287 -0.28382495 -0.14593104 -0.48518276
-0.21060476 0.7955334 0.13820016 0.15304182 0.5649511 0.13442591 0.29848936 -0.36831227
-0.29887646 0.39684385 -0.09845184 0.23136225 -0.2425548 -0.3052527 0.41644716 -0.14634395
-0.13855873 -0.65321314 -0.162832 0.23036784 -0.0559751 -0.32702243 -0.66566765 -0.37266698
0.06327895 0.1353571 -0.002460232 -0.17427988 0.5047263 -0.042586017 -0.20150132 -0.6782754
0.55158997 0.29647893 -0.102620274 -0.095108666 -0.7578788 0.5360704 0.5639217 0.076035276
-0.41237697 -0.5945749 -0.37422818 1.0838022 0.16156653 -0.26672778 -0.23083466 -0.38785556
0.1563468 0.36551774 -0.015159021 -0.52300644 -0.22121832 -0.37540525 0.43232867 0.25918666
-0.16829321 -0.12607789 0.012860925 0.63031167 0.3414089 0.43041825 0.32169738 0.3721971
0.15761061 0.37416258 -0.33347744 0.16390441 -0.20124045 -0.1687828 0.29643995 -0.3931672
0.34831697 -0.3278781 -0.25352198 0.05060313 0.24159154 0.710588 0.035450794 0.1969067
-0.16089636 0.22803722 0.28655043 -0.20926547 0.5206798 -0.24288662 0.18052287 -0.21904261
0.02524312 0.5084389 -0.39867538 -0.34576386 -0.33635736 -0.020316321 0.20339529 -0.13559547
-0.18855602 -0.40929824 0.24322645 -0.40323323 -0.3688022 -0.25742003 0.039946184 -0.1387099
0.4327384 0.08817923 -0.7404503 -0.40263364 0.065814696 0.3778155 0.47737905 0.08163687
-0.42898238 -0.12823883 0.27083498 0.14640063 -0.51775414 -0.4603331 0.29833218 0.4445208
0.19621618 -0.64858234 0.050746102 0.03035053 0.29831424 -0.003870663 -0.19300829 -0.33510852
0.69028926 -0.2307768 0.18967651 -0.07744396 -0.64331734 1.2677735 -0.35482854 -0.2297759
-0.10556883 -0.6137667 1.0930867 -0.07867371 -0.19218293 0.22214267 -0.82370174 0.47986338
0.06664656 0.14034277 0.04152738 -0.8897823 0.39760476 0.2963816 0.18168789 -1.0682273
0.76797795 0.5353781 -0.3030624 -0.27342772 -0.2602103 0.3099599 -0.08623977 0.33853036
0.3451396 0.30864057 -0.4850585 -0.050170846 0.084703155 -0.110330775 0.23798902 -0.4107056
-0.19491467 0.19867024 0.22202995 0.47516564 -0.22630225 0.0061437697 -0.11806591 -0.0045537725
0.15164296 0.5873993 0.2087087 0.06836521 -0.26889926 0.03910254 -0.44662714 0.33336672
0.036537185 -0.046602048 -0.076440744 0.03576201 0.22345874 -0.13535455 0.1443292 0.23721138
0.2844021 0.18432887 -0.16649349 0.06299404 0.16935444 0.2414923 -0.101093754 -0.28977022
-0.26555812 -0.0215138 -0.47849855 -0.3027735 -0.8558871 -0.18307863 0.6516097 0.08524324
-0.28335103 -0.4139942 -0.28432104 0.65171 -0.41489324 0.4660227 0.19326372 -0.17853582
0.2968241 -0.33257553 0.013124329 0.61493605 0.5205604 -0.082911536 -0.516934 -0.25381383
0.57310265 -0.06788386 -0.23867755 0.05965968 0.42885554 0.3547991 0.22661754 -0.051369295

conv1.bias f4 [16]
00000000: ee3d 3e3f cf61 1f3e d905 1abc a59a 3fbf
00000010: 761f a03d 8cf2 ce3c 5061 05bd 610b 5cbd
00000020: 2713 93bd 2746 9a3e 91f1 ea3e 9442 10be
00000030: 1412 e33d 0292 e8bd 6d23 f4bc c3bb a53e
0.7431325 0.15564655 -0.009400808 -0.74845344 0.07818501 0.02526214 -0.032563508 -0.05372179
-0.071813874 0.30131647 0.45887426 -0.14087898 0.110874325 -0.11355974 -0.029802049 0.32369813

conv2.weight f4 [32, 16, 5, 5]
00000000: 4067 d73d 23c6 e73d fbb4 08bc c127 e3bb
00000010: 94c5 eabc fccd 023e 45e9 8e3d 49cd 22bd
00000020: ed7f 163d 7853 383d 5e41 623e 13b5 773d
00000030: 08e4 063e ab3d f23d b0e0 2d3d 077e 193e
00000040: 8d1a 4a3c d5ad db3c bf6f f4bb 55f5 5dbc
00000050: 3ae3 873d 6fb5 a0bc 5f7d 3abb 106d 3dbd
00000060: 7d81 d9bc d3a4 ab3c f43c 273d df55 01bd
00000070: e0fd f63c 8edb 853d 57a8 0a3d 0d16 c33c
00000080: 10dc 413c afbd 0d3e a078 a8bd 54db d2bd
00000090: 9389 71bd a732 c6bd 527e 1d3c 482e 8dbd
000000a0: ed7e 08be 9fb4 c43b 7d22 85bd 3a2c 81bd
000000b0: f6a9 063e 96a1 b0bd 3857 18bd 9a8b a83d
000000c0: 97c0 d5bd d471 fa3d 3b7f e1bd d871 233e
000000d0: 96c9 cb3d e277 403d dd11 82bd 6326 d0bc
000000e0: ebc1 6a3d b3f7 063d f92c 583e 2549 dd3d
000000f0: 0c9d 67bd 735a 6b3d 69ba f33c 8735 303d
00000100: 1037 ba3c 8d38 09be 3264 033d ca5b ec3b
00000110: d2b3 36bb 7028 3bbd cf12 743d 45c1 353d
00000120: 9dc8 98bc f0a8 553d c5b8 0d3d 49c1 91bb
00000130: 504c 0a3e c8d2 2c3c 9929 153c f6dd b3bc
00000140: 61dc d93c 365e da3c 4690 57bc dc5a b13c
00000150: a0a6 f0bc ebdf b3bc 4a26 82bc c78a c1bd
00000160: 1527 863d db88 54bb 5c5b 9ebd fc8e 6ebc
00000170: c81a 59be f002 f0bb d39e 8b3d b93e e33b
00000180: 8f9e f23c 0c71 7b3c eca9 0ebd 8ab4 abbd
00000190: 9acc 3d3d 437b 233d 4b39 52bd 6d52 303d
000001a0: ad16 743c b89b 2fbd 56a6 d23b ed64 1cbd
000001b0: 6e31 013e 5821 febd 8414 6abd 5731 983d
000001c0: c217 d3bc 2ef0 cabd 88da 91bd ad79 81bd
000001d0: a947 7eba d2fb eabc 7526 0cbc 10fa 193d
000001e0: 5ce6 3cbd 665e 02bd 08aa 943c 6329 d6bd
000001f0: dde1 1d3d 5733 25be 75b4 17bd 55f8 e93d
00000200: 3c2d b4bd 23d1 35be 7698 afbd 3ee8 0ebc
00000210: 5425 2c3d 81e8 c23d 6cdc 11bd 23be 33be
00000220: 27aa 243d a1e8 0dbc e2dc da3d 0390 8dbd
00000230: 8f02 0dbe caf1 dd3d 2110 a2bd 4f86 eebd
00000240: f466 593c 3d3b 62be 795e 49bc c805 c33d
00000250: 5cfc 56bd ae0b 40bd 8456 25bd d689 483e
00000260: 5a2d f8bd 0265 46be 12ea 09be 33dc c03c
00000270: 916f d93d a4c2 003d d503 f1bc 7eb6 c23d
00000280: f821 413d 154f a8bc 07db a83d 5d85 23bd
00000290: 2022 c83d baed afbd d838 6b3d 9dbb 143e
000002a0: 0a66 61bd 5a03 323d 573c 9ebd 147c 2f3d
000002b0: 9066 50ba 2317 1b3e afc2 ab3d 3621 6dbd
000002c0: 2275 17be a9b2 663d c8ac ddbd 625d 35be
000002d0: 9718 b4bd f479 23bd 10c9 c23c 3b30 f03d
000002e0: 4028 53bd 0b3b b0bd 00a2 8ebc 1294 73bc
000002f0: bedd 773d a6b8 443c 46ca 53bc b297 f0bc
00000300: 5f37 853d b841 84bd 77f5 3a3d 885e 6fbc
00000310: 4da1 973d 671a 153d 2778 373d 0ad8 c0bc
00000320: 8784 80be f7ac 8abe 68c2 86bd a008 25be
00000330: 5a25 30be 5c8b 59be 3eed 6ebe 970b c8bc
00000340: ffd4 29be c2e8 86be 6f00 12be 589a 70be
00000350: 127c d2bd ed85 f4bd 57a7 19be 90a1 c9bd
00000360: 6cdc 5cbd 404a c8bd 5bf7 06be e64c efbd
00000370: 2dad a4bd 6586 9cbd 96a7 03be 4783 c23d
00000380: cdf1 dcbb a247 413c 0129 3c3d 1f67 f13c
00000390: 3ba5 1b3e 2bd6 f8bd b4a0 ab3d f877 e7bd
000003a0: 055e b8bd cc8b 833e 7dba b0bb 736d 8f3c
000003b0: 883b 873d 0f3c 90bd f2b9 083e 09b8 7d3d
000003c0: bf84 2dbb 13c4 88bd ef74 63ba 5400 e03d
000003d0: 7ba4 043e 7dfe 30bd a35f 99bd 98f7 263c
000003e0: 0c22 44bd 0102 093e 76e8 f33d d650 13bc
000003f0: ae72 30bd 8feb 173d bcff 073d 1b3c 343e
0.1051774 0.113170885 -0.00834393 -0.0069322293 -0.028658666 0.1277389 0.069780864 -0.039746556
0.036743093 0.045001477 0.22095248 0.06047542 0.13172925 0.118281685 0.042450607 0.14989482
0.012335432 0.026816288 -0.0074596102 -0.013547261 0.06635137 -0.019617764 -0.0028456075 -0.04624659
-0.026551003 0.020952618 0.040829614 -0.031576034 0.030150354 0.06536017 0.033851948 0.023814226
0.011832252 0.1384189 -0.082261324 -0.1029574 -0.05896909 -0.0967763 0.009612637 -0.06893593
-0.13329668 0.006002977 -0.06500719 -0.06307264 0.13150772 -0.0862457 -0.037192553 0.08229752
-0.10437124 0.12228742 -0.110105954 0.15961397 0.09950559 0.04698933 -0.063510634 -0.02540893
0.05731384 0.032951068 0.21110906 0.10804967 -0.056546256 0.057459306 0.029751973 0.043019798
0.022731334 -0.13400479 0.032077976 0.0072130905 -0.0027878177 -0.04569286 0.05958825 0.04437377
-0.018650347 0.052163064 0.034600038 -0.00444809 0.13505673 0.010548301 0.009104156 -0.021956425
0.026594343 0.026656251 -0.013156956 0.02164977 -0.029376328 -0.021957358 -0.015887398 -0.09450298
0.06550423 -0.0032430205 -0.07732269 -0.014560457 -0.21201622 -0.007324569 0.06817403 0.0069349674
0.029616622 0.015346777 -0.03483002 -0.083840445 0.0463377 0.039912473 -0.05132417 0.043047357
0.014897984 -0.042873114 0.00642852 -0.038182188 0.12616512 -0.124087036 -0.05714847 0.07431286
-0.025768165 -0.09909092 -0.0712176 -0.06322036 -0.0009700009 -0.02868453 -0.008554091 0.037591994
-0.046118125 -0.031828307 0.018147483 -0.10457113 0.038545478 -0.16132866 -0.03703733 0.11424319
-0.0879769 -0.1775556 -0.085740015 -0.008722363 0.042027786 0.09517003 -0.0356106 -0.17553
0.040201332 -0.00866142 0.10686661 -0.06912234 -0.13770507 0.10837133 -0.079132326 -0.11646711
0.013269175 -0.2209291 -0.01229059 0.09522587 -0.052486762 -0.04688614 -0.04036571 0.1958383
-0.12118025 -0.19374469 -0.13468197 0.0235425 0.10616983 0.031435624 -0.029420773 0.09507464
0.047151536 -0.020545522 0.08244901 -0.039922107 0.09772134 -0.085902646 0.057427257 0.14524694
-0.055028953 0.043460228 -0.07726353 0.04284294 -0.00079498533 0.15145545 0.08386742 -0.057893
-0.14790776 0.056322727 -0.10823971 -0.17711404 -0.08793753 -0.039911225 0.023777515 0.11727949
-0.051552057 -0.086050116 -0.017411232 -0.014866846 0.060514204 0.012006914 -0.012926644 -0.029369209
0.06504702 -0.06457847 0.04564425 -0.01460994 0.074038126 0.036402132 0.04479232 -0.023540515
-0.2510111 -0.27085087 -0.06580049 -0.16116571 -0.17201748 -0.21244568 -0.23332688 -0.024419589
-0.16585158 -0.26349455 -0.14257978 -0.23496377 -0.10277571 -0.11939607 -0.15005241 -0.09845269
-0.05392115 -0.09779787 -0.13180296 -0.11684589 -0.08040843 -0.07642821 -0.12856898 0.094976954
-0.006742692 0.011796864 0.045937542 0.029468117 0.15199749 -0.12150224 0.08380261 -0.11302179
-0.09002308 0.25692594 -0.005393325 0.017508244 0.066031516 -0.07042705 0.13352183 0.061943088
-0.0026476828 -0.06678023 -0.0008676787 0.109375626 0.1295337 -0.04321145 -0.074889444 0.010190867
-0.047884032 0.1337967 0.11909573 -0.008991441 -0.043078117 0.03708988 0.03320287 0.17601053

conv2.bias f4 [32]
00000000: 61c0 0dbe 319b ca3d cff8 b2bd 7a7e 6abe
00000010: b4a9 3e3d 0b36 a03c 13ec 43be c3af 34bd
00000020: 8f85 283e 4cd3 b1bc a2b1 ccbc 564c d93e
00000030: 428d 4dbb 0543 8d3c e05e 603e ed4a b7bc
00000040: c0d3 d03d ae4f 703c 61cc ddbd a948 723e
00000050: e875 8ebd d431 b1be 60e1 d23c ba7e 123e
00000060: 44b5 bb3d a203 163f f0e6 c43d c36a 213e
00000070: f39c 393d cea6 813e 9608 02bd 54fe a03e
-0.13842918 0.09892882 -0.08738863 -0.2289981 0.04654856 0.01955702 -0.19133024 -0.044112932
0.16457199 -0.0217072 -0.024987046 0.42441052 -0.0031364714 0.017243871 0.21911192 -0.022374595
0.10196638 0.014667435 -0.10829998 0.2366053 -0.069560826 -0.34608328 0.025742233 0.14306155
0.09165433 0.58599293 0.0961436 0.15763383 0.045315694 0.25322574 -0.03174647 0.31444037

fc1.weight f4 [32, 512]
00000000: e28c f73d 4f26 e23c cafe d03c f929 05bc
00000010: 0646 a33c 375e a63d 4bb6 fc3c be4f 8c3d
00000020: d66b c4bc 8e15 963d 6587 5fbd 70d3 2f3d
00000030: 7b86 31be b6a4 2bbe 2d07 f23c 7af5 6b3c
00000040: 430e e0bc c3ee 963d 4ee8 2c3e 5ee1 8abd
00000050: a1b6 fe3d 2380 653c 0b5e b6bb e684 173e
00000060: 555d 3bbe deac babc 70cd 31be 72ea 48be
00000070: 4129 263e 2a14 323d 7a8c 69be 5a68 44be
00000080: 9d44 043e 5ba8 5d3d ec60 263d 9950 ad3d
00000090: 36f0 c33c 9d93 463e c171 a6bd 4142 95bd
000000a0: 2af1 073e fce5 103e d529 3abd 8071 26bd
000000b0: c9f5 13be 0434 4d3e d5a1 88be a62d d4be
000000c0: 2775 0b3c b934 91bd 7044 2d3e c267 a1bd
000000d0: d8c2 603b fe77 00bd 8ee6 d53d bec7 383d
000000e0: 2c74 b33d d359 bebc 0386 6b3e b290 f03d
000000f0: 2986 e4bc 90f4 a7bd b173 1b3a 48a0 a6be
00000100: cfc3 023e 802a b53b fb67 463d 3802 26bc
00000110: e709 bb3b 6d2d 3bbd 28c5 5dbb 4b85 a4bd
00000120: b255 213d bf6e 4bbd 9f03 2b3d 8f22 35bd
00000130: ae68 99bd 43d3 853c 3d51 7bbc 175b e3bb
00000140: 9ded 9e3c 9807 6dbb a421 09bb 7431 bc3d
00000150: 531e 6f3d 6c1f 0ebc fabf a5bc b93e b3bd
00000160: d5d1 873d eb26 89bc a809 aa3d 8c5e e43d
00000170: 8b00 583e 0e88 9dbd 3902 06be bc3e bc3d
00000180: 6bcb ebbd 3737 9e3d 029e 81bd 9064 f5bd
00000190: 0ce5 873d a43a ce3d 8d59 ee3c bf91 3a3d
000001a0: 73f0 ce3d 32c6 973d 7fae 303e eaca 373e
000001b0: a563 9cbd e101 f6bd c84e 38be 5821 bfbc
000001c0: 3a84 853b 90a9 a63b 8007 253c c00f 273d
000001d0: 13d2 c83d b424 cebc bb30 223d 8450 52ba
000001e0: be33 043e a332 50bc 78c3 48bd 03a4 acbd
000001f0: c4bc 60bc c1b9 40bd a208 f23c 832c 5fbd
00000200: e329 733d c55e 803b 7511 d83d 5ac6 153e
00000210: 7280 633b 6c79 1abe 72a9 02be deee 473d
00000220: 0f7f 7cbc 61dc f03c 7e35 433c 1f3b 613d
00000230: 2741 1bbe cb03 d43b 98ad 0abd 370a 9ebd
00000240: 208d 683d bf8b dbbd a5a5 72bc d848 9f3e
00000250: 503d dcbc 2029 7d3d 1500 353e 1444 653e
00000260: 06ef e9bd 97f1 843d 9509 1e3e cd31 143e
00000270: d0e2 b1bd 15f9 893c 5334 13bc 616f ef3b
00000280: 2f3d 55be 8f2d 7bbd 45b6 55bd 5966 243e
00000290: 96aa f7bd 6044 8c3c 05d0 30be 1bc2 3d3d
000002a0: 090a bd3d c910 81bc d91b ebb9 dd56 0d3d
000002b0: 6fdc 9b3d f635 55be e0b6 ad3d 2f6a 5ebe
000002c0: 6fd6 f6bc ec3f 9a3c 01fc 853d 869d 613c
000002d0: fa36 b43d 7bd7 e3bd 1a62 b33d e9c4 85bc
000002e0: 9734 8e3e eadf f2bc 94be bcbd 66dd dfbc
000002f0: f865 8ebe cc60 efbc 559b 343e d77e 253e
00000300: 7514 143e 2172 91be 44b1 c83c 9a54 393d
00000310: 4ac9 773e 8919 673d 864a 11bd d482 a4bd
00000320: bb7e 843d 626e 7c3d b4fe 3dbe 9124 e13d
00000330: aa58 53bd 139d d8bd 6566 1cbe 860a bebd
00000340: dcca 363e 1edd d1bd cbe2 373d e530 55bd
00000350: e016 323d cf7a ec3d 2937 a9bd ee06 b33c
00000360: 86ef 993d b6cc 05bd f0a1 8bbd 3be9 59bd
00000370: cecd 9bbd 056a 8e3d 0ec5 28bd c992 dc3c
00000380: 9b21 ed3c aa8a 26be c006 3f3c 4ca1 3e3e
00000390: 9519 7abd 1228 c4bc 494a b83e 8519 b9bd
000003a0: f6d8 55be c9cf 3abd e79b d63d 98ae b3bd
000003b0: 656a c9bd 9793 a23d 3d2a f2bd 9e29 20be
000003c0: d4a4 8ebd 5686 f1bb 0af3 babd c200 653e
000003d0: 78dd bbbd 02c1 a33c 7e86 de3c f8f0 13be
000003e0: 0954 1cbc 7f08 d73d 619d 27bd fa6a efbd
000003f0: 057d 923d 02a4 f33c 4b52 66bd 2a05 dcbd
0.12087418 0.027606158 0.025512118 -0.008127683 0.01993085 0.08123439 0.030848643 0.06851147
-0.023977201 0.0732833 -0.05457248 0.042926252 -0.17336456 -0.16762051 0.029544437 0.014401788
-0.02735055 0.07369759 0.16885492 -0.06781267 0.124371774 0.014007601 -0.00556541 0.1479679
-0.18297322 -0.022787508 -0.17363524 -0.19620684 0.16226675 0.04347626 -0.22807494 -0.19180432
0.12916799 0.054115634 0.040619776 0.084626384 0.023918252 0.19392247 -0.081271656 -0.072880276
0.1327559 0.14150232 -0.04545005 -0.040635586 -0.14449228 0.20039374 -0.26685968 -0.41441077
0.008511818 -0.07090134 0.16920638 -0.07881118 0.0034295823 -0.031364433 0.104443654 0.045112364
0.087623924 -0.02323619 0.2300034 0.117463484 -0.027896004 -0.082009435 0.000593002 -0.3254416
0.12770008 0.005528748 0.048439007 -0.010132365 0.0057079676 -0.04569762 -0.0033839438 -0.08033236
0.039388366 -0.049666163 0.0417515 -0.04422241 -0.07490669 0.016336089 -0.015339193 -0.006938349
0.019400412 -0.0036167856 -0.0020924592 0.0918912 0.05837853 -0.008674484 -0.020233143 -0.08752198
0.06631819 -0.01674219 0.08302623 0.11150846 0.21093957 -0.07691966 -0.13086785 0.09191653
-0.11513408 0.07725375 -0.06328966 -0.119820714 0.06635484 0.100697786 0.029095436 0.04554915
0.10104456 0.0741085 0.17254065 0.179485 -0.07636193 -0.12012077 -0.17998803 -0.02333133
0.0040746005 0.0050861314 0.010072589 0.040786505 0.098056935 -0.025163986 0.039597254 -0.0008022862
0.12910363 -0.012707385 -0.04901454 -0.0842972 -0.01371688 -0.04705215 0.029545132 -0.05448581
0.05936612 0.0039175474 0.10550205 0.14626446 0.003471401 -0.15085381 -0.12759951 0.048811786
-0.0154111525 0.02940196 0.011914609 0.054988023 -0.15161572 0.0064701787 -0.03385696 -0.07716792
0.056775212 -0.10720014 -0.014810001 0.31110263 -0.026884705 0.061806798 0.17675813 0.22389251
-0.11422543 0.06491392 0.15433343 0.14472122 -0.08685839 0.016842404 -0.008984643 0.0073069786
-0.20824121 -0.061322745 -0.05217578 0.16054668 -0.120930836 0.017122447 -0.17266853 0.04632769
0.0923043 -0.015755074 -0.0004484344 0.034506667 0.07610404 -0.20821366 0.08482146 -0.21720193
-0.030131547 0.018829308 0.065422066 0.013770467 0.087995484 -0.11125084 0.08758946 -0.016329246
0.27774498 -0.029647786 -0.092160374 -0.02732725 -0.2781217 -0.029220961 0.1763738 0.16161667
0.14460929 -0.28407386 0.02449859 0.045246698 0.2419788 0.056420837 -0.03547146 -0.08032766
0.064694844 0.061628707 -0.18554193 0.109933026 -0.05159823 -0.105768345 -0.15273435 -0.09279351
0.17850822 -0.10247253 0.04489402 -0.052048583 0.043478847 0.115468614 -0.08262474 0.02185389
0.075163886 -0.03266593 -0.068179965 -0.05320094 -0.076076135 0.06953815 -0.04120355 0.026925461
0.028946688 -0.16263834 0.011659324 0.18616217 -0.061059553 -0.023944888 0.35994175 -0.090380706
-0.20883545 -0.045608316 0.10478955 -0.087735355 -0.09834746 0.07938307 -0.118244626 -0.15640876
-0.06965032 -0.0073707504 -0.09128387 0.2236357 -0.09173101 0.019989494 0.02716374 -0.14447391
-0.00954152 0.104996674 -0.040921573 -0.11690326 0.07152752 0.029741291 -0.056230824 -0.107431725

fc1.bias f4 [32]
00000000: 67a6 2d3d 61ea 463d b082 ce3d 3531 9bbd
00000010: fac2 a23e 93ed fcbc 0700 9f3d c1ba 9c3e
00000020: 9dde 563d d304 e1bd a549 a93b 9203 14be
00000030: e6ef e13d d84e 20be d7b2 543d e5ea f23d
00000040: e7e8 853b 78af ca3c e3df c03d 6ea6 4c3e
00000050: dfbb 2f3c b8b7 d43e 6a64 9b3e dcbe 1f3e
00000060: 4c0e 92bc 0308 4b3e 1b3d e73d ae3c 8b3b
00000070: f71f 0bbd a721 543b 5ffe f73c d574 babb
0.04239502 0.048563365 0.100835204 -0.07577745 0.3178938 -0.030875003 0.07763677 0.30611232
0.052458394 -0.10987248 0.00516625 -0.14454487 0.11032085 -0.15655077 0.051928367 0.11861209
0.004086602 0.024741873 0.09417703 0.19985363 0.010725944 0.41546416 0.30350047 0.15600151
-0.017829083 0.19827275 0.11290952 0.004249177 -0.03396603 0.0032368691 0.03027266 -0.005690197

out.weight f4 [10, 32]
00000000: 05ff 96bd e0ec 2a3e d6f2 8dbe d987 21bf
00000010: f592 de3e 076f 033e 3845 963e 7f17 593d
00000020: f06f 11bf 8db7 383f 0b1a 033f ca40 c2bd
00000030: 3a85 573f ba5c 103f f573 84be 6dd1 723e
00000040: 8681 d1bd f5b2 c0be c7e1 af3e a274 d63e
00000050: e40a 00bf 1aa2 f23e a6d7 523e 093e 503f
00000060: ff15 12be e08f 54be a570 b2be 7197 5ebe
00000070: 2100 613e 6e30 fcbd a7be 24bf 25fd 03bf
00000080: 4579 0c3f 6e2e ad3d c910 3bbe 9ad3 52be
00000090: ce81 243f fa21 47bf 7388 1bbe a174 05bf
000000a0: bc7e e93d 2a09 503f 4c08 7cbe b4a4 cd3d
000000b0: cc60 883e d0e6 34bf 8fe6 46be d950 9abd
000000c0: b9b5 cbbd eed3 113f 6f11 fbbe c139 33bf
000000d0: c05e 7cbe 76c8 38bf ce05 a7bd 54ce ddbd
000000e0: 11c6 0b3e 07b5 c8bd 0c63 413f 8691 e63c
000000f0: 2523 033f 2eec 1cbe 03fe 703d 6cd6 91be
00000100: aa82 eabe 9593 b33e b30b be3e 5af6 de3e
00000110: 951c c93d 9ba3 9a3e b6fd 1f3e c41d b93d
00000120: 709a 87be a591 e63e fdbc a6be 4a9d 623e
00000130: 73f7 26bf 5594 5e3e 22eb 2fbe 672d 65be
00000140: 4b74 aebd 4519 5f3e 5288 dabe ff1b 493f
00000150: cbe3 d53e e9a4 b63e 6285 3c3f 0955 5e3d
00000160: 1cab d03d 534b f2be 7fcb eebe a006 c2bd
00000170: cfdf 49be 5391 88be 3abc 2e3f 7c71 38bf
00000180: 09c9 343f ad70 b53e 93c4 d6be f916 0d3f
00000190: 03e2 1ebf 01a0 933d 8a38 9cbe 2df9 ecbe
000001a0: fa5e 363f 5ec7 553e 7c43 273d 4361 193d
000001b0: f9ec 38be a44c 49be 2c6f e4bd 5214 abbe
000001c0: 9928 3d3d 4591 003e 3a8a d83d 3215 8c3e
000001d0: 3169 35be f88f 4b3f 81b3 0dbe 10fa b9be
000001e0: 1703 f83c 9d8d a7be cb18 ae3e 5e92 fcbd
000001f0: 0f7f 94be a7d9 d4be 4c82 1bbf fd02 563e
00000200: 5180 bb3e 92bf 04bf 12e6 a33e b22e 113f
00000210: bb11 0cbf a160 283f ff1f 34bf bfce 9fbe
00000220: fb73 3a3e 2d38 0e3f ce3a 433e d769 5b3f
00000230: 51dd 26bf 6c1d 303f 9b7b 1bbe 0cc1 1d3d
00000240: 18db adbe b32a 5dbe 30f9 5ebf 16a6 6b3e
00000250: 159a 163f f9a4 1cbe cf1a e9be 428a 02bf
00000260: 85ff 7cbe a0eb 873e 742a 453e 2b38 d9bd
00000270: 5d6b 0b3e 5b49 24be a846 f13e f021 283e
00000280: 6a0a 403d 4bc6 59be 27a0 053e 578d 0dbf
00000290: 2810 07bf f379 85be ce98 27be 3533 213d
000002a0: cbd5 eb3c 4e7c 1dbf c2ae 9c3d a045 ab3d
000002b0: 0a46 c6be 9810 2fbc 96b3 2e3f 6448 20bf
000002c0: a3cd 143e 4313 023f 5b8c 183f 19b2 afbd
000002d0: 45af 0ebf b252 a3be f802 06bf f331 48be
000002e0: 6e2d 94bd 7402 14bf 5f3c b6be ddc2 8d3e
000002f0: 2fbb d93e ba05 763f c79d af3d 1b05 f6bd
00000300: 3191 ccbe 5744 a0be ea46 413f bef2 3dbe
00000310: 9ec5 713e 0540 353f c7da 143f 687e 50bf
00000320: 34ac 18bf cf8f 993d a6aa f83a 55c3 debe
00000330: 249e 7d3f 5902 5d3e ce2e 423e 2a44 593e
00000340: 77de a2bd 3d15 ba3d 9d96 8bbe a89e bf3e
00000350: 74a0 803e eb23 2c3f 040c 92be 3b3d 2b3e
00000360: a76e 7abe 92bd 813e 7866 be3e cebc 4dbd
00000370: 7b01 20bf bbae 78be d764 253e 5d85 383f
00000380: 1272 8e3c e368 85bd 58e0 fabc 1700 8e3e
00000390: 64c4 a9be 2eb1 103d 0150 063d cd04 1a3f
000003a0: 3d1b 51be f9a7 e3be 1f7f e03a 6743 f43d
000003b0: 2349 d7bd ee64 28bf 0304 0a3f 956c 483f
000003c0: 6200 053e d5b0 2abf eae0 cc3d 6400 3dbf
000003d0: 11b1 e4be 7f98 ddbe 7222 a23e bf1e b53e
000003e0: 6c22 493c a0ce db3e 6e08 c4be 1e11 e73e
000003f0: 4e55 f0be 469f 143f 1661 12bf 2959 0ebe
-0.0737286 0.16691923 -0.27724332 -0.6309791 0.43471494 0.12835322 0.29349685 0.053000923
-0.5681143 0.72155076 0.51211613 -0.09485014 0.8418766 0.5639149 -0.25869718 0.23712702
-0.10229783 -0.37636533 0.34351942 0.4188586 -0.5001662 0.473893 0.20590076 0.8134466
-0.14266203 -0.20758009 -0.34851566 -0.21737458 0.21972705 -0.12313925 -0.6435341 -0.5155814
0.5487254 0.084561214 -0.18268122 -0.20588532 0.64260566 -0.7778622 -0.1518877 -0.52131087
0.11401126 0.81263983 -0.2461254 0.1004118 0.2663635 -0.7066469 -0.19423889 -0.07534952
-0.0994677 0.56964004 -0.49036738 -0.7001 -0.2464552 -0.7218088 -0.08155404 -0.108303696
0.13649775 -0.09800153 0.7554176 0.028145563 0.512255 -0.1532447 0.058835994 -0.28483903
-0.45802814 0.35073534 0.371183 0.43547326 0.09819905 0.30202946 0.15624127 0.090388805
-0.26485014 0.45032993 -0.32566062 0.22130314 -0.6522133 0.21736272 -0.1717954 -0.22380601
-0.08518275 0.21786983 -0.4268213 0.78558344 0.41775355 0.3567269 0.73641026 0.054280315
0.101888865 -0.47323093 -0.4663963 -0.0947392 -0.19714282 -0.26673374 0.6825596 -0.72048163
0.70619255 0.35437527 -0.4194685 0.5511318 -0.62063617 0.07208253 -0.30511886 -0.46283856
0.7123867 0.20876834 0.040835842 0.03744627 -0.18059148 -0.19658142 -0.11154017 -0.3341394
0.046181295 0.12555416 0.105732396 0.2735992 -0.17715909 0.79516554 -0.13838007 -0.36323595
0.03027491 -0.3272523 0.3400329 -0.12332605 -0.29003188 -0.41572306 -0.6074569 0.20899577
0.36621335 -0.51854813 0.32011467 0.56711876 -0.54714555 0.65772444 -0.7036132 -0.31212422
0.18208306 0.5555447 0.19065401 0.85708374 -0.6518145 0.68794894 -0.1518387 0.038514182
-0.33956218 -0.2159832 -0.8709898 0.23012576 0.5882886 -0.15297307 -0.45528266 -0.50992215
-0.24706848 0.26546955 0.19254476 -0.10606416 0.13615175 -0.16043608 0.4712422 0.16419196
0.04688493 -0.21267049 0.13049375 -0.5529379 -0.5275903 -0.26069602 -0.16366884 0.039355475
0.028788468 -0.615178 0.0765052 0.08362889 -0.3872531 -0.010685109 0.68242776 -0.6261046
0.14531569 0.5081064 0.59589165 -0.08578891 -0.5573619 -0.3189903 -0.5234828 -0.19550304
-0.072352275 -0.57816243 -0.35592934 0.2768773 0.42525622 0.9610249 0.085750155 -0.120126925
-0.39954522 -0.3130214 0.7549883 -0.1854963 0.23610541 0.7080081 0.5814633 -0.8144288
-0.5963776 0.074981324 0.0018971756 -0.43508402 0.9906943 0.21582927 0.18963167 0.21217409
-0.07952588 0.09086082 -0.27263346 0.37425733 0.25122416 0.67242306 -0.28524792 0.16722576
-0.24456273 0.25339943 0.37187552 -0.050228886 -0.6250226 -0.24285404 0.16151749 0.72078496
0.017388377 -0.06514146 -0.030624554 0.27734444 -0.33157647 0.03532522 0.03279114 0.60163575
-0.20420547 -0.4446409 0.0017127729 0.119269185 -0.105119966 -0.65779006 0.5391237 0.78290683
0.12988427 -0.66676074 0.100038365 -0.7382872 -0.4466634 -0.43280408 0.31666905 0.3537502
0.012276273 0.4293108 -0.3828768 0.45130247 -0.46940082 0.5805553 -0.5717939 -0.139012

out.bias f4 [10]
00000000: 647c ccbd 3c04 403d a0b1 e33d d1f3 89bb
00000010: dac0 10bf bfaa f6bd a67a dc3e 4fd9 efbc
00000020: a9c1 493e 7c75 50be
-0.09984663 0.04687904 0.11117864 -0.0042099734 -0.5654427 -0.12044286 0.43062323 -0.029278425
0.19702782 -0.20357317
