Lab_4/logs_task_1a/epoch=24-step=15000-v2.ckpt (torch, 125259 bytes, 8 tensors)

conv1.weight f4 [16, 1, 5, 5]
-0.42525643 -0.33834147 -0.33775613 -0.7439717 -1.0216157 0.3104983 -0.44459242 -0.17513381
-0.40622208 -0.21119864 0.039061144 0.19771099 0.34841093 0.5367323 0.13123953 0.43449917
0.06383331 0.15753159 0.043151625 0.39206085 0.27770853 -0.06994304 -0.15335058 0.19591668
0.65406644 0.06842394 0.016072985 0.17586207 0.23113054 -0.40552276 0.06985871 -0.10187286
0.3898478 0.14711359 -0.18330762 0.2553482 -0.10370571 -0.050479013 0.8980318 -0.32563242
-0.042010996 -0.6497112 -0.4163601 1.0129417 0.334393 0.13015772 -0.27493817 -0.85310614
0.3482768 0.4395625 0.3467849 0.7205335 0.56161284 0.41933262 0.1930852 0.263772
0.04490366 0.1337235 0.038882308 -0.030895773 0.2766822 0.19646275 -0.119390644 -0.40215534
-0.25942835 -0.20410936 -0.20843595 -0.46768567 -0.483661 -0.18389705 -0.5197326 -0.9287956
-0.50148666 0.36027566 0.31817093 -0.114667036 -0.27863777 -0.42684963 -0.399872 -0.26970047
0.017023025 -0.24962863 -0.7104997 -0.6591565 -0.5222457 0.38194233 -0.040279016 -0.6604188
-0.7227294 -0.22262745 -0.024208877 0.009242538 -0.44179448 -0.43164954 0.13563739 -0.06678341
0.024570027 -0.064892575 -0.2205899 0.14577843 0.19322778 -0.19619954 -0.2709309 -0.5214751
0.41483423 0.5089866 0.113364376 -0.5695832 -0.9382983 -0.0808287 0.3953497 0.1576149
-0.0012470254 -0.57943124 0.27029997 0.39897943 0.30055365 0.06474554 -0.38739938 -0.023125082
0.06272017 0.3639763 0.49702448 -0.3649218 -0.058957096 0.48553252 -0.7919205 -0.7403
0.08746348 -0.31065974 0.774679 -0.2335108 -0.43240258 -0.45111677 -0.06229819 0.30757573
0.5964238 0.32517824 0.105974704 0.3458613 -0.7069554 0.27293605 0.15767805 0.014735384
0.16368578 -0.79156756 0.05250504 0.50456005 0.06102955 -0.14016645 -0.37354708 0.5855016
0.100303955 0.25335094 -0.42848334 -0.21360613 -0.03212793 -0.0313023 0.34411642 0.16778967
0.0047232537 0.26588133 -0.15773253 -0.117206864 -0.1114982 -0.47551283 0.19283883 -0.021975452
0.21000522 0.076716855 -0.45241806 -0.11465592 0.22450273 0.23987742 0.08366292 0.97348624
-0.26246175 -0.74469334 -0.39062288 -0.45192775 0.041437842 0.6510132 0.08230279 0.11552356
-0.2947078 -0.108534254 -0.057618745 -0.3473941 0.53049546 0.34643373 0.33309934 -0.24598536
-0.39187902 -0.119413875 0.54040176 0.28131998 -0.25700644 -0.33047143 -0.1465964 0.28538638
-0.3429962 0.034490842 0.26591548 0.6139342 0.052472305 0.58327615 0.67234904 0.3725147
0.041593727 -0.12513743 -0.015576618 0.07201548 0.12266454 0.3160179 -0.20776452 -0.49917236
-0.50666326 0.036449075 0.14620812 -0.046983976 -0.2075279 -0.49714288 -0.24976374 -0.013222156
-0.47261772 0.4030223 0.32962972 0.3175417 -0.41346803 -0.49193734 0.24841644 -0.21182035
-0.3335872 0.12641454 0.13559617 -0.11926943 0.24907087 -0.09600019 0.101873316 -0.15086308
-0.42678028 -0.2330157 -0.12428553 -0.3848483 -0.11441173 -0.2689379 -0.12641093 -0.06630944
-0.07557397 -0.27202535 0.04795118 -0.38167915 0.44889635 0.39785966 -0.41217315 -0.25156593
00000000: 36bb d9be 183b adbe 5fee acbe ee74 3ebf
00000010: 4ec4 82bf a2f9 9e3e 9ea1 e3be 4756 33be
00000020: 57fc cfbe 7544 58be 94fe 1f3d c074 4a3e
00000030: eb62 b23e 4a67 093f a863 063e ad76 de3e
00000040: 0abb 823d f64f 213e c2bf 303d 33bc c83e
00000050: d02f 8e3e 4c3e 8fbd ef07 1dbe 629e 483e
00000060: e670 273f da21 8c3d 7eab 833c 3015 343e
00000070: 7cad 6c3e aea0 cfbe 1512 8f3d b8a2 d0bd
00000080: 219a c73e f2a4 163e feb4 3bbe 00bd 823e
00000090: a963 d4bd 15c3 4ebd 69e5 653f 4bb9 a6be
000000a0: b913 2cbd 7953 26bf 272d d5be 13a8 813f
000000b0: 8f35 ab3e 1148 053e b2c4 8cbe 2a65 5abf
000000c0: 5651 b23e 560e e13e ca8d b13e e274 383f
000000d0: dcc5 0f3f c4b2 d63e 20b8 453e 200d 873e
000000e0: e6ec 373d d0ee 083e 0e43 1f3d 2219 fdbc
000000f0: 4aa9 8d3e 882d 493e 1583 f4bd 4ee7 cdbe
00000100: cbd3 84be 0b02 51be 3c70 55be 7f74 efbe
00000110: 6aa2 f7be 824f 3cbe 320d 05bf 8cc5 6dbf
00000120: 6e61 00bf 0d76 b83e 4de7 a23e 8dd6 eabd
00000130: 9ca9 8ebe 098c dabe 06bc ccbe 2e16 8abe
00000140: df73 8b3c a69e 7fbe 4fe3 35bf 7bbe 28bf
00000150: e5b1 05bf f28d c33e 9cfb 24bd 3511 29bf
00000160: cb04 39bf 73f8 63be b251 c6bc 046e 173c
00000170: e332 e2be 2b01 ddbe 87e4 0a3e bec5 88bd
00000180: 1547 c93c 66e6 84bd 52e2 61be f146 153e
00000190: 81dd 453e 88e8 48be 74b7 8abe 647f 05bf
000001a0: 2765 d43e f24c 023f 952b e83d 34d0 11bf
000001b0: 5134 70bf 8489 a5bd 476b ca3e cd65 213e
000001c0: 3b73 a3ba 9b55 14bf c264 8a3e 0847 cc3e
000001d0: 2be2 993e 4f99 843d 3659 c6be d070 bdbc
000001e0: 6f73 803d 1a5b ba3e fe79 fe3e 08d7 babe
000001f0: ff7c 71bd b897 f83e 4dbb 4abf 4d84 3dbf
00000200: 0e20 b33d cb0e 9fbe 5d51 463f 751d 6fbe
00000210: df63 ddbe c7f8 e6be 632c 7fbd 917a 9d3e
00000220: 3baf 183f c37d a63e 4409 d93d bb14 b13e
00000230: 07fb 34bf 46be 8b3e 5b76 213e ae6c 713c
00000240: 3f9d 273e 2ca4 4abf 860f 573d d92a 013f
00000250: 1ffa 793d cb87 0fbe 9041 bfbe 6fe3 153f
00000260: 296c cd3d 37b7 813e 2b62 dbbe 91bb 5abe
00000270: 9498 03bd d736 00bd 0730 b03e 0ed1 2b3e
00000280: 86c5 9a3b 9921 883e a384 21be 270a f0bd
00000290: 2b59 e4bd 6b76 f3be 8b77 453e dd05 b4bc
000002a0: 9c0b 573e ba1d 9d3d 57a3 e7be b9d0 eabd
000002b0: 0be4 653e 6da2 753e 7757 ab3d 6536 793f
000002c0: 6361 86be 39a4 3ebf b9ff c7be 1363 e7be
000002d0: baba 293d cda8 263f 5d8e a83d 9e97 ec3d
000002e0: f1e3 96be 3547 debd a201 6cbd a4dd b1be
000002f0: 8dce 073f c35f b13e ff8b aa3e 96e3 7bbe
00000300: 5ea4 c8be 438f f4bd c557 0a3f 2c09 903e
00000310: 5996 83be 8d33 a9be 5e1d 16be 2a1e 923e
00000320: 339d afbe 4546 0d3d 1326 883e cb2a 1d3f
00000330: 33ed 563d 9651 153f 111f 2c3f 3fba be3e
00000340: 2f5e 2a3d 0724 00be 1235 7fbc da7c 933d
00000350: 8c37 fb3d 19cd a13e 39c0 54be 8593 ffbe
00000360: afb4 01bf a04b 153d 95b7 153e 4572 40bd
00000370: 3282 54be 8389 febe 11c2 7fbe bea1 58bc
00000380: f3fa f1be f058 ce3e 3ac5 a83e d394 a23e
00000390: 15b2 d3be 36df fbbe e160 7e3e 6fe7 58be
000003a0: f1cb aabe d072 013e b9d9 0a3e 8843 f4bd
000003b0: 6f0c 7f3e bf9b c4bd f5a2 d03d da7b 1abe
000003c0: f282 dabe ab9b 6ebe 6989 febd d60a c5be
000003d0: b250 eabd 3ab2 89be de71 01be 3ecd 87bd
000003e0: 87c6 9abd e846 8bbe 7568 443d 736b c3be
000003f0: bed5 e53e 43b4 cb3e 5c08 d3be 40cd 80be

conv1.bias f4 [16]
-0.086965 -0.5385632 0.095627286 0.7020768 0.080644466 0.20720269 -0.0061558187 -0.020072538
0.044921234 0.45365515 -0.0257408 -0.010086271 -0.037879005 0.0006537725 0.0040781638 -0.06303549
00000000: b51a b2bd 47df 09bf 3dd8 c33d 4ebb 333f
00000010: ed28 a53d f12c 543e c0b6 c9bb 2a6f a4bc
00000020: 54ff 373d 7d45 e83e 5fde d2bc e340 25bc
00000030: 0427 1bbd ee61 2b3a 1ea2 853b c018 81bd

conv2.weight f4 [32, 16, 5, 5]
-0.02584368 -0.0101840645 0.028897163 -0.0035436745 -0.015171353 0.020154461 0.026048524 -0.0075189956
-0.010840622 0.009110496 -0.027435873 0.03512678 -0.015023631 -0.018508296 0.04413578 -0.039164722
-0.011551334 0.047456175 -0.01700152 -0.003409273 0.03842627 -0.01556655 0.020863323 0.024321843
0.013003795 -0.04026602 -0.029709386 -0.036331575 -0.0490396 -0.01444877 0.0015184977 -0.044584263
-0.045694508 0.00017583938 -0.021816775 0.005579233 0.010090219 0.04938002 -0.007800041 -0.046909925
-0.03576068 -0.04583971 -0.0059673544 0.0019505847 0.013720461 0.005869616 0.011678518 0.008891118
-0.008659983 -0.023124458 0.03132372 0.028385945 0.010675166 0.06188638 -0.03116481 0.030871095
-0.009789654 0.048883487 0.059623707 0.04971192 0.013674718 -0.027041186 -0.011532372 -0.0150173465
0.007158725 -0.029839236 0.020629946 0.022393668 -0.028698586 -0.017360618 -0.036337 -0.027202418
-0.024091646 0.03451441 -0.04544535 0.008169953 0.038611345 -0.03602857 -0.044174995 0.024433954
0.026795069 0.01906419 0.042117234 0.033857334 -0.0075816237 0.038714465 -0.022027263 0.027808428
-0.026596125 0.012324519 0.023244621 0.018115789 0.027438179 -0.009855059 0.018068299 0.0032593883
0.040226262 0.02482301 -0.035546776 0.019305466 0.022093935 0.010390108 -0.029669926 0.044873327
-0.03498812 -0.04580067 0.009604764 0.018121477 0.00019840014 0.0026756192 0.01944076 0.029937854
-0.025788894 0.010284816 -0.017164716 -0.027981337 -0.030294746 -0.038777947 0.041632958 -0.016924812
-0.017786285 -0.012418316 -0.04025244 0.031124318 -0.018714491 0.022598924 0.013226569 -0.052392498
-0.04460221 -0.05147496 0.03973978 0.033921 0.01314184 -0.021339202 0.015608933 -0.03990279
-0.0009258922 -0.011102262 0.028482713 -0.002247224 -0.0050546606 -0.008454886 0.04794011 -0.03658607
0.026603123 -0.051333666 0.0012152585 -0.045459744 0.02490975 0.05170411 -0.019136054 0.05331684
-0.03778768 0.02771052 0.009499983 -0.011863815 -0.0046792757 0.021684863 -0.006974359 -0.0499955
-0.024447579 0.038594216 -0.045672044 -0.019353444 0.015748115 0.03016844 -0.04110184 -0.037086397
0.027014887 0.03434845 0.025505291 0.023635479 -0.041871466 0.017551301 -0.0031620366 0.011862828
-0.018495377 0.051582716 -0.0042355405 -0.034730874 0.023284227 -0.0047567473 -0.03091661 -0.02223229
-0.032067046 0.00914239 0.0071103866 -0.015291713 0.0013065124 -0.027501134 -0.049710535 -0.0006034649
0.045441724 -0.03777203 0.011024815 -0.030482048 -0.007970283 0.0069212383 -0.02598329 -0.03863339
0.018933803 0.016030077 0.056549966 0.039129175 0.04236656 -0.023531463 -0.03291082 -0.017537536
-0.027408704 1.7137614e-05 -0.02226067 -0.010678273 -0.018570166 -0.011441442 0.0065360023 0.044372026
-0.01367891 0.036086317 0.041116152 0.017303277 -0.016675029 0.01170652 -0.033154633 -0.005856348
-0.026375208 -0.03632991 -0.039991613 -0.015708152 0.017766971 0.0027525236 0.0030321742 0.023394827
0.018425556 0.0402209 -0.0070775556 0.008060733 -0.00285349 -0.017559486 -0.03387915 -0.01427996
-0.049352694 0.00544188 -0.041016515 -0.019068683 -0.020674597 0.041979123 -0.04044988 -0.013433427
0.015850658 0.011905563 0.03919755 0.010026563 0.028669262 -0.03280782 0.03178852 -0.0008115801
00000000: 20b6 d3bc 10db 26bc beb9 ec3c fe3c 68bb
00000010: 4491 78bc f81a a53c b763 d53c e861 f6bb
00000020: dd9c 31bc 3144 153c 32c1 e0bc 19e1 0f3d
00000030: ad25 76bc b69e 97bc b8c7 343d 306b 20bd
00000040: ce41 3dbc 6861 423d c646 8bbc 1c6e 5fbb
00000050: dd64 1d3d d80a 7fbc 8fe9 aa3c 9a3e c73c
00000060: df0d 553c fbed 24bd 1961 f3bc 6bd0 14bd
00000070: bfdd 48bd 89ba 6cbc 5408 c73a fd9d 36bd
00000080: 2a2a 3bbd 8661 3839 18b9 b2bc 00d2 b63b
00000090: 7251 253c b442 4a3d 7d97 ffbb 9f24 40bd
000000a0: ca79 12bd 6bc2 3bbd cc89 c3bb c3aa ff3a
000000b0: c9cb 603c e855 c03b 4157 3f3c 0dac 113c
000000c0: 9ae2 0dbc 816f bdbc 4d4d 003d a489 e83c
000000d0: e4e6 2e3c 937c 7d3d 584d ffbc 61e5 fc3c
000000e0: c964 20bc 0d3a 483d fd37 743d ba9e 4b3d
000000f0: ed0b 603c 7a85 ddbc 46f2 3cbc 510b 76bc
00000100: bd93 ea3b 6a71 f4bc 2200 a93c ed72 b73c
00000110: 4c19 ebbc db37 8ebc 1bd6 14bd 9bd7 debc
00000120: d85b c5bc fb5e 0d3d e724 3abd 44db 053c
00000130: ee26 1e3d b292 13bd d7f0 34bd b729 c83c
00000140: 5581 db3c 812c 9c3c 1f83 2c3d fdad 0a3d
00000150: 456f f8bb 0f93 1e3d 8572 b4bc 80ce e33c
00000160: 1ee0 d9bc c8ec 493c 816b be3c 9067 943c
00000170: 08c6 e03c 1d77 21bc f803 943c 769b 553b
00000180: 4bc4 243d a059 cb3c 7f99 11bd 7f26 9e3c
00000190: 57fe b43c 463b 2a3c 580e f3bc 18cd 373d
000001a0: b44f 0fbd 7c99 3bbd 4d5d 1d3c 7e73 943c
000001b0: a209 5039 7159 2f3b 3b42 9f3c 3b40 f53c
000001c0: 3b43 d3bc a581 283c 059d 8cbc 1e39 e5bc
000001d0: b02c f8bc a0d5 1ebd 5287 2a3d e7a5 8abc
000001e0: 8bb4 91bc 3176 4bbc bedf 24bd 6df8 fe3c
000001f0: 224f 99bc 6121 b93c 40b4 583c 8499 56bd
00000200: cfb0 36bd 68d7 52bd 2ec6 223d bff0 0a3d
00000210: df50 573c 8dcf aebc 9cbc 7f3c 1c71 23bd
00000220: 93b7 72ba 43e6 35bc 9454 e93c 2a46 13bb
00000230: 91a1 a5bb 5d86 0abc d95c 443d 46db 15bd
00000240: cbee d93c 4043 52bd 4f49 9f3a ff33 3abd
00000250: 880f cc3c b0c7 533d 37c3 9cbc c262 5a3d
00000260: 41c7 1abd 2c01 e33c d1a5 1b3c 7260 42bc
00000270: 9c54 99bb 74a4 b13c 2a89 e4bb 15c8 4cbd
00000280: 4a46 c8bc f814 1e3d 9c12 3bbd 1d8b 9ebc
00000290: 3102 813c ce23 f73c 675a 28bd e8e7 17bd
000002a0: 534e dd3c f6b0 0c3d 79f0 d03c 319f c13c
000002b0: 6a81 2bbd bfc7 8f3c 2c3a 4fbb 4f5c 423c
000002c0: 9e83 97bc 6648 533d 4aca 8abb f641 0ebd
000002d0: 90be be3c 7dde 9bbb d544 fdbc 7e20 b6bc
000002e0: bc58 03bd f7c9 153c 3ffe e83b 188a 7abc
000002f0: 483f ab3a 0f4a e1bc 469d 4bbd d831 1eba
00000300: 1a21 3a3d d8b6 1abd 6da1 343c 7db5 f9bc
00000310: ca95 02bc 8ecb e23b e9da d4bc 0c3e 1ebd
00000320: 101b 9b3c 8251 833c f0a0 673d ea45 203d
00000330: 8f88 2d3d 0ec5 c0bc 7fcd 06bd e1aa 8fbc
00000340: 3888 e0bc bfc2 8f37 025c b6bc ecf3 2ebc
00000350: 7620 98bc e374 3bbc f62b d63b 71bf 353d
00000360: 821d 60bc 3fcf 133d 6969 283d 9abf 8d3c
00000370: 129a 88bc b4cc 3f3c 27cd 07bd 9ce6 bfbb
00000380: d210 d8bc acce 14bd 3fce 23bd 62ae 80bc
00000390: 0a8c 913c af63 343b 71b7 463b 82a6 bf3c
000003a0: 31f1 963c acbe 243d d7ea e7bb 2a11 043c
000003b0: 9e01 3bbb e9d8 8fbc ddc4 0abd 7ef6 69bc
000003c0: 0d26 4abd cc51 b23b ef00 28bd ed35 9cbc
000003d0: c65d a9bc 4df2 2b3d c6ae 25bd e017 5cbc
000003e0: 3dd9 813c 8d0f 433c 9c8d 203d 7446 243c
000003f0: cddb ea3c 7e61 06bd ae34 023d 38c0 54ba

conv2.bias f4 [32]
-0.01137174 0.23849674 0.27909368 0.057339896 -0.19067767 0.45456123 -0.083192684 0.07780559
0.17200446 -0.05688799 -0.054710962 -0.13184068 -0.003720292 -0.10641482 0.19329597 0.30167225
-0.014714651 0.23325264 0.12836035 -0.011362871 -0.08295263 0.07177802 -0.001667446 -0.039129455
0.36890358 0.052259658 -0.06367806 -0.11570471 -0.08740811 0.065770395 -0.04710052 -0.08739752
00000000: 8950 3abc 7d38 743e 5ee5 8e3e 3ddd 6a3d
00000010: 0241 43be 40bc e83e ed60 aabd 8a58 9f3d
00000020: f021 303e 6203 69bd 9a18 60bd 3e01 07be
00000030: 24d0 73bb 03f0 d9bd 61ef 453e c974 9a3e
00000040: b815 71bc c8d9 6e3e e570 033e 562b 3abc
00000050: 12e3 a9bd 5b00 933d 348e daba 3546 20bd
00000060: eee0 bc3e 390e 563d a569 82bd 97f6 ecbd
00000070: 0603 b3bd a1b2 863d 7aec 40bd 79fd b2bd

fc1.weight f4 [32, 512]
-0.0067215376 -0.031221656 -0.0061589717 -0.017351063 0.0030620724 -0.038995717 -0.006238259 -0.016513506
-0.014855479 0.0013660403 -0.025535533 -0.0043795556 -0.038185224 0.027864095 -0.0034402993 0.026485458
-0.14848877 -0.09249166 -0.18292093 -0.035757396 -0.043181986 -0.012831556 -0.117374055 -0.11832869
-0.0059121777 0.04367805 -0.074567944 -0.1114073 0.077799655 0.059053745 0.02507482 -0.13112444
-0.17700267 -0.11067162 -0.08574876 -0.1802177 -0.08619942 -0.027501307 0.028594045 0.011813997
-0.004455383 0.03858421 -0.03950608 -0.006149451 0.14600675 -0.042621825 -0.04231865 0.07463796
-0.076951735 -0.08396495 -0.06432081 -0.073829 0.09643977 0.03589556 0.06012457 -0.044937275
0.008615827 0.08381329 0.100648314 -0.020641759 0.022430912 0.08451613 0.03953069 -0.07749872
0.16454585 0.06154407 0.11400229 0.07739932 0.16544871 0.11879595 0.10787576 0.11904462
0.076483764 0.10430275 0.037624467 0.07670275 0.063182846 0.10324492 -0.015280852 -0.08449895
0.002326342 -0.060869504 -0.054715663 -0.054582223 -0.013966349 -0.11985886 -0.007911874 0.0008077891
-0.005796355 -0.012039956 -0.038841352 -0.1250511 0.09721424 0.09636968 0.046828493 -0.15857229
-0.024738833 0.09720753 0.1253704 -0.21447676 0.019697502 0.06811262 0.1419844 -0.011059122
0.07685902 -0.009901449 -0.021809008 0.04909376 0.018063975 -0.05538043 -0.011448847 0.0807297
0.069566034 -0.076873265 -9.735842e-05 -0.012669802 -0.07798629 -0.050007127 0.09885697 0.08614506
-0.077185005 -0.0616398 0.01555736 0.06362129 -0.07409823 -0.0028651562 -0.05435316 0.06536217
-0.018231107 -0.022644429 -0.01928909 0.031945106 -0.01343113 -0.05251079 0.00030158376 0.032199707
0.016611021 -0.03654647 -0.023517394 0.013818337 -0.07057672 -0.1129066 -0.01778779 -0.010578175
0.036997717 -0.018087592 -0.02034505 -0.03493037 0.03489227 0.011092357 0.051995017 0.06476487
0.02449369 -0.02112736 -0.0067392364 0.053147927 0.009565625 -0.030860836 -0.025908701 -0.05594443
0.030765148 0.103515014 0.06555993 0.10903387 0.06737094 0.12292993 0.050458465 0.14790854
0.019012982 -0.005473782 0.038282707 -0.076190315 0.00041034137 0.028722834 -0.025875911 -0.039403632
-0.01573003 0.017111706 0.018063324 0.059248377 0.00727386 0.03982302 -0.045049556 -0.0007536433
-0.035365433 -0.016187806 -0.07665169 -0.097645454 -0.04008205 0.002221667 -0.0054139886 0.045590352
0.0041838638 0.11476692 -0.12183031 0.00046405636 -0.033525713 0.10418098 0.031754456 0.07685871
0.08049454 0.08127077 -0.10413095 0.058485724 -0.028669558 0.0572327 0.039351963 -0.011064839
-0.053909626 0.013566087 0.0964814 -0.014146681 -0.03572375 -0.047644258 -0.0037284526 0.08776915
-0.046603605 -0.040071346 -0.025629587 0.121111 -0.019051386 -0.024181142 -0.057552446 0.062058907
-0.07747364 0.020638967 -0.07438698 -0.011755663 -0.16518886 -0.015073713 -0.04677462 -0.038748387
-0.0793835 -0.0017959607 -0.06296755 -0.10556868 -0.093739055 0.049107905 -0.040474694 -0.066649705
0.08185889 -0.028314807 -0.023983542 -0.014605778 0.0064566093 -0.014824557 -0.0012730187 0.083821245
-0.00029303736 -0.013734236 -0.10688828 -0.12346242 0.011840825 -0.008862438 -0.10402846 -0.04621173
00000000: 5840 dcbb 8fc4 ffbc 33d1 c9bb d123 8ebc
00000010: 0dad 483b f9b9 1fbd 4f6a ccbb 5547 87bc
00000020: 6564 73bc b50c b33a e52f d1bc 6082 8fbb
00000030: 1c68 1cbd 3e43 e43c a576 61bb 08f8 d83c
00000040: 710d 18be 446c bdbd a04f 3bbe 5976 12bd
00000050: 98df 30bd 723b 52bc cf61 f0bd 5056 f2bd
00000060: f1ba c1bb c1e7 323d 14b7 98bd 8329 e4bd
00000070: 6d55 9f3d 57e2 713d b569 cd3c 7c45 06be
00000080: 3040 35be cda7 e2bd 0c9d afbd fd8a 38be
00000090: 5289 b0bd 6c4a e1bc 0f3e ea3c 7f8f 413c
000000a0: 76fe 91bb 7a0a 1e3d 21d1 21bd 5581 c9bb
000000b0: cb82 153e 3994 2ebd 5256 2dbd c9db 983d
000000c0: df98 9dbd d1f5 abbd a1ba 83bd a933 97bd
000000d0: 3782 c53d 3907 133d 2e45 763d 2610 38bd
000000e0: 6629 0d3c 4da6 ab3d b420 ce3d e818 a9bc
000000f0: 08c1 b73c cb16 ad3d efea 213d a6b7 9ebd
00000100: b57e 283e a215 7c3d 087a e93d 8983 9e3d
00000110: 636b 293e 4b4b f33d f7ed dc3d aacd f33d
00000120: 85a3 9c3d ae9c d53d 1d1c 1a3d 5516 9d3d
00000130: 0266 813d 1372 d33d 8a5c 7abc c90d adbd
00000140: 8b75 183b 4d52 79bd 881d 60bd 9c91 5fbd
00000150: 1dd3 64bc 9078 f5bd cea0 01bc cfc1 533a
00000160: 5aef bdbb 3c43 45bc 1c18 1fbd 650d 00be
00000170: 4218 c73d 775d c53d 3ccf 3f3d c660 22be
00000180: 18a9 cabc be14 c73d 1961 003e cc9f 5bbe
00000190: a85c a13c a17e 8b3d 5c64 113e 5231 35bc
000001a0: 4368 9d3d b039 22bc cea8 b2bc 8a16 493d
000001b0: e7fa 933c 97d6 62bd f293 3bbc 9d55 a53d
000001c0: a378 8e3d bb6f 9dbd e72c ccb8 0095 4fbc
000001d0: 47b7 9fbd 46d4 4cbd 8675 ca3d d26c b03d
000001e0: 2c13 9ebd 047a 7cbd 4ce4 7e3c e14b 823d
000001f0: d0c0 97bd 58c5 3bbb 6ba1 5ebd 9adc 853d
00000200: 6759 95bc cf80 b9bc 2704 9ebc dfd8 023d
00000210: 3e0e 5cbc 8e15 57bd e31d 9e39 d7e3 033d
00000220: d613 883c c0b1 15bd 8da7 c0bc 4e66 623c
00000230: 878a 90bd 933b e7bd b3b7 91bc 1550 2dbc
00000240: eb8a 173d 6e2c 94bc aaaa a6bc 2613 0fbd
00000250: 32eb 0e3d b8bc 353c baf8 543d 72a3 843d
00000260: fea6 c83c 4913 adbc d0d4 dcbb a4b1 593d
00000270: 24b9 1c3c ddcf fcbc 7c3e d4bc fd25 65bd
00000280: 3107 fc3c aeff d33d 4944 863d 264d df3d
00000290: c7f9 893d b0c2 fb3d 89ad 4e3d 5675 173e
000002a0: 1dc1 9b3c 695d b3bb 54ce 1c3d ab09 9cbd
000002b0: 1623 d739 264c eb3c b8f9 d3bc b465 21bd
000002c0: 44dc 80bc d92d 8c3c 89f9 933c 6dae 723d
000002d0: 8f59 ee3b 771d 233d e285 38bd 2590 45ba
000002e0: 58db 10bd 4a9c 84bc 90fb 9cbd 57fa c7bd
000002f0: 132d 24bd 6399 113b d467 b1bb f3bc 3a3d
00000300: cb18 893b eb0a eb3d 2b82 f9bd 974c f339
00000310: 4252 09bd d65c d53d f610 023d 1968 9d3d
00000320: 52da a43d 4a71 a63d 9c42 d5bd ba8e 6f3d
00000330: 6cdc eabc d66c 6a3d 862f 213d 4c49 35bc
00000340: 57d0 5cbd 4b44 5e3c 0a98 c53d 7bc7 67bc
00000350: 1153 12bd a026 43bd 0e59 74bb 50c0 b33d
00000360: 6ce3 3ebd da21 24bd 24f5 d1bc 0b09 f83d
00000370: a711 9cbc 8817 c6bc 1dbc 6bbd 7b31 7e3d
00000380: 80aa 9ebd 0d13 a93c 3358 98bd d39a 40bc
00000390: 4527 29be bcf7 76bc be96 3fbd a1b6 1ebd
000003a0: d193 a2bd 7166 ebba 21f5 80bd 6434 d8bd
000003b0: 43fa bfbd 5f25 493d cbc8 25bd a47f 88bd
000003c0: a2a5 a73d 74f4 e7bc 2279 c4bc 134d 6fbc
000003d0: f791 d33b b3e2 72bc 6bdb a6ba 79aa ab3d
000003e0: cfa2 99b9 9005 61bc 3ee8 dabd ded9 fcbd
000003f0: 0500 423c c233 11bc e00c d5bd 8348 3dbd

fc1.bias f4 [32]
-0.024756305 0.042109136 -0.013348916 0.0820641 -0.111372106 -0.021932501 -0.019342711 0.4843271
-0.016462276 -0.18867932 0.014387965 0.3005162 -0.0051815696 0.30781698 0.09257865 0.26481947
0.0045165224 -0.077443875 0.19774127 0.091930114 -0.023926724 0.33266374 0.098161004 -0.049125336
0.052535754 0.112220824 -0.061688837 -0.009077681 0.1815142 0.22305362 0.034966484 -0.057257578
00000000: bccd cabc a17a 2c3d 69b5 5abc 3911 a83d
00000010: 0f17 e4bd caab b3bc 9b74 9ebc b9f9 f73e
00000020: e5db 86bc 2735 41be 80bb 6b3c 42dd 993e
00000030: 28ca a9bb 309a 9d3e e099 bd3d 6b96 873e
00000040: 56ff 933b e59a 9ebd b07c 4a3e db45 bc3d
00000050: fa01 c4bc e752 aa3e a308 c93d a637 49bd
00000060: bb2f 573d 08d4 e53d 6fad 7cbd 8eba 14bc
00000070: dcde 393e 2b68 643e 0439 0f3d ec86 6abd

out.weight f4 [10, 32]
-0.16080344 -0.021784117 0.21131729 -0.16662529 0.2833415 -0.32678628 0.19507493 0.14204362
0.84136856 -0.42389712 0.15148994 0.48685357 -0.20486331 -0.20882884 0.19995503 0.109560885
-0.1403518 0.1430862 -0.17180495 -0.031469986 0.06393312 0.41124445 -0.1603649 -0.3249314
-0.23062325 -0.42990616 0.444395 0.4670773 1.0967973 0.14445786 -0.42207476 -0.37580743
-0.23213685 -0.23486623 0.08542201 -0.043214913 -0.18916856 -0.44042417 1.1955489 -0.14216225
0.04138561 0.3001413 -0.16995235 0.17313996 0.028896723 -0.107608646 -0.07932349 -0.27860397
0.38030604 -0.40712616 0.058466673 0.4569454 -0.9600684 0.19848181 -0.19072582 0.06418694
-0.010482281 0.73364335 -0.21307057 -0.17803584 -0.23467569 -0.24300112 -0.17364825 0.23387991
-0.09908348 -0.75642306 -0.11177072 -0.25079772 0.6267703 0.10394465 -0.3160335 0.72110987
-0.10569906 0.11929333 -0.12882839 0.71889096 -0.22123064 0.0705282 -0.17459835 -0.40651992
-0.08153904 -0.01562712 -0.31789476 0.24054442 0.6344325 0.51643467 0.037159905 0.17709807
-0.46485773 -0.08983082 -0.09955988 0.47606522 -0.4856736 -0.32266462 -0.24654306 -0.1611287
-0.2892902 0.4880629 -0.020710908 0.335409 -0.29855418 -0.5693817 0.41098335 0.6500834
-0.51164734 -0.3680593 -0.15202338 0.19884068 -0.2660299 0.084313415 -0.21136035 -0.34681028
-0.34581023 0.25232616 0.54296434 -0.09784558 0.42782268 -0.822087 -0.052266408 0.43518066
0.7407989 -0.26412922 -0.27851614 -0.14079215 0.47993568 -0.00997871 -0.052752383 0.21897261
0.35675126 0.2352312 -0.14266136 0.07668707 0.500243 -0.5027708 0.40831763 -0.16762267
-0.48709103 0.64330316 0.10988164 0.09979664 0.4224625 -0.38812187 -0.18955716 -0.914025
0.2405486 0.36210284 -0.8263756 -0.41826242 0.9701378 0.5001929 -0.2582623 -0.26345462
0.35721922 0.09652373 0.35255843 0.10119047 -0.477997 -0.4146666 0.5395631 -0.028303426
0.52317226 0.016401006 -0.0832113 -0.6729851 -0.41242912 1.0511242 -0.4936053 -0.2170367
0.58793205 0.20058937 -0.1411136 -0.59935206 -0.2132279 -0.1542428 -0.11552294 0.26511633
-0.28051913 -0.29463282 0.24010597 -0.4633837 -0.8730234 -0.4596724 -0.053653825 0.29563674
-0.3840362 -0.5262983 -0.025219359 -0.2653638 -0.10577668 -0.15722291 -0.2536003 0.7114486
-0.33062 -0.17871666 0.042695414 -0.18213123 -0.39065704 0.16026798 0.0043223947 -0.2153465
-0.056752484 -0.47115368 0.086750925 0.58968437 0.0176092 0.5402745 -0.15677091 -0.5893575
-0.051710043 0.16430457 0.0074321036 -0.07389873 0.6814863 0.5306961 0.07803564 0.14230283
-0.13564491 0.08740982 -0.15180264 -0.4993661 1.0503138 0.8915308 0.5787819 0.13073066
0.3444893 -0.15167768 0.24575847 0.23686273 0.26880276 0.039903115 -0.57919264 -0.44087002
-0.14956135 -0.46779495 0.13218829 -0.37695995 0.002950002 0.40591645 0.6276484 0.55320585
0.21772952 0.23101453 -0.25318164 0.21292663 -0.74128103 -0.860042 0.7950265 -0.044365276
0.26231027 0.20778514 -0.24477069 -0.19659856 -0.26931745 -0.18866298 0.060074862 -0.02768177
00000000: a8a9 24be 9b74 b2bc 8f63 583e d29f 2abe
00000010: 2312 913e 8850 a7be b9c1 473e e273 113e
00000020: ee63 573f 0b09 d9be 2e20 1b3e df44 f93e
00000030: b0c7 51be 3ad7 55be 03c1 4c3e 7561 e03d
00000040: 62b8 0fbe 3085 123e a3ed 2fbe ace6 00bd
00000050: 5eef 823d a28e d23e b236 24be 695d a6be
00000060: 8028 6cbe a91c dcbe be87 e33e c224 ef3e
00000070: db63 8c3f c3ec 133e 2f1a d8be d569 c0be
00000080: 48b5 6dbe c680 70be bcf1 ae3d 1f02 31bd
00000090: 67b5 41be 477f e1be bf07 993f fb92 11be
000000a0: f583 293d 1fac 993e fd07 2ebe 9a4b 313e
000000b0: d2b8 ec3c ec61 dcbd 5b74 a2bd 2ea5 8ebe
000000c0: 79b7 c23e d772 d0be c07a 6f3d bff4 e93e
000000d0: 0bc7 75bf d13e 4b3e a14d 43be 7174 833d
000000e0: e0bd 2bbc 0dd0 3b3f 2c2f 5abe 074f 36be
000000f0: d34e 70be 49d5 78be d9d0 31be 377e 6f3e
00000100: 48ec cabd f1a4 41bf 0ce8 e4bd 8f68 80be
00000110: 0574 203f efe0 d43d 25cf a1be a89a 383f
00000120: c078 d8bd 1050 f43d 97eb 03be 3d09 383f
00000130: 498a 62be 1771 903d e9c9 32be 6123 d0be
00000140: f1fd a6bd 7204 80bc 1ac3 a2be 4751 763e
00000150: 2b6a 223f 1035 043f fc34 183d 3259 353e
00000160: d501 eebe 39f9 b7bd 0de6 cbbd d2be f33e
00000170: 36aa f8be 4c34 a5be c975 7cbe ecfe 24be
00000180: d81d 94be 61e3 f93e eca9 a9bc baba ab3e
00000190: 18dc 98be 00c3 11bf 696c d23e de6b 263f
000001a0: 52fb 02bf 4572 bcbe 04ac 1bbe e49c 4b3e
000001b0: 1235 88be 83ac ac3d d96e 58be 1e91 b1be
000001c0: 0a0e b1be e530 813e b6ff 0a3f 4363 c8bd
000001d0: 930b db3e 4b74 52bf 4d15 56bd 00d0 de3e
000001e0: ffa4 3d3f f23b 87be ab99 8ebe d12b 10be
000001f0: 21ba f53e be7d 23bc e212 58bd 5b3a 603e
00000200: 1aa8 b63e 73e0 703e d215 12be 1c0e 9d3d
00000210: ed0f 003f 96b5 00bf 020f d13e 47a5 2bbe
00000220: ff63 f9be 84af 243f a009 e13d 2e62 cc3d
00000230: 014d d83e e9b7 c6be 461b 42be 8bfd 69bf
00000240: 5f52 763e 8b65 b93e 5a8d 53bf 7e26 d6be
00000250: f35a 783f a40c 003f f53a 84be 86e3 86be
00000260: 70e5 b63e 3cae c53d 8a82 b43e f33c cf3d
00000270: 06bc f4be 2e4f d4be cf20 0a3f 96dc e7bc
00000280: 9eee 053f 675b 863c b06a aabd c048 2cbf
00000290: e929 d3be 3d8b 863f d5b9 fcbe de3e 5ebe
000002a0: b782 163f 4d67 4d3e 1580 10be 236f 19bf
000002b0: 6a58 5abe d3f1 1dbe 4b97 ecbd 54bd 873e
000002c0: 34a0 8fbe 1dda 96be 57de 753e a140 edbe
000002d0: 767e 5fbf 2e5a ebbe 1dc4 5bbd b35d 973e
000002e0: 65a0 c4be 7cbb 06bf d498 cebc c4dd 87be
000002f0: 72a1 d8bd 0bff 20be e6d7 81be 7f21 363f
00000300: 0647 a9be 8001 37be 63e1 2e3d 9c80 3abe
00000310: 3304 c8be 4a1d 243e e0a2 8d3b cb83 5cbe
00000320: 4b75 68bd 0e3b f1be 78aa b13d 8ef5 163f
00000330: 2b41 903c 6e4f 0a3f 8e88 20be 22e0 16bf
00000340: e9cd 53bd 753f 283e 0189 f33b 3858 97bd
00000350: e375 2e3f b3db 073f 26d1 9f3d d5b7 113e
00000360: 80e6 0abe eb03 b33d 2772 1bbe eaac ffbe
00000370: af70 863f 5d3b 643f 0d2b 143f 42de 053e
00000380: e760 b03e 6551 1bbe 1ca8 7b3e 258c 723e
00000390: 84a0 893e 7371 233d f845 14bf b7b9 e1be
000003a0: 9c26 19be d282 efbe 5e5c 073e e500 c1be
000003b0: d254 413b 48d4 cf3e 91ad 203f e69e 0d3f
000003c0: 7df4 5e3e 138f 6c3e 06a1 81be 7009 5a3e
000003d0: 98c4 3dbf b62b 5cbf db86 4b3f 5db8 35bd
000003e0: 884d 863e a1c5 543e 2ba5 7abe 2251 49be
000003f0: fae3 89be de30 41be 0f11 763d e1c4 e2bc

out.bias f4 [10]
-0.02302914 -0.12829389 0.43395993 0.056733683 -0.5731376 -0.11129933 0.5819129 -0.16996728
0.18085907 -0.3293478
00000000: 9ba7 bcbc 795f 03be ff2f de3e 9461 683d
00000010: 25b9 12bf e7f0 e3bd 3ef8 143f e70b 2ebe
00000020: 1f33 393e 46a0 a8be
