lab_3/logs_task1_Adam/lightning_logs/version_4/checkpoints/epoch=19-step=37500.ckpt (torch, 8446 bytes, 9 tensors)

linear1.weight f4 [64, 1]
-1.57855e-05 1.163305 5.5499063e-06 -6.551502e-05 0.7129638 -0.0020136158 1.1677324 0.0013416796
-1.3586217 -1.2293489 -0.68060106 -9.0977715e-05 3.6635203e-05 -7.3907533e-09 -3.565933e-27 7.5335804e-10
1.3160386 1.118417 0.00014658581 1.1197892 -0.0017624834 4.840239e-07 0.0012430092 -3.744163e-05
2.2666691e-10 -0.010870772 -8.622136e-10 -0.5803735 1.2059446e-12 -4.7938767e-05 0.79989946 -0.00033304142
1.1048523e-10 1.187909e-14 1.0105938e-07 -5.1526255e-10 -0.005140824 -0.8211459 -4.361536e-06 -0.0002642221
-5.952149e-10 -0.003218876 0.8794624 0.021779416 0.757549 1.3232608 9.069176e-05 1.1510484
-0.76347554 -1.2224995 -0.00060286076 -0.0003584602 -3.6108675e-11 1.291071e-17 1.6131711e-05 0.007279578
0.000103326456 6.6574994e-06 8.477964e-05 -3.2822359e-06 0.917077 8.8534696e-05 -1.3995294e-08 -0.5897335
00000000: 1a6b 84b7 2ee7 943f 5539 ba36 1c65 89b8
00000010: cc84 363f def6 03bb 4178 953f 4cdb af3a
00000020: 51e7 adbf 4e5b 9dbf df3b 2ebf 4acb beb8
00000030: c0a8 1938 c1f1 fdb1 db42 8d93 dc14 4f30
00000040: f473 a83f 4a28 8f3f d4b4 1939 4155 8f3f
00000050: 2103 e7ba deed 0135 78ec a23a a50a 1db8
00000060: 1039 792f 531b 32bc e300 6db0 5c93 14bf
00000070: bcb8 a92b dc11 49b8 36c6 4c3f 109c aeb9
00000080: a8f5 f22e a2fe 5528 fb05 d933 61a2 0db0
00000090: 5b74 a8bb 9e36 52bf 4f59 92b6 4a87 8ab9
000000a0: 869c 23b0 c7f3 52bb 7324 613f bf6a b23c
000000b0: bbee 413f 9c60 a93f c531 be38 8e55 933f
000000c0: 2273 43bf dd7a 9cbf 4d09 1eba b7ef bbb9
000000d0: c1ce 1eae 1b29 6e23 9652 8737 8789 ee3b
000000e0: f8b0 d838 7c63 df36 b9cb b138 6244 5cb6
000000f0: 8fc5 6a3f b4ab b938 f46f 70b2 c6f8 16bf

linear1.bias f4 [64]
-4.2198662e-05 -3.1839628 1.032004e-05 -5.704036e-06 4.5845184 -0.010082547 -4.250638 0.0014938166
0.83583367 -0.64689404 -4.344049 -0.00034727593 5.2602227e-05 -2.1469075e-09 -2.1530564e-27 9.672431e-10
0.73835784 4.326723 0.00038122517 -3.0758464 0.00020808191 1.7696022e-06 0.0008449141 0.0001122757
-8.4060614e-10 0.06108082 3.5030692e-09 -5.4639235 2.6923667e-12 -0.000107719396 2.7186685 -0.00016021435
-4.749392e-10 -4.5867478e-14 1.9160979e-07 1.797274e-09 -0.051548414 -2.8457875 -1.9169267e-05 -0.0019011258
-2.5965738e-09 -0.0072393054 -2.8657718 0.060716424 -4.836966 3.2365458 0.00018573127 3.7354896
4.880873 0.3339208 -0.001364187 -0.0006605244 1.3816603e-10 7.4015565e-17 -1.734883e-06 0.044822592
0.000103411134 -2.6875356e-05 -3.172261e-05 -9.433075e-06 -0.29059252 0.0009975537 -4.6040032e-08 5.676924
00000000: 78fe 30b8 0cc6 4bc0 3c24 2d37 4c65 bfb6
00000010: 60b4 9240 4431 25bc 3a05 88c0 2bcc c33a
00000020: 32f9 553f d99a 25bf 7302 8bc0 9612 b6b9
00000030: 36a1 5c38 cc88 13b1 2c95 2a93 d7ef 8430
00000040: 0505 3d3f 8474 8a40 2ddf c739 abda 44c0
00000050: 9030 5a39 1283 ed35 3a7d 5d3a 8f75 eb38
00000060: 6610 67b0 e22f 7a3d a5ba 7031 76d8 aec0
00000070: 5e75 3d2c 69e7 e1b8 aafe 2d40 36ff 27b9
00000080: e08c 02b0 9a91 4ea9 4cbd 4d34 f503 f730
00000090: 6e24 53bd 6221 36c0 b0cd a0b7 322f f9ba
000000a0: 696f 32b1 b237 edbb ce68 37c0 c9b1 783d
000000b0: 6dc8 9ac0 9123 4f40 dcc0 4239 4312 6f40
000000c0: 1d30 9c40 abf7 aa3e 85ce b2ba 0b27 2dba
000000d0: 48ea 172f 14ab aa24 20da e8b5 e597 373d
000000e0: 6ede d838 6372 e1b7 e50d 05b8 c042 1eb7
000000f0: 8bc8 94be 59c0 823a 8dbd 45b3 5da9 b540

linear2.weight f4 [1, 64]
4.846531e-07 -0.13853239 -1.2636524e-06 6.120549e-05 0.4311043 -1.7612212e-05 -0.23995551 -0.00021791001
-0.10691025 -0.08839853 -0.21297842 2.6290978e-05 -2.7324782e-06 -1.810965e-09 1.693346e-27 -5.618236e-10
0.118818276 -0.20128171 -3.3955744e-06 -0.10143735 0.0009415959 9.098397e-07 -0.00032346506 5.4168013e-05
-3.091151e-10 0.0247651 1.3743924e-09 0.6786191 -5.7516234e-14 1.7728978e-06 -0.029394154 8.5497086e-05
-1.9071458e-10 -2.015043e-14 -9.343468e-09 7.8170026e-10 -0.00031517248 0.028623674 -1.10276304e-07 -0.00013002324
4.2673326e-10 0.00011173373 -0.045410216 0.014922535 0.29969883 -0.13939488 -1.9282165e-06 -0.12351394
-0.29159525 -0.10566692 -0.00081211666 1.6689937e-05 5.8208494e-11 -1.8409264e-18 -5.7895777e-06 0.00020380976
-2.1568303e-05 -1.648904e-05 -3.902578e-05 3.270476e-07 0.053001408 0.00023934765 3.808055e-09 0.68578947
00000000: 1c19 0235 6fdb 0dbe c49a a9b5 725b 8038
00000010: b4b9 dc3e f0bd 93b7 e6b6 75be c67e 64b9
00000020: c3f3 dabd 4a0a b5bd 0417 5abe 728b dc37
00000030: 9e5f 37b6 abe5 f8b0 2329 0613 d26e 1ab0
00000040: ff56 f33d cb1c 4ebe 86df 63b6 63be cfbd
00000050: 6ed5 763a b53b 7435 bf96 a9b9 7632 6338
00000060: 15f0 a9af 2ee0 ca3c 22e5 bc30 fbb9 2d3f
00000070: da83 81a9 4ef4 ed35 02cc f0bc e64c b338
00000080: 62b1 51af ba7f b5a8 0285 20b2 44df 5630
00000090: bc3d a5b9 327c ea3c 0ad1 ecb3 d956 08b9
000000a0: 5e99 ea2f 9752 ea38 1000 3abd a67d 743c
000000b0: 2072 993e 88bd 0ebe 8266 01b6 e0f4 fcbd
000000c0: f94b 95be e667 d8bd 3ae4 54ba 5e01 8c37
000000d0: 7800 802e 1ed6 07a2 1844 c2b6 c4b5 5539
000000e0: 94ed b4b7 f251 8ab7 9daf 23b8 1495 af34
000000f0: 0118 593d 65f9 7a39 02d8 8231 e68f 2f3f

exp_avg f4 [64, 1]
-5.418469e-07 0.0005369852 1.2755241e-07 -5.6193935e-06 0.0072391517 4.843105e-06 0.001366355 1.646899e-05
3.9902203e-05 -2.256588e-05 -0.0036163174 -2.515216e-06 4.1327888e-07 1.3344056e-10 8.0277166e-29 5.4569335e-11
2.551686e-05 -0.0010758128 8.1141263e-07 0.0004031049 4.9308852e-05 -1.8540801e-07 -7.0674905e-05 1.0656422e-06
-6.4234035e-12 0.00010054007 1.4596905e-11 0.006445498 1.1707529e-14 -3.01917e-07 -0.00016525175 8.52102e-06
-2.7350067e-12 -2.78214e-16 6.614871e-10 9.658288e-12 2.2155948e-05 0.00016466473 -1.4182277e-07 1.3333195e-05
6.271433e-12 -4.704134e-05 0.00023804791 -0.00072176283 0.00068140664 -0.00017792998 5.9614433e-07 -0.00030423544
-0.0006835404 1.0306983e-05 1.671938e-05 -2.397716e-06 7.962844e-13 2.3697088e-19 1.7621527e-07 -2.3367746e-05
7.5932434e-07 8.641946e-07 -2.5674356e-06 -4.911943e-08 -3.3253564e-05 -2.6545742e-05 -5.293924e-10 0.002104163
00000000: 6f73 11b5 77c4 0c3a 57f5 0834 398e bcb6
00000010: 6836 ed3b f581 a236 4417 b33a e326 8a37
00000020: aa5c 2738 dc4b bdb7 bdff 6cbb 15cb 28b6
00000030: 9ee0 dd34 2eb8 122f dc86 cb10 9cff 6f2e
00000040: 0a0d d637 4a02 8dba dacf 5935 d357 d339
00000050: fad0 4e38 9114 47b4 4d37 94b8 3007 8f35
00000060: e000 e2ac 0ad9 d238 4f65 802d c234 d33b
00000070: 73e7 5228 2817 a2b4 6e47 2db9 81f5 0e37
00000080: 8075 40ac 2461 a0a5 04d4 3530 10e9 292d
00000090: 89db b937 daa9 2c39 f247 18b4 a3b1 5f37
000000a0: 0ca8 dc2c 414e 45b8 809c 7939 af34 3dba
000000b0: 6da0 323a b792 3ab9 ba06 2035 ca81 9fb9
000000c0: 9f2f 33ba 28ec 2c37 9840 8c37 72e8 20b6
000000d0: 5722 602b 07e2 8b20 af35 3d34 da05 c4b7
000000e0: 5fd4 4b35 00fb 6735 354c 2cb6 62f7 52b3
000000f0: be79 0bb8 8cae deb7 ae84 11b0 ffe5 093b

exp_avg_sq f4 [64, 1]
5.742179e-06 1.3566141e-05 7.2913695e-06 2.904476e-06 0.001874237 1.1522645e-05 8.283335e-05 7.6185647e-06
4.407598e-07 3.0478492e-07 0.00048529467 8.888648e-06 1.2418812e-05 7.731255e-07 1.0771444e-06 4.2089137e-06
5.3522444e-07 6.6978384e-05 2.0926564e-05 7.659927e-06 1.9760646e-06 1.0647045e-06 2.9391988e-06 3.4243285e-06
2.1194708e-06 1.1025694e-06 1.4486434e-06 0.0024797204 4.156984e-06 1.0187208e-05 1.8441688e-06 1.6004668e-06
2.3927284e-06 2.3343043e-06 7.39835e-06 1.7290528e-06 1.4493354e-05 1.7506377e-06 8.356296e-06 2.7166807e-06
6.607273e-06 7.09326e-06 3.2166165e-06 1.3781213e-06 0.00073429977 8.880687e-06 1.1444868e-05 1.3785009e-05
0.0006867761 2.2758103e-07 1.4514109e-06 6.2289964e-06 2.1009728e-06 2.6388084e-06 1.0213264e-05 1.4390833e-05
9.034643e-06 5.159193e-06 1.9831416e-06 8.6536267e-07 1.3121104e-07 2.5806476e-06 6.9098405e-06 0.0019485066
00000000: f1ac c036 229a 6337 63a8 f436 85ea 4236
00000010: f5a8 f53a 6251 4137 d1b6 ad38 f9a2 ff36
00000020: 91a1 ec34 52a1 a334 266f fe39 7420 1537
00000030: 645a 5037 c888 4f35 6692 9035 4b3a 8d36
00000040: 58ac 0f35 bf76 8c38 748b af37 2383 0037
00000050: 889c 0436 f8e6 8e35 0d3f 4536 84cd 6536
00000060: 3b3c 0e36 fffb 9335 026f c235 ce82 223b
00000070: 387c 8b36 bae9 2a37 2885 f735 9fcf d635
00000080: c392 2036 0ba7 1c36 583f f836 cd11 e835
00000090: 7b28 7337 74f7 ea35 0532 0c37 3850 3636
000000a0: 0bb4 dd36 a402 ee36 0ddd 5736 e3f7 b835
000000b0: 067e 403a 43fe 1437 5503 4037 2a46 6737
000000c0: c408 343a ff5c 7434 19ce c235 ac02 d136
000000d0: 70fe 0c36 6216 3136 a359 2b37 2870 7137
000000e0: 7f93 1737 211d ad36 1d16 0536 454b 6835
000000f0: 04e3 0c34 302f 2d36 14db e736 0865 ff3a

exp_avg f4 [64]
-1.823766e-08 0.00021529463 1.4488468e-09 -5.796671e-07 -0.0011870079 -9.8191595e-06 0.00036451084 4.4950425e-06
2.4044974e-05 4.91909e-05 0.0005956057 -2.0362239e-07 1.3223348e-07 -3.2285844e-11 -3.8860075e-29 5.1609216e-12
-5.7800855e-05 0.00025382702 7.0045496e-07 0.0001599175 -1.7951721e-05 7.47304e-09 1.0124966e-05 -4.6722764e-07
2.5506485e-12 -8.904158e-05 -7.4348114e-12 -0.00077994884 2.8962807e-15 -1.8390871e-07 4.260265e-05 -2.5486456e-06
1.2214018e-12 1.288783e-16 4.6318724e-10 -4.703319e-12 -1.9581224e-05 -4.178069e-05 1.0946154e-08 -6.0415523e-06
-4.3540336e-12 -5.920584e-06 7.38762e-05 0.00018317337 7.364867e-05 7.845437e-05 2.837585e-07 8.115184e-05
-7.62407e-05 4.3337408e-05 -3.0791825e-06 -9.741501e-07 -3.705361e-13 9.801835e-20 7.547287e-08 3.0994346e-05
5.801805e-07 1.3597216e-07 8.9360384e-07 -2.3406623e-09 -4.732101e-05 6.3157586e-09 -5.196316e-11 0.00023489825
00000000: 0aa9 9cb2 b6c0 6139 c420 c730 6b9a 1bb5
00000010: 6095 9bba f8bc 24b7 d11b bf39 1fd4 9636
00000020: 30b4 c937 5452 4e38 6c22 1c3a 4ca3 5ab4
00000030: 10fc 0d34 a1fe 0dae 430b 4590 7395 b52c
00000040: 326f 72b8 1614 8539 e606 3c35 87af 2739
00000050: 0797 96b7 c762 0032 66de 2937 47d7 fab4
00000060: 667c 332c d6bb bab8 6acb 02ad 7b75 4cba
00000070: f3b2 5027 7178 45b4 3fb0 3238 6609 2bb6
00000080: a3e5 ab2b 2996 1425 cfa3 fe2f bb7b a5ac
00000090: 5c42 a4b7 ad3d 2fb8 b20d 3c32 8ab8 cab6
000000a0: a631 99ac 6ea9 c6b6 fced 9a38 3a12 4039
000000b0: d473 9a38 df87 a438 7957 9834 1030 aa38
000000c0: 6ae3 9fb8 30c5 3538 f4a3 4eb6 8bbf 82b5
000000d0: e197 d0aa 7570 e71f a613 a233 edff 0138
000000e0: b3bd 1b35 beff 1134 fddf 6f35 5ed9 20b1
000000f0: 8c7a 46b8 0002 d931 5189 64ae 054f 7639

exp_avg_sq f4 [64]
1.5066362e-07 1.8316442e-06 7.464156e-08 5.2219892e-08 4.585503e-05 4.840167e-07 5.83713e-06 1.3578565e-07
7.662184e-07 6.3437864e-07 1.2026058e-05 1.4161691e-07 1.451218e-07 3.602263e-08 3.3503195e-08 5.6622337e-08
1.0634288e-06 4.2022352e-06 2.4222692e-07 1.0306122e-06 4.9933337e-08 1.5570658e-08 4.404426e-08 6.833103e-08
5.2091927e-08 3.018934e-08 2.7815588e-08 3.6301688e-05 1.2890965e-07 1.5966786e-07 1.6814742e-07 5.5456077e-08
4.6754412e-08 5.4956296e-08 1.661686e-07 4.222616e-08 8.0171577e-07 1.5345333e-07 9.4349346e-08 6.384727e-08
1.0300209e-07 1.7276695e-07 2.8429312e-07 5.092861e-08 1.8007853e-05 1.43179e-06 1.0770639e-07 1.3323001e-06
1.679002e-05 8.221167e-07 2.6119126e-08 9.0336385e-08 4.9970993e-08 1.08796385e-07 1.3753078e-07 3.9091722e-07
1.7571797e-07 7.172328e-08 3.839155e-08 1.0052349e-08 3.198281e-07 5.080635e-08 1.2290067e-07 2.804278e-05
00000000: 1ac6 2134 d1d6 f535 a24a a033 6148 6033
00000010: 7754 4038 60ed 0135 91dc c336 7acc 1134
00000020: 21ae 4d35 2b4a 2a35 87c3 4937 5c0f 1834
00000030: c7d2 1b34 4db7 1a33 27e5 0f33 eb30 7333
00000040: 23bb 8e35 ed00 8d36 6a0b 8234 9153 8a35
00000050: 4976 5633 3dc0 8532 2d2b 3d33 62bd 9233
00000060: aebb 5f33 88a9 0133 20ef ee32 a442 1838
00000070: 6a6a 0a34 2b71 2b34 038c 3434 9a2e 6e33
00000080: 05cf 4833 1609 6c33 146c 3234 275c 3533
00000090: 7d35 5735 eec4 2434 1a9d ca33 681c 8933
000000a0: ff31 dd33 d181 3934 f3a0 9834 99bc 5a33
000000b0: 920f 9737 ee2b c035 374c e733 7cd1 b235
000000c0: 4bd8 8c37 6eaf 5c35 915c e032 f4fe c133
000000d0: b09f 5633 72a3 e933 2cac 1334 41df d134
000000e0: fdac 3c34 4a06 9a33 f5e3 2433 b3b2 2c32
000000f0: d7b4 ab34 2c36 5a33 aef6 0334 693d eb37

exp_avg f4 [1, 64]
-4.8961783e-07 0.006609206 1.4904776e-07 -9.354113e-06 -0.0049258955 5.1856226e-05 0.008161687 3.070187e-05
-0.0027037093 -0.0021669855 0.004806283 -1.0766345e-06 6.091887e-07 1.7359209e-10 7.133913e-29 7.403534e-11
0.0021433902 -0.0006339096 5.9437866e-08 0.0066117262 1.37202405e-05 -3.091747e-07 -2.9760176e-05 -1.8547208e-06
9.860235e-12 -0.0010478317 -4.6547342e-11 0.009286475 1.5496097e-14 -2.7424315e-07 -0.00026073935 5.9409786e-06
6.414437e-12 6.5292735e-16 1.0623117e-09 -2.5797706e-11 0.0003867539 0.0003169321 -6.847391e-08 4.017052e-05
2.4971835e-11 -4.5131274e-05 0.007486443 -0.0017211145 0.011183614 0.0006095158 6.5866084e-07 5.5598794e-05
-0.01118665 -0.002611646 4.1085437e-05 -4.4239328e-06 -1.9768646e-12 -5.635954e-20 5.1362423e-07 -0.0002702602
1.9590696e-06 1.4053269e-06 -1.2148879e-06 -9.658985e-08 0.0027047002 -3.6809757e-05 -3.0242137e-10 -0.010230602
00000000: 486e 03b5 0a92 d83b f009 2034 9cef 1cb7
00000010: 6869 a1bb 3380 5938 99b8 053c e2c5 0038
00000020: b730 31bb fc03 0ebb 067e 9d3b e180 90b5
00000030: 2187 2335 d4dd 3e2f bedd b410 31ce a22e
00000040: 1f78 0c3b f42c 26ba a048 7f33 2ea7 d83b
00000050: fc2f 6637 a6fc a5b4 7ea5 f9b7 b9ef f8b5
00000060: 8d76 2d2d 6657 89ba a6b7 4cae 4d26 183c
00000070: 9193 8b28 b13b 93b4 d8b3 88b9 9e58 c736
00000080: 1db0 e12c 8931 3c26 c500 9230 45eb e2ad
00000090: 3bc5 ca39 e829 a639 ee0b 93b3 c47c 2838
000000a0: 93a7 db2d 564b 3db8 d650 f53b 0597 e1ba
000000b0: 7a3b 373c eac7 1f3a d4ce 3035 c032 6938
000000c0: 3648 37bc 2628 2bbb 2753 2c38 4b71 94b6
000000d0: 071c 0bac 4013 859f fddf 0935 b6b1 8db9
000000e0: 8f78 0336 aa9e bc35 3b0f a3b5 d56c cfb3
000000f0: 5741 313b 2d64 1ab8 0642 a6af 419e 27bc

exp_avg_sq f4 [1, 64]
1.2702508e-05 0.0027322914 1.4933526e-05 1.2885357e-05 0.0021324088 6.213679e-05 0.0025998722 1.7419465e-05
0.0029611862 0.0029528614 0.0021259105 9.26021e-06 1.8167368e-05 3.234129e-06 1.0475368e-05 1.0536415e-05
0.0029599818 0.0025931147 2.0904457e-05 0.0027265768 5.6767117e-06 2.9586618e-05 8.315259e-06 3.8230896e-06
3.5832575e-06 3.819304e-06 3.2846508e-06 0.002275956 3.0311336e-05 2.6165268e-05 0.002644372 5.3294348e-06
3.1716872e-06 2.9747866e-06 2.1454696e-05 3.2178764e-06 0.00036169722 0.0026411803 1.3947334e-05 4.7164913e-06
1.1607101e-05 2.0644722e-05 0.0026004713 4.7075855e-06 0.0022271199 0.0028191432 3.3052587e-05 0.0027217732
0.002227919 0.0029622938 2.411645e-06 3.7236092e-05 3.2678925e-06 1.8553994e-05 1.30710405e-05 0.00012015209
1.5073716e-05 6.92543e-06 5.5771147e-06 7.617575e-05 0.002907218 1.05060235e-05 8.932872e-06 0.0022948168
00000000: db1c 5537 3e10 333b 018b 7a37 302e 5837
00000010: e2bf 0b3b 6f4f 8238 9e62 2a3b 0420 9237
00000020: 7610 423b cb84 413b dc52 0b3b 4d5c 1b37
00000030: 2066 9837 ea09 5936 5dbf 2f37 8fc5 3037
00000040: 41fc 413b 3ff1 293b fb5b af37 5eb0 323b
00000050: 957a be36 c730 f837 c481 0b37 1748 8036
00000060: e577 7036 9227 8036 df6d 5c36 3528 153b
00000070: 1945 fe37 7c7d db37 334d 2d3b 7fd3 b236
00000080: 2cd9 5436 72a2 4736 9cf9 b337 b2f2 5736
00000090: 2ea2 bd39 a717 2d3b 58ff 6937 5a42 9e36
000000a0: 1fbc 4237 342e ad37 ab6c 2a3b daf5 9d36
000000b0: dff4 113b 60c1 383b f2a1 0a38 c75f 323b
000000c0: 4702 123b 0b23 423b bfd7 2136 f32d 1c38
000000d0: f74d 5b36 66a4 9b37 b14b 5b37 2afa fb38
000000e0: 1ee5 7c37 fe60 e836 0d23 bb36 8bc0 9f38
000000f0: 0687 3e3b 0743 3037 65de 1537 a364 163b
