lab_3/logs_task1_SGD/lightning_logs/version_1/checkpoints/epoch=19-step=37500.ckpt (torch, 5147 bytes, 3 tensors)

linear1.weight f4 [64, 1]
000000 18 c1 48 bf 37 25 6b 3e 2f d3 14 3f 2d 03 d4 be
       -0.7841964 0.22963415 0.5813474 -0.41408673
000010 db c6 30 3f 07 aa 78 be c2 4a 57 3f d6 67 42 3f
       0.6905343 -0.2428361 0.84098446 0.7593969
000020 81 82 b9 be 4d 9c ab be b1 ad ec be 13 69 f0 3e
       -0.3623238 -0.33517686 -0.46226266 0.46955165
000030 0b cf 03 3f 2f 30 86 3e 21 17 2f 3f d4 09 d7 be
       0.514878 0.26208636 0.68394667 -0.41999686
000040 26 f1 4e 3f fc 8c 58 bf 46 18 34 be 7e 30 4e be
       0.80836713 -0.84590125 -0.17587385 -0.20135686
000050 71 f9 5c 3f e2 b3 c5 be 29 0b f9 3c be d0 0b 3f
       0.8631812 -0.38613802 0.03040083 0.5461539
000060 80 bc db 3e 86 dc a4 be 42 92 39 bf 22 5e 5c bf
       0.42917252 -0.32199496 -0.72488797 -0.86081135
000070 e8 42 e3 be 22 f6 45 3f 10 f3 bb 3e 29 ac 07 3f
       -0.44386983 0.77328694 0.3670888 0.5299707
000080 df 58 43 3f 20 8a 99 3c f4 c8 e6 3e b1 51 d0 3e
       0.7630748 0.018742621 0.4507519 0.40687326
000090 14 10 56 3f d9 60 88 be 16 f2 28 bf a5 0a 46 3f
       0.83618283 -0.2663639 -0.65994394 0.7735999
0000a0 27 b9 7e 3e a7 83 14 bf 4b f6 3d bf e8 80 c5 be
       0.24875318 -0.58013386 -0.7420394 -0.3857491
0000b0 bc c9 a5 3e 2b 01 73 be 8d 04 c8 be 80 e9 89 3e
       0.32380474 -0.23730914 -0.39065972 0.2693596
0000c0 23 4b 51 bf 73 21 ea be 52 c9 b8 be 38 5b d2 3e
       -0.81755275 -0.45728645 -0.36091095 0.4108522
0000d0 4b 5a 89 3e 23 0f c1 be fb d7 a4 be c4 e4 02 bf
       0.268267 -0.3770686 -0.3219603 -0.5113032
0000e0 e8 17 56 bf 45 12 62 3f 86 e1 d5 be 01 52 81 3e
       -0.8363023 0.8830913 -0.41773623 0.25257877
0000f0 11 b3 bb 3e 60 f9 2f bf 31 63 26 3f 78 fe 69 3e
       0.36660054 -0.6873989 0.64995104 0.22850978

linear1.bias f4 [64]
000000 78 e8 7e be fb 5e 46 3f 12 cf 07 3d df a3 56 bf
       -0.24893367 0.7748868 0.033156462 -0.838438
000010 25 bd 43 bd c4 8d 5d bf 94 e4 65 3e 40 4a ab 3d
       -0.047787804 -0.8654444 0.22450477 0.083637714
000020 b5 3f f0 be 9d a3 38 3e 93 e8 9a 3e fd 9f 92 3f
       -0.46923605 0.18031164 0.30255565 1.1455075
000030 e9 78 fb 3e 3e 47 83 bf c8 89 7d be 84 9d 48 3f
       0.49115685 -1.0256116 -0.2475959 0.7836535
000040 e4 3e 3e bf 6d c8 31 3d bb bb 0f 3d 12 ff 24 bf
       -0.74314713 0.04340403 0.035091143 -0.64451706
000050 ee e1 8d 3f 37 79 26 bf 7f 7d 1f bf 78 c6 5b 3d
       1.1084573 -0.6502871 -0.62300867 0.05365607
000060 e5 85 bb be b7 d1 4f be 63 be 20 bf 39 b3 86 3f
       -0.3662559 -0.20294844 -0.6279051 1.0523444
000070 31 a0 80 bf ae e8 7e 3e 92 af ea be 78 54 ba bf
       -1.0048887 0.24893448 -0.45837075 -1.4557028
000080 c3 c3 3a 3e c5 e5 55 bf ee f4 81 bf 09 b5 42 3f
       0.1823874 -0.83553725 -1.0152872 0.7605749
000090 39 86 6f bf 82 e0 88 3f 1b 99 ea 3e b5 83 0c bf
       -0.9356418 1.0693514 0.45819935 -0.5488847
0000a0 a0 88 6b 3f d9 13 e7 bc dd 40 51 bf bf 9b 13 3f
       0.9200535 -0.028207706 -0.817396 0.57659525
0000b0 13 49 0a 3c e4 89 4e 3f 4b 81 3b bf 32 fd 8a bf
       0.008440274 0.80679154 -0.7324416 -1.0858519
0000c0 0d 99 45 be 3d 68 8a bf 96 2d fc be 30 80 4f 3f
       -0.19296665 -1.0813061 -0.4925353 0.81054974
0000d0 86 3a 8d 3f 78 03 66 bd 66 06 2e 3d 7f c5 3b bd
       1.1033485 -0.05615565 0.04248657 -0.045842644
0000e0 aa cb 5b bf 9d 62 21 3f 6c 92 c5 3e f8 ff 74 3f
       -0.8585764 0.63041097 0.38588274 0.9570308
0000f0 fd d9 08 bd 2d ad ce 3e 5c d5 08 3f a8 99 34 bf
       -0.033411015 0.40366498 0.5345056 -0.7054696

linear2.weight f4 [1, 64]
000000 df 48 ed bc 1f 3d 3e 3e ed 28 96 3d 31 0c 6e 3e
       -0.028965412 0.18578003 0.07332025 0.23246838
000010 87 03 71 3d b5 06 b9 be d4 98 ea 3a b7 0a 6c 3d
       0.058841255 -0.3613793 0.001789833 0.057627406
000020 a6 64 95 3e f0 cb 55 3e 8a 76 ee 3d 5c 22 05 bf
       0.2917835 0.20878577 0.11643703 -0.52005553
000030 c0 26 01 3c 77 ea cb 3e b7 ca 1e 3e 70 f8 84 3e
       0.007882774 0.3982732 0.15507017 0.25970793
000040 69 d6 62 3e bb 53 95 bc a1 5a 81 be 21 e6 f9 bd
       0.22152103 -0.018228402 -0.25264457 -0.12202097
000050 d9 2c c2 3e 5b aa 74 3e 3b b5 51 bc 3b 41 ef bb
       0.3792484 0.2389311 -0.012799556 -0.0073014772
000060 19 62 30 be fe 18 28 3e f0 0b f2 bd fa b2 b1 be
       -0.17224921 0.16415784 -0.11818683 -0.3470686
000070 99 3e 8e 3e da e5 d9 3d 7e 20 81 be 14 0e 58 bf
       0.27782133 0.10639544 -0.25220102 -0.8439648
000080 19 6c 50 3d aa c3 07 bd 20 c4 ba be 9f 07 73 be
       0.05088434 -0.033145584 -0.36477757 -0.23733376
000090 4c a6 c0 3e 3f 98 ae be 2c 76 9b bd 10 ba 96 3d
       0.37626874 -0.3410053 -0.07590899 0.07359707
0000a0 6f 6b e0 3e 04 b6 c6 3d 9e 58 81 be c9 58 cd 3e
       0.43831965 0.097026855 -0.25262922 0.401068
0000b0 7d 06 f9 bd 0d 9a a1 be 04 fa 2c 3e 91 dc e1 3e
       -0.12159441 -0.31562844 0.16892248 0.4411359
0000c0 9d d3 7c bd 2b f9 b4 3e 9a 17 50 3e d1 09 83 be
       -0.061725248 0.3534635 0.20321503 -0.25593427
0000d0 73 41 00 3f 39 ce 1e 3e 98 9d 36 3e a4 bc 2f 3d
       0.5009987 0.15508355 0.17833555 0.04290451
0000e0 32 60 a5 be c7 9b a8 3d 82 77 1e 3e 09 bf e8 3e
       -0.32299954 0.08232837 0.15475276 0.45458248
0000f0 af 3c 98 bd 01 fc 8a bd 36 36 2f 3d 68 7c c4 3e
       -0.074334495 -0.06786347 0.04277631 0.38376164
