lab_3/logs_task1_SGD/lightning_logs/version_5/checkpoints/epoch=19-step=37500.ckpt (torch, 5147 bytes, 3 tensors)

linear1.weight f4 [64, 1]
000000 4a 21 f2 3e 58 b0 e1 3e 55 cc c3 3e e9 43 33 3e
       0.47291023 0.44079852 0.3824183 0.17506374
000010 44 df ba 3e a5 64 ec 3e 67 ec 5c 3f 95 e2 c4 3e
       0.36498463 0.46170536 0.8629822 0.38454118
000020 d3 f5 bf be 60 2b 0d 3f ff 62 63 3e 61 41 2b 3f
       -0.37492236 0.5514431 0.22205733 0.66896635
000030 de 4b 85 be 09 96 41 be 13 42 59 3f 0b 15 21 3e
       -0.26034445 -0.1890489 0.84866446 0.15730684
000040 66 c3 3c 3e 52 62 36 3e fa fd 3e 3e 48 92 82 3e
       0.18433914 0.17810944 0.18651572 0.2550223
000050 f1 60 50 bf b0 82 64 3f 00 6f 61 3f 5f ba 2d bf
       -0.8139792 0.89261913 0.8806 -0.67862505
000060 0a f7 a5 3e f7 24 4a 3f 9c 41 6a 3e 2a a3 d1 3e
       0.32415038 0.78962654 0.2287659 0.40944797
000070 8d 35 3a 3f 52 8d b1 3e a0 39 b0 be 37 fc 50 bf
       0.7273796 0.3467813 -0.34418964 -0.8163485
000080 c3 33 04 bf 04 86 15 bf 08 41 37 be fa d6 2f bf
       -0.5164148 -0.58407617 -0.17895901 -0.68687403
000090 86 51 1c 3f ee 1f 61 3e ec f2 d7 be b3 54 cd be
       0.61061895 0.21984836 -0.42177522 -0.40103683
0000a0 b1 ce a7 3e 39 11 29 be cd 19 9f 3e 83 12 45 3e
       0.3277488 -0.16510476 0.31074372 0.19245343
0000b0 60 5b 1e 3e 40 5c 3a be 9c 11 aa be 74 24 5b be
       0.15464544 -0.18199253 -0.3321656 -0.21400625
0000c0 94 d9 dd 3e b7 06 0f bf 48 9c 3f be 01 10 80 be
       0.4333006 -0.5586962 -0.1871196 -0.2501221
0000d0 e4 80 60 bf 13 c9 31 3e a8 28 84 3e 57 aa 47 3f
       -0.8769667 0.1736186 0.25812268 0.7799429
0000e0 47 57 29 3f 6e cb 69 3f 4a 60 43 bf a8 ec 47 bf
       0.661488 0.91326034 -0.763188 -0.78095484
0000f0 f5 cd ba 3e 35 c4 ba 3e 07 8b e6 3e 5f fd d6 be
       0.36485258 0.3647782 0.45027944 -0.41990182

linear1.bias f4 [64]
000000 6b 02 8f 3f 48 b2 70 bf 86 fb 98 3e 05 fc bf be
       1.1172613 -0.94022036 0.29879397 -0.37496963
000010 a4 75 d4 be 34 3b 86 3f 82 6b 7b 3f db f7 e4 3e
       -0.41496003 1.0486817 0.9821092 0.4472035
000020 d5 51 ff 3e 69 02 18 3d f9 46 23 bf 91 a1 89 3e
       0.4986712 0.037111674 -0.6378017 0.26881078
000030 d1 48 7d 3f 9a 97 e0 3e a9 0b 7d bf a7 7b 57 be
       0.98939234 0.43865663 -0.98845917 -0.21043263
000040 38 40 af 3e d0 01 3b be 42 2f 9f be e2 f1 71 bf
       0.34228683 -0.1826241 -0.31090742 -0.9450971
000050 da 2e ed 3d 82 de a1 3e a0 8a 87 bf af 14 4e 3e
       0.11581202 0.31615072 -1.058918 0.20125078
000060 9e 59 9a 3e 71 8a d3 3e df e3 44 3f ac 1b 3b bf
       0.30146497 0.4131656 0.76910204 -0.730891
000070 52 45 bb 3e 82 c3 e8 3d b4 4f 97 be 60 dd 7f bd
       0.36576325 0.11365415 -0.29552996 -0.06246698
000080 0b e3 af 3f 46 ff 02 3d ab 7b 90 be e4 8c 92 3c
       1.3741163 0.03198173 -0.2821935 0.017889448
000090 e1 6b fa be 3b 26 1f bf d4 95 66 be 41 a7 14 3f
       -0.4891043 -0.6216771 -0.22518092 0.5806771
0000a0 2c ca a1 bd 75 16 7c be 6e 63 d0 3e 56 cc 0e 3f
       -0.07899889 -0.24617942 0.4070086 0.5578054
0000b0 1f 0f 38 be 11 6d 8d be 5b 9b 2a 3e 4d 25 21 bf
       -0.17974518 -0.27622274 0.16660826 -0.6294754
0000c0 b6 bc 5e 3f fa 5a 94 be 49 60 b7 be f0 70 72 3f
       0.870067 -0.2897566 -0.35815647 0.9470358
0000d0 32 fe 62 bf ba b1 8e be 5a 10 85 3f 1b 0a 1c bf
       -0.8866912 -0.2786997 1.0395615 -0.6095292
0000e0 b6 f0 6f be 1a ec 90 3f 30 d2 af be 05 62 14 3f
       -0.23431668 1.1322052 -0.34340048 0.57962066
0000f0 b4 a9 e4 3e b7 33 6a 3e 64 e4 7e bf 69 c0 46 bf
       0.44660723 0.2287129 -0.99567246 -0.77637345

linear2.weight f4 [1, 64]
000000 32 4b 1a bf 5b e0 b7 be e1 59 3d be 01 54 05 3e
       -0.6027099 -0.35913357 -0.18491317 0.13020326
000010 22 93 a3 be b7 67 1a bf cd f7 a0 3e 79 dd 67 be
       -0.3194819 -0.60314506 0.31439057 -0.22643079
000020 15 0f 7b 3e b3 4e 64 3c d7 5b 8a 3e a6 9b 6f 3d
       0.24517472 0.013934779 0.27023193 0.058498047
000030 c9 c0 bc be d5 d3 03 be 40 b0 6a 3e ce db ba 3d
       -0.36865833 -0.12873776 0.22918797 0.09123956
000040 dc ed 6d 3e bc 40 74 3e 27 5c 64 3e f4 5e a6 3e
       0.23235267 0.23852819 0.22300778 0.32494318
000050 1c 12 0a bd af cf 4c 3d 73 80 aa 3e 4e b3 39 bd
       -0.033708677 0.05000275 0.33301124 -0.045337014
000060 10 9b f4 bd 08 12 ac 3d 07 f9 cf 3e a3 84 d9 be
       -0.11943638 0.08401877 0.4061968 -0.42484006
000070 89 70 0e 3e 55 63 77 be a7 c9 42 3e b5 d4 41 3d
       0.13910116 -0.24158986 0.19022237 0.047321994
000080 fe e1 38 3f e0 d0 ad 3c 43 e8 5e be d5 c0 c2 bd
       0.72219837 0.021217763 -0.21768288 -0.09509436
000090 ef f7 8a 3c a1 14 82 3e 83 d0 a5 3d d8 ad 4f 3e
       0.016963927 0.25406364 0.08096411 0.2028116
0000a0 46 72 dd bd 8d 19 ef bd 33 28 a4 bd 76 7a 02 3e
       -0.108128116 -0.11674795 -0.0801548 0.12742028
0000b0 6f aa cd 3d 31 de 8a be 2a 4d 5c 3e d6 a8 b4 be
       0.10042273 -0.27122644 0.21513811 -0.35285062
0000c0 e0 7d d0 be 21 a0 b3 3d 48 0d 85 be ac 8b ee bd
       -0.40721035 0.087707765 -0.25986695 -0.11647734
0000d0 83 71 72 be d9 04 81 3d 58 d0 c5 3e d2 1e 92 3e
       -0.23676114 0.06299753 0.38635516 0.2853914
0000e0 f0 87 1e 3e c6 aa c7 3e 3c ee 07 bc 82 7a 75 be
       0.15481544 0.38997477 -0.008296546 -0.23972514
0000f0 be a3 3e be ba 1c 65 be 70 d2 d4 be 0f 09 99 3e
       -0.1861715 -0.2237424 -0.415668 0.29889724
