lab_3/logs_task1_SGD/lightning_logs/version_4/checkpoints/epoch=19-step=37500.ckpt (torch, 5147 bytes, 3 tensors)

linear1.weight f4 [64, 1]
000000 07 e6 6b bf d7 3b 3e be 64 89 cc be 04 58 a9 be
       -0.9214787 -0.18577515 -0.3994857 -0.33074963
000010 25 9b 53 bf a0 b9 b0 3e ab 84 4f bf 20 34 f1 bc
       -0.82658607 0.3451662 -0.8106181 -0.0294438
000020 5c d5 de 3e df 85 de be 43 38 03 3f 78 f0 53 3e
       0.43522155 -0.4346151 0.51257724 0.206972
000030 96 46 d0 3e ed 1c 22 3f bb cf c5 be 1c 85 d3 3e
       0.40678853 0.6332539 -0.38635048 0.41312492
000040 2c de c3 be 30 b4 c5 3e 19 4d d6 be dc c2 0b 3f
       -0.3825544 0.38614035 -0.41855696 0.54594207
000050 89 9d 75 3e ff 86 e7 be bf 3d d3 be 64 11 89 3e
       0.23985876 -0.4522018 -0.41258046 0.2677108
000060 7c 02 50 3f 7c dd 06 3f 3e eb 35 be 43 2b 5d bc
       0.8125379 0.5268171 -0.17765519 -0.013499084
000070 94 94 dd 3e 3b d7 30 bf b9 8f 51 3e 56 86 e2 be
       0.4327742 -0.69078416 0.20464982 -0.44243115
000080 2f a5 1d 3f bc ec ba be e4 5e 5e 3e b1 f9 ae 3e
       0.61580175 -0.3650874 0.21715885 0.34174874
000090 ed 8a 26 3f e2 3f 51 be 58 36 60 3f 26 58 40 bf
       0.65055734 -0.20434526 0.8758292 -0.75134504
0000a0 8d f1 6f be ec b4 6d bf b0 33 52 3e 06 8e ba 3e
       -0.23431988 -0.9285419 0.2052753 0.3643648
0000b0 a5 f0 f9 be 00 b8 eb 3e cc cd 32 be 4a 7a 59 bf
       -0.4881641 0.46038818 -0.17461318 -0.84952223
0000c0 78 35 3a 3f e2 79 17 3f 5c 2b 03 3f 9e 39 45 3f
       0.72737837 0.59170353 0.51238036 0.7704104
0000d0 88 ca ae 3e f6 ea 1a 3f 84 9c 48 3f 1e 64 a0 be
       0.34138894 0.6051477 0.78363824 -0.31326383
0000e0 c0 58 56 bf 3b 36 f3 be 90 28 86 be 56 a5 85 be
       -0.8372917 -0.47502312 -0.26202822 -0.26102704
0000f0 52 bb 3b 3e 1d 73 08 3f 48 79 d2 3e c2 7f 4e bf
       0.18333176 0.5330065 0.41108155 -0.8066369

linear1.bias f4 [64]
000000 98 65 a1 be 1d 54 93 be 25 98 36 3f a2 3e ba be
       -0.31522822 -0.2877511 0.71325904 -0.3637591
000010 eb 3d f0 be 70 ed 2e be 11 29 98 be 88 b3 76 be
       -0.4692224 -0.17082763 -0.2971883 -0.24091923
000020 e3 0b 7e bf b5 01 71 3f 38 a5 0a 3f d6 48 f6 be
       -0.9923689 0.9414323 0.54158354 -0.48102444
000030 16 31 42 bf 2d 84 bf 3c a4 77 1a 3f 4c 90 4d bf
       -0.7585615 0.023378456 0.6033881 -0.80298305
000040 ec 09 e0 be 65 3a f4 3e 3e 6e 3a bf 6e 19 f2 bd
       -0.4375757 0.47700801 -0.72824466 -0.118212566
000050 0c 10 52 bf e0 90 84 3f 4d 7b 0f 3f a6 8e 89 bf
       -0.82055736 1.0356712 0.5604752 -1.0746658
000060 ae 0f 41 bf 0a d4 ad 3e a5 54 a5 3c 9a f5 88 3e
       -0.7541455 0.33950835 0.020181963 0.2674988
000070 e4 2c 6c bf d7 a8 0c bf 42 73 07 3f 1c df 65 bf
       -0.92256 -0.5494513 0.52910244 -0.8979356
000080 83 94 72 be 67 c7 f4 3e a6 e5 21 3f fe 2d 91 3d
       -0.23689465 0.47808382 0.6324104 0.070888504
000090 db bf 97 3e bc b1 e6 3e f1 40 03 be 0f fe a8 be
       0.29638562 0.45057476 -0.12817742 -0.3300633
0000a0 26 4b 4a 3f 8b 75 9b 3f ee ac 06 3f f2 07 f1 be
       0.7902092 1.2145246 0.5260762 -0.47076374
0000b0 1d 2d 98 bf a7 a5 8a bf 49 91 0c 3c 1a ff c9 be
       -1.1888767 -1.0831803 0.008579561 -0.3945244
0000c0 1c e3 8e be ee 36 12 be b7 59 aa 3f fa 55 7a 3f
       -0.27907646 -0.14278767 1.3308629 0.9778744
0000d0 1a 16 c5 bd 5f 74 a2 be 8c aa 0c 3f 58 18 9e bd
       -0.09623356 -0.3172941 0.54947734 -0.07719487
0000e0 31 a9 81 bf ef ff a6 3e e3 c4 83 3f 0b 47 85 bf
       -1.0129758 0.32617137 1.029446 -1.0412306
0000f0 ad 78 40 be d2 8a 65 3e 64 6e 55 bf ae 1b 69 bf
       -0.18796034 0.22416237 -0.8337157 -0.9105786

linear2.weight f4 [1, 64]
000000 9b a1 6f 3d b6 d4 a5 be b0 fc 9a 3e d8 99 a9 3d
       0.05850373 -0.32388848 0.3027091 0.082812965
000010 84 02 a4 bd ef d5 4a be 8e 55 bc bd 89 e5 56 3a
       -0.08008292 -0.19808172 -0.09196006 0.00081976556
000020 3d b0 24 be 21 31 7c 3e f6 0f 73 bd 0a 59 a0 3e
       -0.16082855 0.24628116 -0.059341393 0.3131793
000030 49 f6 a8 be 3b c9 1f 3e 97 39 22 3e d2 55 9a be
       -0.330004 0.15604107 0.15842281 -0.301436
000040 9a 66 78 3e f5 98 94 be 09 fa 82 3e 08 48 00 3e
       0.2425789 -0.29022947 0.25581387 0.12527478
000050 f4 0e a3 3e 1a 81 ae 3e 32 b5 cd 3d 17 2f e4 3e
       0.31847346 0.34082872 0.10044326 0.44567177
000060 56 15 b7 3e 0a 2c c1 3c 14 04 a8 be 44 cc eb bc
       0.35758466 0.02358057 -0.3281561 -0.028783925
000070 73 8b 86 be 4b 7f 89 bd 0a 98 a1 3e f6 5a d0 3e
       -0.26278266 -0.06713732 0.3156131 0.40694398
000080 3e d0 2e 3e e7 93 66 3e 72 0e e9 3e 72 2f 14 be
       0.17071626 0.22517358 0.45518833 -0.14471224
000090 01 de 23 bd e9 19 a3 be b3 43 0b bd cc 24 2f be
       -0.04000664 -0.31855705 -0.03400011 -0.1710388
0000a0 f3 22 53 be 2b c7 05 bf a7 27 b2 3e 8b 19 80 be
       -0.20618801 -0.5225703 0.34795877 -0.25019488
0000b0 fe ff 22 3f 1c 23 a6 be 9b 47 5f bd 16 9e 0f 3d
       0.63671863 -0.3244866 -0.054511648 0.035062872
0000c0 2d b1 86 3d 78 a5 6b 3b 3f 01 32 bf 48 ba 08 3e
       0.06576762 0.0035956781 -0.6953315 0.1335231
0000d0 15 d8 69 be d1 b7 28 3e 32 eb 12 3e ea b0 d7 3d
       -0.22836335 0.1647637 0.14347532 0.105317906
0000e0 40 07 90 be 76 b9 6a 3c be 3b a7 be 5f 86 1f bf
       -0.2813053 0.014326444 -0.32662767 -0.6231441
0000f0 fa 25 a2 3e 57 14 47 bd 0a 28 2e be df f4 85 be
       0.316696 -0.048603382 -0.17007461 -0.26163384
