lab_3/logs_task_3b/epoch=53-step=4320.ckpt (torch, 152651 bytes, 8 tensors)

linear1.weight f4 [32, 784]
000000 82 52 d0 bc 32 b7 ce 3c ac 82 99 ba 0a 82 cb 3c
       -0.025429968 0.025233839 -0.0011711917 0.02484228
000010 e5 ed b9 bc 9e 5b 72 bb a9 da 32 bd 72 01 7f bd
       -0.022696445 -0.0036980878 -0.04366556 -0.062257238
000020 2e b7 75 bd a0 c2 c4 3c be 12 a4 bd dd 21 75 be
       -0.059989147 0.024018586 -0.08011387 -0.23938699
000030 59 ea 11 3e 50 0a 80 3e e9 a5 3b 3e 83 ce 81 3e
       0.14249553 0.25007868 0.18325008 0.25352868
000040 dc 80 2f 3d 4c 5b 3e be 34 87 f3 bd c5 8e 0b be
       0.0428475 -0.18589514 -0.11891022 -0.13628681
000050 0c c5 ee bc e6 2e a9 3b 15 db b0 3c 3b 6f 71 3c
       -0.029146694 0.0051630614 0.021588841 0.014735992
000060 22 ee 22 3d 69 f2 11 3c 1f 0c 1f 3d b7 2f a2 3c
       0.039777882 0.008907893 0.03882992 0.019798143
000070 b4 e9 e9 bc 56 24 3f 3b 63 cb 12 3c 12 dc c3 bb
       -0.028553821 0.0029165945 0.008959624 -0.005977162
000080 49 38 23 3d 80 90 11 3d a8 25 3a bd 47 37 98 bc
       0.0398486 0.035538197 -0.045446068 -0.018581046
000090 22 67 99 bd 9a 37 fe bd 93 c1 66 be bd 34 8b bd
       -0.07490374 -0.12412949 -0.2253478 -0.067971684
0000a0 07 2a 0f 3e ce 5f ef bc 23 c2 76 3c 21 40 02 3d
       0.13980876 -0.029220488 0.015060934 0.03179944
0000b0 93 3e 81 bd f5 61 37 be 0f 28 7a be b1 66 87 be
       -0.06310763 -0.17908461 -0.24429344 -0.26445535
0000c0 19 9e 48 bd 3f 70 e4 3c 33 84 83 bd 37 ce 94 3c
       -0.0489789 0.027885554 -0.064216994 0.018164737
0000d0 35 52 b0 3d 41 9c e4 3b 03 60 5d 3d 1f ee 0c 3d
       0.0860943 0.0069766347 0.054046642 0.034406777
0000e0 d5 49 d9 bc 2c 87 8b bc 92 ec 0b 3d f2 67 a0 3c
       -0.026524464 -0.017032228 0.034161158 0.019580815
0000f0 1a 62 ed 3c 68 df 52 bc 74 e7 25 bd c5 9f 39 be
       0.028977443 -0.012870647 -0.040503934 -0.18127353
000100 79 ef f1 bc d6 72 b0 3d f3 ff 0e bd 41 fc 0d bd
       -0.029533135 0.08615653 -0.03491206 -0.034664396
000110 ca f0 2a 3e f4 8b 1f 3e ef 63 a3 3d f8 79 0d 3e
       0.16693416 0.15580732 0.07978045 0.13816059
000120 b2 14 84 3c 6c 3c 66 3d 0e 4c c3 bd fb 53 04 3d
       0.01612315 0.056209967 -0.09535991 0.032306653
000130 d5 4b 4e be 63 d8 43 be 49 8b d1 bc 57 08 03 bc
       -0.20146115 -0.19125514 -0.025579112 -0.007997594
000140 0f 6e 57 3d e7 c5 7b 3c 62 65 14 bc 5b f7 c9 3c
       0.052595194 0.015367008 -0.009057375 0.024654081
000150 f5 8d b4 3c 47 ad 02 3d 63 88 e5 3c ee b1 53 3d
       0.022040347 0.03190353 0.028019136 0.05168336
000160 c5 c8 06 bd a0 77 9a bd bb ea 79 bd 49 9c 03 3e
       -0.032906312 -0.07542348 -0.061014872 0.12852587
000170 37 ee e3 3a f1 92 2d bd 58 2e 65 be 96 f1 02 be
       0.0017389719 -0.042376462 -0.2238096 -0.1278747
000180 0f b8 40 3d 45 b6 f7 3d 30 02 40 3e 20 49 de 3d
       0.047050532 0.12095312 0.18750834 0.10853791
000190 74 b4 8d bc 7d 27 fd bd 10 e3 04 be 76 6b 34 bc
       -0.01729796 -0.123610474 -0.12977242 -0.011011949
0001a0 80 59 4c 3b b2 d8 02 3c 25 71 a3 bd bf 20 3e bd
       0.0031181276 0.0079862345 -0.07980565 -0.046417948
0001b0 ab e0 33 3d 01 43 e0 3d 0b 3f 01 3b 2b 18 97 bc
       0.043915432 0.1095028 0.0019721414 -0.018444141
0001c0 97 89 d8 bb dd 23 02 3d 1a 9a c4 3b 7f b6 ad 3c
       -0.006608199 0.031772483 0.0059998157 0.021205185
0001d0 d5 50 a0 bd 07 67 d0 3c 5c 32 31 bd de ac db bb
       -0.078279175 0.025439752 -0.043260917 -0.006703957
0001e0 20 29 86 bd 2c 25 81 bd ec c3 2d be fe fc cf bd
       -0.06550813 -0.06305918 -0.1696927 -0.10155676
0001f0 f1 29 7f 3d 25 22 7e 3d 25 22 3b 3e 9a 1d e0 3d
       0.062295858 0.06204428 0.18274744 0.10943146
000200 32 6c c2 bd 29 db 21 bd e4 c2 6a bd 10 3c af bb
       -0.09493293 -0.039515648 -0.05731477 -0.005347736
000210 8c 24 cf bd a7 21 7d 3c 9e 61 1c 3d 5c 6f 3d bd
       -0.10114393 0.015449918 0.038179033 -0.04624878
000220 d2 46 cc 3c 05 f7 e5 3d 73 a8 8c 3d 08 c8 6f 3b
       0.024936114 0.11228756 0.06868067 0.0036587734
000230 66 f6 4b bc 37 8c 9a 3b a8 d7 61 3d 73 36 a8 bc
       -0.012448883 0.004716422 0.055137306 -0.020533776
000240 ed 18 98 bc 8a af b6 bc 67 b9 e9 bc 09 be c1 bd
       -0.018566573 -0.0223005 -0.02853079 -0.094600745
000250 34 27 ca bc c2 c8 76 3d 01 2b 39 bc 6e 9b d6 bc
       -0.024676897 0.06025005 -0.011301757 -0.026197162
000260 de 37 12 bd ea af 0e 3e c2 48 18 3e 07 aa ca 3c
       -0.03569781 0.13934293 0.14871505 0.024739278
000270 f0 91 07 bd 8e ca 9d bd 0c fc 8b bd f1 81 c6 bc
       -0.03309816 -0.0770465 -0.068351835 -0.024231883
000280 92 6e af bd d8 a3 03 be e7 bd 86 3c 9e aa ac bd
       -0.085660115 -0.1285547 0.016447974 -0.0843098
000290 73 3c 01 3d 4b a5 b6 3d ae f9 aa 3c 0d 8a 87 bb
       0.03155179 0.08918246 0.02087101 -0.00413633
0002a0 6f 47 29 3b 27 ce e4 3c 29 97 e0 3c 6e f1 4d bd
       0.0025829931 0.027930332 0.027415829 -0.050279073
0002b0 c6 54 36 3c ea 78 cd bc 4f 30 14 bd 97 08 3d bd
       0.01112861 -0.02508207 -0.036178883 -0.04615077
0002c0 33 e0 96 bc c8 ed a8 3c f4 d2 e1 3d cb 88 74 3d
       -0.018417453 0.020621195 0.11026564 0.05970077
0002d0 7d 76 36 bc 84 2e b3 bb 29 b1 da 3d 98 dd 8a bd
       -0.011136648 -0.0054681916 0.10678322 -0.06780547
0002e0 cb 30 31 3c d7 db 45 3d 75 76 ef 3c 67 64 3f 3d
       0.010814856 0.04830536 0.02923129 0.04672661
0002f0 5b a7 a4 bc a3 5c ba bd 89 c8 56 bd ab cc 52 bc
       -0.020099333 -0.090997 -0.05243734 -0.012866179
000300 a7 08 45 39 8e 15 2e 3d 02 d7 1d 3d c3 a7 29 bb
       0.00018790607 0.042501025 0.038535126 -0.0025887347
000310 78 6e ae bc c3 96 61 3d 02 aa 86 3d ab fe 85 3c
       -0.02129291 0.05507542 0.06575395 0.016356787
000320 db 88 a4 bc 29 fb 0a 3d 51 83 a9 bc 04 b5 aa bd
       -0.020084789 0.03393093 -0.0206925 -0.08335307
000330 00 9b 64 bc 27 d7 07 bd b4 86 9c 3d 39 18 63 3d
       -0.0139529705 -0.03316417 0.0764288 0.055443022
000340 ea 31 b9 bc d3 49 c7 bb 2a f2 fa bb ba 5d 73 bc
       -0.022606809 -0.0060817986 -0.0076582627 -0.014853889
000350 6c cc 73 bc 69 c1 8a 3d fb 97 cc 3c 6c 79 9d 3d
       -0.014880281 0.06775171 0.024974814 0.07689175
000360 2b 7c 9a bd 8e 9b f5 bd 23 ca 8a bc cf 4b 27 3e
       -0.075432144 -0.1199256 -0.01694209 0.16337512
000370 60 50 44 3d f5 ad ea 3d ad 5d 07 3c 8c 3a 22 3d
       0.047928214 0.11458961 0.00826208 0.039606616
000380 03 b7 2c 3d 57 d7 bc 3c 7f b5 98 3c 7c c5 36 bd
       0.04216672 0.0230519 0.018641232 -0.04462193
000390 1b 81 cc bc fa fa 8f 3d db b7 5f bd e6 78 32 bd
       -0.024963906 0.07030292 -0.054618698 -0.04357233
0003a0 11 45 c7 bc 4e cf 92 bb d1 6f aa 3a 82 3e 8b bc
       -0.024324926 -0.004480279 0.0013003295 -0.01699758
0003b0 6d 71 0b bd c7 35 19 bd 38 a0 fe bc 3c d0 a7 bd
       -0.034043718 -0.0374048 -0.031082258 -0.081940144
0003c0 3e aa 34 bd 9e 46 f7 3c ab 65 ab 3b bc 86 93 bc
       -0.044107668 0.03018504 0.0052306256 -0.018008582
0003d0 79 f8 d4 bd 53 a0 e1 bd 43 bd a5 bd 92 80 17 3d
       -0.10398955 -0.110169075 -0.080927394 0.03698785
0003e0 b8 51 a0 3c a0 84 9b 3d d8 a3 05 bd 86 36 07 3c
       0.019570217 0.075936556 -0.032626957 0.0082527455
0003f0 32 9e 2f 3d f5 bd 66 3d ab 35 44 3c da 0d 4c 3d
       0.042875476 0.0563335 0.011975686 0.049817897

linear1.bias f4 [32]
000000 ce 54 a2 be d5 44 79 3d cb 6c ee 3c 87 46 c2 bd
       -0.31705326 0.06085666 0.02910461 -0.09486108
000010 b8 05 4a bd 7d 59 44 be 4b 6b 77 3c ca da 81 3c
       -0.04932186 -0.19174762 0.015101264 0.015851397
000020 08 06 77 bc e4 0e 95 3d b8 a0 85 3c 68 40 bf 3d
       -0.015077122 0.07278231 0.016311988 0.093384564
000030 35 fb a8 bc 30 6d 95 ba 08 29 86 3e 49 fb 24 be
       -0.020627597 -0.0011400338 0.2620318 -0.16111483
000040 7e df a2 3e 19 53 00 3e d7 c1 4c 3e 29 e7 6b 3d
       0.31811136 0.12531699 0.19995819 0.0575935
000050 da d1 d0 bd 85 72 d2 bd dd 9d 8f be 76 83 96 ba
       -0.10196276 -0.10275749 -0.28050128 -0.001148327
000060 e9 97 4a 3e bb 2e 05 bc a3 85 bb 3c 7d 62 8b 3e
       0.19784512 -0.008128817 0.022890871 0.27223578
000070 88 16 c1 3d 81 c3 98 be 95 28 8e bd 79 a2 04 3e
       0.094281256 -0.29836658 -0.06941334 0.12952603

linear2.weight f4 [64, 32]
000000 20 d5 4e 3e e7 22 7c be fc 1c 9e 3b 78 15 37 3e
       0.20198488 -0.24622689 0.0048252326 0.17879283
000010 44 3c 68 3e 15 e0 0f 3e e7 b2 0c be 9d e8 02 be
       0.2267924 0.14050324 -0.13740121 -0.12784047
000020 cf 65 49 3e 70 3e 7a bd 75 1c fb 3d 4c c2 2d 3e
       0.19667743 -0.0610947 0.12261287 0.1696865
000030 27 b9 c3 bd a8 6c 9e 3d f2 01 5d be 9c 13 5e 3e
       -0.095567994 0.07735568 -0.21582773 0.21687168
000040 cc d4 41 be de 5e 66 bd 52 70 9e be 20 9c 84 bb
       -0.18928832 -0.056242816 -0.3094507 -0.004046932
000050 08 86 4b be 30 c6 66 3e 1b 9d 95 bc 68 cd 3c bd
       -0.19875348 0.2253654 -0.01826339 -0.04609433
000060 a3 da 7b be 16 d5 8a 3d de c0 57 be ee 32 3a be
       -0.24595122 0.06778924 -0.21069667 -0.1818349
000070 82 f1 1a 3e 16 0d 9a 3e a2 ed aa 3d d7 b5 ac be
       0.1513119 0.3008811 0.08346106 -0.33732483
000080 2e 02 40 bd f2 d0 fe bd bf db 2f 3d f0 7c d0 3d
       -0.04687708 -0.12442197 0.042934176 0.1018008
000090 01 c1 cf 3a 6a 87 32 be a4 b4 19 bd 31 91 16 3d
       0.0015850366 -0.17434469 -0.037525788 0.03675956
0000a0 e3 94 19 3b ab 7f 1f be 25 7d 1c be bb 35 1a bd
       0.002343469 -0.15576045 -0.15282114 -0.037648898
0000b0 17 c2 43 3d 0b 25 42 3e a8 4b 04 be ff 65 1b 3e
       0.04779252 0.18959443 -0.12919486 0.15175627
0000c0 28 07 27 3e ae 8a 2a bd f5 90 ae 3d bb 09 8c be
       0.16311324 -0.04163616 0.08523742 -0.27351174
0000d0 ca 42 74 be f7 f4 27 be ef 66 6f 3e 29 2f 23 be
       -0.23853603 -0.1640204 0.2337911 -0.15935959
0000e0 b6 b4 09 3e 8f a7 3b be 29 f5 b8 3c c8 ba 27 3e
       0.13447842 -0.18325637 0.022577839 0.16379845
0000f0 99 5d ef 3d 31 c8 5d be 2c 4e 2a be 1a f4 a0 3e
       0.11687774 -0.21658398 -0.16631383 0.31436235
000100 07 cc 52 bd a5 75 b2 3c fe 91 6e 3d f9 eb 6a bd
       -0.051464107 0.021784613 0.058244698 -0.057353947
000110 88 08 9a bd 92 d8 95 3e 68 d9 00 3e d7 31 4a 3e
       -0.075211585 0.29266793 0.12582934 0.19745575
000120 a5 b6 77 bd f7 24 10 3e 09 43 1d 3e 58 b9 ef 3c
       -0.060476918 0.14076601 0.15357603 0.029263183
000130 ea da 02 be b1 fa 08 3e 67 d3 5f 3d 71 42 28 3e
       -0.12778822 0.13376881 0.05464497 0.16431595
000140 55 d1 37 bd f1 62 22 be c2 82 09 be b8 15 86 3e
       -0.04487737 -0.15858056 -0.13428786 0.26188445
000150 c7 7f 70 3e 2c f1 51 3e 1b f7 bb 3a 5b 25 90 bd
       0.23486243 0.20502156 0.0014340611 -0.07038375
000160 59 ad eb bd a6 91 e9 3a f4 5f 53 3d a2 9b 66 3e
       -0.11507673 0.0017819896 0.05160518 0.22520307
000170 01 f8 e3 3d 38 35 98 bd ae 98 84 bd d5 8f 8a bd
       0.11131287 -0.07432026 -0.06474434 -0.06765715
000180 25 8e a8 3b 6b 4c 72 3e 0a db 1a 3e e5 7d 15 3e
       0.005143898 0.23661964 0.1512262 0.14598806
000190 4e a8 6d be ea 08 17 3e 40 b3 41 3e 43 a9 b7 3c
       -0.23208734 0.14749494 0.18916035 0.022419577
0001a0 7a 56 56 be 72 d6 88 3e a8 64 6f 3e cb a5 35 3d
       -0.20931426 0.2672611 0.23378241 0.044347566
0001b0 c5 68 06 3e 4c 42 97 bd 6a e9 30 3e ae a4 11 3e
       0.13125904 -0.07385692 0.1727654 0.14222977
0001c0 f4 fd 32 be b4 e1 38 3d f3 78 d2 3d 75 d4 3a 3e
       -0.17479688 0.045137122 0.102769755 0.18245108
0001d0 d8 01 9a 3e f9 09 1c 3e 41 37 12 3e 6f bb 90 3e
       0.30079532 0.1523818 0.1427889 0.28268
0001e0 b2 9c 44 bd e8 ca 0d be 4d 75 a8 3e 27 78 5c 3d
       -0.048001 -0.13846934 0.32901993 0.053825524
0001f0 d7 bf 0c bc 1d 7b 54 3c 20 aa 70 3e 92 4f 79 3e
       -0.00859066 0.012968806 0.23502398 0.2434676
000200 e7 dc e7 3d 20 4f 2d 3e ad 37 87 3d 0c dc 19 be
       0.11321431 0.16924715 0.06602416 -0.15025347
000210 dc 3d c6 bd 38 a6 1c be 62 ff 92 be 73 ab 6e be
       -0.096797675 -0.15297782 -0.28710467 -0.2330759
000220 d8 42 8f 3d aa cf f3 bd 8b 05 12 be c6 ac 06 3d
       0.06995171 -0.11904843 -0.14259927 0.032879613
000230 d8 9a d4 3d 7b 03 ba 3c b9 ab da be 11 b5 6d 3e
       0.103810966 0.022706738 -0.4270914 0.23213603
000240 45 f6 2a bd 6f 2c fe bd a1 af 71 be f9 08 7f 3d
       -0.041738767 -0.12410819 -0.23602153 0.062264416
000250 4f e1 cd bd ac a2 91 bd a3 a5 3c 3e c2 10 ef bd
       -0.1005274 -0.07111105 0.1842256 -0.11673118
000260 23 c0 80 3d 64 65 e6 bd 76 5d 8c 3d 5c 01 b2 bd
       0.06286647 -0.112498075 0.06853764 -0.086916655
000270 96 be c3 3d 66 d6 36 3e 6e 5b 8a be 41 8f d7 bd
       0.09557836 0.17855224 -0.2702288 -0.105253704
000280 d6 e5 6b 3e 06 2e 94 bb 83 7f af bd 8b 1b 96 bd
       0.23036894 -0.004522088 -0.08569243 -0.07329472
000290 61 d0 1c 3e 57 b1 ae bd 0d 88 1c bd df da 4e 3e
       0.15313865 -0.08529919 -0.038215686 0.2020068
0002a0 24 f6 a2 3e 66 aa 04 3c 84 e7 ef bd aa fd 8e 3c
       0.31828415 0.008097267 -0.1171408 0.01745494
0002b0 1b 0b 5d 3d a2 0d be be 60 e9 9c be 31 80 b3 3e
       0.05396567 -0.37119776 -0.306468 0.3505874
0002c0 b4 43 94 3c 2b 7c 45 be 65 97 57 3e f2 6d 37 3d
       0.01809869 -0.19285648 0.21053846 0.044782586
0002d0 cc 1d 5b bc d7 54 b4 bd 44 3d 05 be 60 10 93 3e
       -0.013373803 -0.088052444 -0.13011652 0.2872343
0002e0 a5 c3 4f be 12 b4 bb bd 95 5d 7e be b4 f8 e6 bd
       -0.20289476 -0.09165205 -0.24840386 -0.11277905
0002f0 82 bb 41 3e 56 7d 05 be 82 55 45 3e 6d e5 75 3e
       0.18919185 -0.13036093 0.192709 0.240133
000300 35 6a 88 be ad af 24 bd d9 20 d0 3d a6 c2 bc bd
       -0.2664353 -0.0402066 0.10162515 -0.09216814
000310 79 c1 26 3e da 4c 24 be fe 29 98 bc 47 42 e5 bd
       0.16284741 -0.16044942 -0.018574711 -0.11194282
000320 28 66 37 bd bb 29 29 be 03 a3 81 be 15 d6 8d 3d
       -0.04477516 -0.16519825 -0.2531968 0.069255985
000330 ac fc 73 3e 12 2f 52 3d 03 a6 a3 3d a4 ba bc 3c
       0.23826855 0.05131442 0.079906486 0.023038216
000340 7c f5 64 3d 9a cc db 3d 8d e2 3d 3e b4 8d f2 bd
       0.055898175 0.10732384 0.18543454 -0.11843434
000350 cd cd 35 3d c5 70 45 be 57 5b 8c 3d a2 22 1f be
       0.04438572 -0.192813 0.06853359 -0.15540555
000360 56 2d 8b 3d 12 d5 5e bd d8 80 67 bb 05 4a 1b 3d
       0.067957565 -0.05440242 -0.00353246 0.037912387
000370 6a aa 73 3e 72 b8 38 be 63 e3 37 be a3 2c 2c bc
       0.23795477 -0.1803911 -0.17957835 -0.010508689
000380 0a 33 99 be 24 bd 7a bd b9 d1 b9 3d c2 a4 ab 3c
       -0.29921752 -0.061215535 0.090732045 0.020952586
000390 ff 10 ba bd 73 5f c2 3c f7 b9 04 3e da 2b 88 bd
       -0.09085273 0.023727154 0.12961565 -0.06648989
0003a0 dc 09 dd 3d 72 e8 35 3e 2b 86 85 be 8a 13 22 be
       0.10792896 0.17764452 -0.26078925 -0.15827766
0003b0 05 8e 38 3e 91 d8 0e be 20 69 6d 3d 89 96 fb 3d
       0.18022926 -0.13949801 0.057961583 0.12284572
0003c0 04 79 85 3e 71 1f ab bb 05 72 09 3e 5f e6 93 3d
       0.2606889 -0.005222254 0.13422401 0.07221674
0003d0 39 11 67 3e c2 9e c9 3d f2 ce b8 3d 19 80 b3 bd
       0.22565164 0.09844734 0.09023847 -0.08764667
0003e0 85 ff 7b be 6f b8 46 bc f0 2d 13 be 05 11 af 3d
       -0.24609192 -0.012128933 -0.14372993 0.08548168
0003f0 37 14 c5 3d 4f 3e 20 be 75 70 8c be 64 e9 b9 3d
       0.09622996 -0.15648769 -0.27429548 0.09077719

linear2.bias f4 [64]
000000 8d d3 08 be 2e f4 f6 3d 19 13 aa 3d 78 25 f9 3c
       -0.1336195 0.12058292 0.08304424 0.030413374
000010 93 a7 3c be 18 fb 49 be da 89 0b bd 1f c2 e1 bd
       -0.184233 -0.19724691 -0.034067012 -0.11023354
000020 65 8c 16 bd 4d b0 e2 3b 98 d7 29 3e 74 68 86 be
       -0.036754984 0.0069179893 0.16586149 -0.26251566
000030 c2 98 e5 bb 1e b1 69 3e 90 83 06 be a2 84 29 be
       -0.0070067355 0.22821471 -0.13136125 -0.16554502
000040 51 35 15 be 36 7c d1 bd 74 27 5d 3e a7 27 cf 3b
       -0.1457112 -0.102287695 0.21597081 0.0063218656
000050 25 08 8d bd 27 90 1a be ae 3b 1a 3e f3 9e f0 bd
       -0.06886319 -0.15094052 0.15061828 -0.11749067
000060 c7 ae 5b 3e 29 2b 97 bd 80 d6 82 3b f2 8c 17 3e
       0.21453391 -0.07381279 0.0039928555 0.1479986
000070 02 71 24 bc f2 21 1a 3d 05 85 f7 bd cb af 78 3d
       -0.010036709 0.03763003 -0.12085918 0.060714524
000080 ac 67 c8 3d 89 b7 d7 3c 8c 5e 08 bd af 51 0d be
       0.09785399 0.026332634 -0.033293292 -0.13800691
000090 ba ea 10 3e 2e 45 79 3e 1e b6 25 3e fd 2b d5 3d
       0.14152041 0.24342796 0.16182753 0.10408781
0000a0 c4 f0 a3 bd ab e4 b3 bd 47 98 4e bd 33 52 61 3d
       -0.08004907 -0.08783849 -0.05043819 0.055010032
0000b0 2d 3c ce bd 23 42 3c be 04 f4 32 be 04 3b 76 3d
       -0.10070071 -0.18384604 -0.17475897 0.060114875
0000c0 0b 93 bc bd ac c3 f7 3d ad 11 b8 bd fc 40 2a be
       -0.09207734 0.12097868 -0.089877464 -0.16626352
0000d0 4c f7 21 bd 4c a0 18 3e 64 ac 7d be e3 d9 1c be
       -0.03954248 0.14904898 -0.24772793 -0.15317492
0000e0 1c 3c 0c be a8 d9 1c be 7c 36 1b be 36 a9 27 be
       -0.13694805 -0.15317404 -0.15157503 -0.16373143
0000f0 a9 10 1a be f3 89 86 bc df 65 be bd 3e a0 86 bd
       -0.15045418 -0.016423201 -0.09296774 -0.065735325

linear3.weight f4 [128, 64]
000000 28 18 27 3e 80 45 d7 3d 59 12 7b 3d ee 76 50 3d
       0.16317809 0.10511303 0.061296795 0.05089467
000010 80 37 d7 bb a0 8c 3e 3e 5c 63 ef bc f7 3a 4b bd
       -0.0065678954 0.18608332 -0.029222183 -0.04961678
000020 a6 52 08 3e 6a 90 a6 bb e0 dd 8b 3d 32 6e f1 3d
       0.13312778 -0.0050831335 0.06829429 0.11788596
000030 79 6b 10 3e 01 92 a3 bd d5 e2 80 3d e2 db 37 3d
       0.14103498 -0.079868324 0.06293265 0.04488743
000040 fc 1e 98 bd 13 3c ab 3d 34 08 74 3d 01 9b f4 3d
       -0.07427785 0.083610676 0.059578136 0.11943627
000050 6a 76 e1 bd 14 0d 2d bc 93 b1 79 3d 4f 55 ec 3d
       -0.11008914 -0.0105622 0.060960364 0.11539709
000060 a4 c5 a4 bd b0 21 6c 3e 1a b3 ea bd 3f a4 8f bd
       -0.080455095 0.23059726 -0.11459942 -0.07013749
000070 f9 bb 0c 3e 80 55 11 3d 60 f1 b5 3d 93 7e 0e 3e
       0.13743581 0.03548193 0.08883929 0.13915472
000080 12 df 21 be f1 c6 f5 bd 63 65 21 3e 15 1d da bd
       -0.15807751 -0.12000836 0.15761332 -0.10650078
000090 8d 23 d9 bc 01 df 00 be 95 06 a3 3a bf d3 8d bd
       -0.02650621 -0.12585069 0.0012437875 -0.06925153
0000a0 b9 88 08 3e 9b e5 dc 3c 55 a0 87 bd de 6e f6 bb
       0.13333406 0.026964953 -0.06622378 -0.0075205406
0000b0 7f ba ad 3d 02 5f 09 3e 71 83 c6 bd 24 98 e4 bd
       0.08482837 0.13415149 -0.09693039 -0.11161831
0000c0 35 2f 2e be 96 ef ba bd d5 18 28 3d c3 4e cc 3d
       -0.17010196 -0.09127729 0.041039307 0.0997596
0000d0 22 69 5a bd 53 31 cd 3d 8a e9 0d 3d 4e a3 f7 bd
       -0.05332292 0.100191735 0.03464655 -0.12091695
0000e0 89 7d e3 3d 5f 99 03 be 78 d3 49 bd 19 95 d9 bd
       0.11107928 -0.12851475 -0.049273938 -0.10624141
0000f0 61 8e d8 3d 8e 5e d6 3d 6e ce 86 3d e2 f8 d7 bd
       0.105740316 0.104672536 0.06582342 -0.105455175
000100 52 ee c6 3d 9c b7 97 3c 4a 91 62 3d 4b 79 22 bd
       0.09713425 0.018520169 0.05531434 -0.039666455
000110 ed a7 a5 bd 3c 73 32 3e 7d 8e 00 be 52 5c e3 bd
       -0.0808867 0.17426771 -0.12554355 -0.11101593
000120 29 4f 32 bc df 81 3a bc 23 af ba 3d 33 97 1e 3d
       -0.010883131 -0.011383503 0.09115436 0.038718414
000130 53 b9 2b bd f0 71 18 be ca 9d b3 bc 8f cb e2 bc
       -0.041924786 -0.14887214 -0.021925826 -0.027684955
000140 78 cd f1 3d 1e 4f 25 bd 53 15 ab bc a4 37 00 3e
       0.11806768 -0.040358655 -0.020884192 0.12521225
000150 81 75 16 bc 3c 2b 1c 3e 29 f1 82 bb 35 d8 82 bc
       -0.009183289 0.15250868 -0.0039960337 -0.015972236
000160 82 c6 98 bd b6 f6 21 3e 60 d5 23 3d 89 06 40 be
       -0.07459737 0.15816769 0.039998412 -0.18752493
000170 47 0c e3 3d df 77 90 3d a1 4a d1 3d 8c d4 2b bd
       0.11086326 0.070541136 0.102193125 -0.041950747
000180 0c 8c 9b bd de 75 e5 bb 41 6b 12 3e bd 55 42 3d
       -0.07595071 -0.0070025763 0.14298727 0.047445048
000190 54 d3 9d 3d 4b 00 83 3d ef f0 f1 bd a2 ca 89 bc
       0.07706323 0.0639654 -0.118135326 -0.016820256
0001a0 c5 a3 09 be 19 06 cb 3d f6 e8 0c 3e 58 26 a8 bb
       -0.1344138 0.099132724 0.13760743 -0.005131524
0001b0 45 ad 2e 3c aa 44 14 3e 79 46 a7 3d 18 c8 93 bd
       0.010661428 0.14479318 0.081677385 -0.07215899
0001c0 50 51 a4 bd 8d 4f 74 bd 44 e6 77 3d 48 df 0e be
       -0.08023322 -0.059646178 0.060522333 -0.13952363
0001d0 96 d4 b1 3d 84 c6 02 bd 48 f2 a7 3d 55 57 f0 bd
       0.08683126 -0.0319276 0.08200508 -0.11735407
0001e0 28 06 b9 bd 60 3f d4 bd 42 66 51 bd ca 17 be 3d
       -0.09034377 -0.1036365 -0.05112291 0.09281881
0001f0 83 b3 f4 bd 0e 35 ab bd 48 5d d8 3d c1 c3 13 3e
       -0.11948302 -0.08359729 0.10564667 0.14430143
000200 d7 52 1d 3d 29 fd 2b 3e 08 b9 20 be 59 3e 4d bd
       0.03840908 0.16795792 -0.15695584 -0.050108287
000210 69 5e 97 bd 86 7d 11 3e 3e 1b 8b 3d c9 1b 29 bd
       -0.07391054 0.1420804 0.067923054 -0.041286264
000220 aa da 00 3e 62 62 b1 3d 1f 59 4e bd f2 12 fe bd
       0.12583414 0.08661343 -0.05037796 -0.12405957
000230 18 bb e6 3d 74 91 19 3d 00 29 0d 3e df 65 ca 3d
       0.11266154 0.03749223 0.13785172 0.098827116
000240 41 b4 fe bd b7 4d f4 bb 4e 0b 05 be b2 94 01 3e
       -0.124367245 -0.0074555534 -0.12992594 0.12654379
000250 9c a7 f9 3b ab fb ec bd f2 ba b3 3d 60 6a 1f 3c
       0.0076188575 -0.11571439 0.08775891 0.009729952
000260 4e 9b ce bc 7c a1 2c ba 5d 3f 31 bd 2f d4 80 3d
       -0.02522054 -0.00065853423 -0.04327332 0.06290471
000270 4e b5 f6 3d de 4f cd bd c2 9c 1f 3e f7 ae 60 3d
       0.120463 -0.10024999 0.15587142 0.05485436
000280 12 8e c5 bd af 91 80 3d 45 e8 19 bd 69 94 99 bd
       -0.096462384 0.06277787 -0.037575025 -0.0749901
000290 78 c4 b6 bd 09 81 0d 3e 9c 83 4d bd 78 a5 aa bd
       -0.08924192 0.13818754 -0.05017434 -0.08332342
0002a0 da 07 a8 bc 03 60 1f be 17 32 ab bd 59 1e 90 3d
       -0.020511556 -0.1556397 -0.08359163 0.07037038
0002b0 a8 13 0e bd 3c 33 9b bd d9 86 88 3d de 7c 21 3e
       -0.034686714 -0.075781316 0.06666345 0.1577029
0002c0 7e 75 24 3d 87 01 d1 bd 69 c2 5f bb 11 4e 87 3d
       0.04015111 -0.102053694 -0.0034142977 0.06606687
0002d0 8a d8 0d 3e c2 2c ba bd e0 44 d9 3d f6 47 f1 3d
       0.13852134 -0.09090568 0.1060884 0.117813036
0002e0 30 2f 01 be 7b 60 88 3d a8 c1 24 3e b5 cd 1a 3d
       -0.12615657 0.06659027 0.16089499 0.037793834
0002f0 67 26 bf 3d ed c4 58 3c 0b 64 e4 3c 9f cb cf bb
       0.093334965 0.0132305445 0.027879735 -0.006341412
000300 ce b3 19 be 26 21 9b bd 00 59 96 3d e4 46 fe bd
       -0.15009996 -0.07574682 0.07341194 -0.12415865
000310 b4 f3 bd bd f6 65 87 bc e0 93 90 bc 6d 09 4d 3d
       -0.09274998 -0.016528111 -0.017648637 0.050057817
000320 e2 96 9e bd 3a 0c 76 3d 58 8b 86 3d 5e a7 77 3d
       -0.07743622 0.060070254 0.065695465 0.06046235
000330 15 e7 10 3d f8 dc cc 3d f3 15 93 3d ac 25 8a 3d
       0.035376627 0.10003084 0.07181921 0.067454666
000340 51 03 a8 3d 69 43 be bc f1 f5 87 3c 40 79 f7 3d
       0.082037576 -0.023225503 0.016596766 0.120836735
000350 bc 8e fe 3d 20 e6 59 3d e6 16 45 b9 a4 c3 80 3c
       0.12429568 0.05319798 -0.00018795914 0.015718289
000360 05 56 87 bd 72 d4 a2 bc d9 0d a8 bc 13 c8 27 3e
       -0.06608204 -0.019876692 -0.020514416 0.16384916
000370 70 0b 24 be 9a f5 30 3d fd 44 f0 3d 84 a2 cb 3d
       -0.16019988 0.043202974 0.117319085 0.09943107
000380 bf 89 e0 3d 59 cf 8d 3d 27 93 24 bc f1 7b 29 3c
       0.10963773 0.06924314 -0.0100448495 0.010344491
000390 ed ac d4 3d 69 dc 07 3e 44 c9 f3 3d 22 95 7d 3d
       0.103845455 0.13267674 0.11903623 0.061909802
0003a0 56 7d 4d bd 78 29 b2 3d fe c4 df 3d e9 11 bf bd
       -0.050168358 0.08699316 0.10926245 -0.09329588
0003b0 ff 6e b2 bd 00 78 2b be e0 e6 3d bd 47 ca 17 3e
       -0.08712577 -0.16744995 -0.046362758 0.14823256
0003c0 3f 3c 1d bd 90 13 e8 3d 45 19 c4 bd 5a 74 88 3d
       -0.038387533 0.11331856 -0.09575132 0.06662817
0003d0 8a 47 7b 3d 9b ce 2e 3e cd f2 41 bd e4 3b 82 bd
       0.06134752 0.17071001 -0.047350693 -0.063590795
0003e0 80 72 a5 bc f8 70 62 bd 41 cc a1 3d 8d fb 45 3c
       -0.0201962 -0.055283517 0.079002865 0.0120839
0003f0 b9 3d 86 bc dd 9b 9c 3d 5c d7 d7 bd 0f 8a b8 3d
       -0.016386854 0.07646916 -0.105391234 0.090107076

linear3.bias f4 [128]
000000 66 70 0e 3d d2 53 23 bc e2 52 1e be 36 f9 ca 3c
       0.03477516 -0.009968715 -0.15461305 0.024777036
000010 6c 96 72 bd 35 27 c7 3c cc c2 b2 3d 50 11 44 3e
       -0.059225485 0.024310688 0.08728561 0.19147229
000020 c1 26 01 3e de 8a 99 3d 63 3c a5 bd 88 25 88 3d
       0.1261244 0.0749719 -0.080681585 0.066477835
000030 0f e4 06 3e 5b aa 62 bd 51 6e 4b bd c7 36 95 3d
       0.13172935 -0.055338245 -0.049665753 0.072858386
000040 76 69 93 3c 8a ba 0f be f5 f7 93 3d 0c d9 07 bd
       0.017994624 -0.14036003 0.072250284 -0.033165976
000050 80 82 d2 bd 4a 90 06 3d 2b db bd bd ea 80 3d bd
       -0.10278797 0.03285245 -0.092703186 -0.04626552
000060 cf 6c 09 3e 58 21 d2 3d 4c af 0d 3d 28 68 92 3d
       0.13420413 0.10260266 0.034591004 0.071487725
000070 aa 20 58 3b 49 ac a6 3c 5f 6b 94 bd 3d 2c 02 bd
       0.0032978454 0.020345824 -0.07247042 -0.03178047
000080 c1 8d 17 3c fb ac 12 be ca dc e9 3d 7a f1 10 bd
       0.009250105 -0.143238 0.11419065 -0.03538654
000090 c9 4c 22 be 64 4f 54 bd c2 1f 3d 3d ef 94 ce bd
       -0.15849604 -0.051833525 0.046172865 -0.100870006
0000a0 85 46 e1 bd 93 d7 bf bb ba b4 27 be 97 96 0c be
       -0.10999779 -0.005854556 -0.16377535 -0.1372932
0000b0 4f dc 33 bd 6b f9 90 3d b8 1e 95 bc 87 af e1 3d
       -0.043911275 0.07078823 -0.018203124 0.11019807
0000c0 d5 b5 1c bd 51 32 28 be 07 82 4a bc b2 bf 3c bd
       -0.038259346 -0.16425444 -0.0123601025 -0.046081252
0000d0 e9 2e b0 bd 87 1d 40 bd 49 7f 22 3d 34 36 34 3d
       -0.086026974 -0.04690316 0.03967217 0.043997005
0000e0 6a 90 39 3d f3 7b 5c bd c5 bc fa 3d 84 b3 89 bd
       0.04530374 -0.053829145 0.12243036 -0.06723693
0000f0 ff 6f 49 bd 64 6b b2 bc 72 c5 60 bd 08 fb 04 bd
       -0.049179073 -0.021779723 -0.0548758 -0.032465965
000100 b0 30 8b bd fc bf 23 3d 4e 52 5f bd fd 16 14 3e
       -0.06796396 0.039978012 -0.05452185 0.14461894
000110 90 93 1a be b4 a9 1b 3e fc 4a f0 3d 65 b6 f0 3d
       -0.15095353 0.15201455 0.11733052 0.11753539
000120 1d a8 a9 3c 37 1c 88 bd 7d 10 03 bd 6f 96 98 3d
       0.020710045 -0.066460066 -0.031998146 0.07450568
000130 41 30 ad bd 46 94 e5 3d 71 b5 db bd 23 84 b6 bc
       -0.08456469 0.112099215 -0.107279666 -0.022279805
000140 cf d0 c5 bc 86 23 8e 3d 00 55 b9 3d 5c 70 1c ba
       -0.02414742 0.06940369 0.090494156 -0.00059676706
000150 e4 ed bd bd 70 11 6c bd e0 96 5a bd 9e f7 3a 3d
       -0.0927389 -0.057633817 -0.05336654 0.045646302
000160 a8 cc 92 3c 43 d2 10 3e af 1f 1f be 55 77 ec bd
       0.017919853 0.14142708 -0.1553943 -0.11546198
000170 dd 03 c5 ba eb 7b 8f 3d cd 88 64 3d 2a a7 68 3c
       -0.0015031059 0.07006057 0.055794526 0.014200011
000180 ce f0 8e bb f4 3b d3 3c 76 3a 1c bd 17 7f 18 3e
       -0.0043622022 0.025785424 -0.03814169 0.14892231
000190 a2 1c d4 3d e8 4b 2c 3b 99 4a ea 3d f6 67 0a bc
       0.10357024 0.002629036 0.114400096 -0.008447638
0001a0 a2 80 00 be 8c e1 ef 3a 24 f9 09 bd 03 23 75 bc
       -0.1254907 0.0018301471 -0.033684865 -0.014961961
0001b0 a8 5a 70 3e 13 bd 9e 3d 11 d1 fc bc 96 ab d1 3c
       0.23472083 0.07750907 -0.03086141 0.025594514
0001c0 74 8e 61 3d de 34 9d 3d dd ed b4 bd be 02 b2 bd
       0.055067495 0.07676099 -0.08834431 -0.08691929
0001d0 12 9d cb 3d d5 b4 13 3e 25 d2 c0 3d 78 66 e9 bd
       0.09942068 0.1442445 0.09415082 -0.113964975
0001e0 8c e4 ad bd e5 18 5b bd b8 d8 3c 3d 5c e6 e1 bc
       -0.084908575 -0.05349054 0.046105117 -0.027575664
0001f0 05 93 5e bc b7 1d fe 3d 7f ee 65 3d de ad 92 bd
       -0.013584857 0.124080114 0.05613565 -0.07162069

linear4.weight f4 [10, 128]
000000 09 4d e9 be 2c cb b9 bd 7b a3 27 be 90 2a 3a 3b
       -0.45566586 -0.09071955 -0.16370957 0.0028406717
000010 cc 25 ac bd de 17 e3 3d 51 2e 17 3e c2 1a 92 3c
       -0.08405647 0.11088537 0.14763762 0.017835025
000020 b9 02 50 3c ff 69 0c 3e a1 d0 3d be 47 92 a1 bd
       0.012695962 0.1371231 -0.18536617 -0.07889228
000030 64 37 0d be f7 30 a3 3e 8b e8 6e be ef 5e 5a 3e
       -0.13790661 0.31873295 -0.23330896 0.21325277
000040 ad 9a 8e 3e b3 7a 26 be 86 90 b1 3d d8 ef 56 3e
       0.27852383 -0.16257744 0.08670144 0.2098993
000050 60 0a f2 3d cc 60 23 be fb ce 8e bd ea 2f dc 3d
       0.11818385 -0.15954894 -0.06973072 0.107513264
000060 ba 60 03 be b4 14 32 be 0b 8c 38 3d 2a 86 9d 3d
       -0.12829867 -0.1739071 0.04505543 0.076916054
000070 b4 cc 5b be 36 a9 a1 3d d8 7b 21 be cf 44 fb 3d
       -0.21464807 0.078936026 -0.15769899 0.122689836
000080 50 61 40 3e a7 92 31 be 3f 35 07 3e e7 13 10 3d
       0.18787122 -0.173411 0.13203906 0.03517523
000090 eb 55 be be d3 da 25 be e8 6a 3a be 4c 29 3b 3e
       -0.37174925 -0.16196756 -0.18204844 0.18277472
0000a0 67 59 80 3d fe 68 3d 3e 53 9a 88 be 0d 97 15 be
       0.06267052 0.18497083 -0.2668024 -0.14608403
0000b0 b6 2e b1 be 55 e7 0e 3c 06 da 5b 3e 19 71 f0 bc
       -0.3460595 0.008722146 0.21469888 -0.029350804
0000c0 0c 79 d7 3d db fe 11 bc 88 a9 55 bd b2 ec 37 be
       0.10521135 -0.00891086 -0.05216363 -0.17961386
0000d0 8b 72 77 3c f8 77 c6 3d a9 ca c2 3d af 83 28 3e
       0.015102993 0.09690851 0.095113106 0.16456483
0000e0 a2 9a 2b bb d0 e5 97 3e 14 92 62 3e b0 46 3f be
       -0.0026184698 0.2966752 0.22126037 -0.18679309
0000f0 a9 d4 36 be a3 49 7e 3d 6b 6e 8c 3d 9f c0 86 be
       -0.17854561 0.062081944 0.06856998 -0.26318833
000100 0e 1d b7 3d 5e 26 bf 3b 62 ee ac bd 7b 2d b0 3d
       0.089410886 0.005833431 -0.084439054 0.08602425
000110 48 d9 58 3d d4 2c dc 3d 27 47 8a bc 75 b4 0b be
       0.05294159 0.10750738 -0.016879631 -0.13643058
000120 41 94 2d bd 62 f6 6c 3e e3 7b 88 bd 96 0c 22 be
       -0.042377714 0.23140863 -0.066642545 -0.15825114
000130 02 4d a4 3e c2 be 11 bd d7 91 21 be aa ad 03 be
       0.32090002 -0.03558231 -0.1577829 -0.12859216
000140 24 78 09 be 38 2c 39 3e 0f a3 01 3d db 72 5b 3e
       -0.13424736 0.18083274 0.031649645 0.21430533
000150 b6 a3 24 be 7a 11 72 3e 10 cf 84 3c 6d 62 04 3d
       -0.16078076 0.2363948 0.016212016 0.03232043
000160 41 21 34 3e ea af ff bc 30 46 80 bc d1 ce 24 bd
       0.1759081 -0.031211812 -0.015658468 -0.040236298
000170 2e 96 9e 3d fa b6 9c 3d 31 5b 37 3e e4 ba 49 3e
       0.07743488 0.076520875 0.1790588 0.197002
000180 00 70 61 3e a9 5a 99 bd 3b bb 13 3e 75 b2 ed bd
       0.22015381 -0.07487995 0.14426892 -0.116063036
000190 25 69 de 3d 2b 11 44 3e a2 1b 68 be 3c dc 8c 3d
       0.108598985 0.19147174 -0.22666791 0.06877944
0001a0 c8 4b e0 3d ac 0e c5 bc 44 13 18 bc 70 90 9b 3d
       0.10951954 -0.024054848 -0.009281937 0.07595909
0001b0 54 70 f3 3d 4b 74 b9 bd 46 06 84 be 05 ea 23 be
       0.11886659 -0.09055384 -0.25786036 -0.1600724
0001c0 91 31 48 3e ea 79 09 be d6 1f 29 be 79 d0 96 be
       0.19550158 -0.13425413 -0.1651605 -0.29455927
0001d0 99 ff 99 3e 28 98 2d 3e 11 f5 2a 3e 58 7f 97 be
       0.30077818 0.16952574 0.16695048 -0.29589343
0001e0 9d ee 1f bd 6c a4 fc bd 38 b1 74 3e c8 85 23 be
       -0.03904592 -0.123360485 0.23895729 -0.15969002
0001f0 5a 46 ad 3d c2 a1 8c 3c a2 ad 65 3d c4 df 89 be
       0.08460684 0.017166976 0.056073792 -0.26928532
000200 2d f6 38 3e 4a b5 26 3e 26 c1 dc bd eb b2 0e 3e
       0.18062659 0.16280094 -0.10779028 0.1393544
000210 a2 56 28 bd 53 85 9c 3e 3d 6c 67 bd 4b 44 3c 3e
       -0.041098244 0.30570468 -0.05649971 0.18385427
000220 57 9d f5 3d 9a 88 63 be 8c 6b 06 be 50 cb 78 be
       0.11992901 -0.22220078 -0.13126963 -0.24296308
000230 03 4e 6f 3e e7 07 64 3d a4 9c 5b 3e 09 b3 01 3e
       0.23369603 0.0556716 0.21446472 0.12665953
000240 af e1 e0 bd b3 9f 09 be ec 47 89 3d 8a ba 5e be
       -0.10980546 -0.13439827 0.06703171 -0.21750847
000250 a7 4b 00 3e b8 40 04 3e 44 4f 6d be 30 27 91 be
       0.12528859 0.12915313 -0.23174769 -0.2835021
000260 7e bf 66 be 6e be 75 be eb 43 19 3e 7e cb 80 3e
       -0.22533986 -0.23998424 0.14967315 0.25155252
000270 87 55 65 3c 9b 64 68 be 77 a2 46 3e ce a5 15 be
       0.013997442 -0.22694628 0.19397913 -0.1461403
000280 6e 1b 0c 3d 8b 62 61 be b3 35 d7 bc b3 70 30 bd
       0.034205846 -0.22010247 -0.026270723 -0.04307623
000290 ea 32 d8 3d f3 7e 4b be 76 17 10 be 54 02 4c be
       0.10556586 -0.19872646 -0.1407145 -0.19922763
0002a0 82 aa d0 3c 69 e1 19 be 4e 9e 6e be 52 22 7b be
       0.02547193 -0.15027393 -0.23302576 -0.24524811
0002b0 c7 e7 b3 3e b9 bc 16 3c 6a dc 51 bd 68 00 a7 be
       0.3513777 0.009200268 -0.051235594 -0.32617497
0002c0 00 bc ae 3e e7 8e eb 3d fb 4b 19 3e ee 49 11 3e
       0.34127808 0.11501866 0.1497039 0.14188358
0002d0 c0 39 48 bc c7 34 4d 3e f7 c8 66 3e 12 70 be 3d
       -0.0122208 0.20039664 0.225376 0.092987195
0002e0 85 20 48 bd 2a 81 70 be 37 6c 58 3d d9 7a a1 3d
       -0.048859138 -0.23486772 0.052837577 0.078847595
0002f0 c2 49 a6 3d ec 8e be 3d 3a f0 5c be 2c c1 20 3e
       0.08119537 0.09304604 -0.21576014 0.15698689
000300 70 a7 6e 3e c4 29 3e be 58 74 99 bd be bc a7 3e
       0.2330606 -0.1857062 -0.07492894 0.32761186
000310 9f 8e c9 3a 36 ce 54 3e 46 3b f2 3d f1 fb 77 3d
       0.0015377587 0.20781788 0.11827712 0.060543004
000320 01 02 52 be 78 c2 03 3e 60 2a c6 bd b0 27 3e bd
       -0.20508577 0.12867153 -0.09676051 -0.046424568
000330 ef 40 8b be b0 00 57 3e 7c 85 3c 3e bd d5 1a be
       -0.27197978 0.20996356 0.18410295 -0.15120597
000340 56 32 42 bb b1 fb ad bd 65 d4 2e be d1 3d 80 3d
       -0.0029632053 -0.08495272 -0.1707321 0.062617905
000350 fe 6a a1 3e cd 77 4e 3d c8 83 66 be 75 86 61 3e
       0.3152694 0.05040722 -0.22511208 0.22023948
000360 0a 36 3d 3e b8 c2 31 3e 00 c3 23 be 30 0c a4 3e
       0.18477646 0.17359436 -0.15992355 0.32040548
000370 33 ec 98 3e 91 e0 f0 3d fc 1d 12 3b 92 76 66 3c
       0.29867706 0.11761583 0.0022295704 0.014066355
000380 81 23 29 be e9 a2 96 3e 68 b6 6e 3e 5d 7b 3f be
       -0.1651745 0.29421166 0.2331177 -0.18699403
000390 27 44 c1 bd 30 70 7b 3e 00 05 3a 3d 49 59 76 be
       -0.09436827 0.24554515 0.045414925 -0.24057497
0003a0 77 10 4f 3d b2 1a 0c bd d7 1c ff bd a7 2e 8f 3e
       0.05055281 -0.034205146 -0.12456673 0.2796528
0003b0 c8 d2 05 3e 24 19 0a 3e 3f 4b 80 3e 86 3b e6 bd
       0.13068688 0.13486153 0.25057408 -0.11241822
0003c0 a0 5e aa 3e 77 ae 35 be 0d 24 12 3e 89 28 46 3d
       0.33275318 -0.17742334 0.14271565 0.0483785
0003d0 b4 51 45 be a6 fd 8a bc c3 e2 3e 3e 2d c9 95 bd
       -0.19269449 -0.016966652 0.1864119 -0.07313762
0003e0 e4 45 84 bd 9d 28 a2 3e 49 bf 6f 3e 54 41 85 3d
       -0.06458643 0.3167161 0.23412813 0.06506601
0003f0 cc 14 96 3e 5a 94 56 be 64 fc 84 be d0 07 e0 3d
       0.29312742 -0.20955029 -0.2597381 0.1093899

linear4.bias f4 [10]
000000 c8 15 dd 3d 97 e9 e3 bd 34 90 ca 3c 64 77 4e 3e
       0.1079517 -0.11128538 0.024726965 0.20162731
000010 df 97 03 be b4 a7 3c 3e f8 e3 2b 3a 40 7c f9 bd
       -0.12850903 0.18423349 0.00065571023 -0.12181902
000020 e6 d0 23 bd ce 96 96 be
       -0.039994143 -0.2941193
