lab_3/logs_task_3b/epoch=72-step=5840.ckpt (torch, 152651 bytes, 8 tensors)

linear1.weight f4 [32, 784]
000000 c0 aa 0f 3d 62 15 87 3c 6a 3e 63 3c 07 2e c5 bb
       0.03507495 0.016489688 0.013869861 -0.00601745
000010 7b 7f 8b bc 0e 96 77 3b 9b 85 35 3d ed bf 20 3d
       -0.01702856 0.0037778649 0.04431687 0.039245535
000020 1e 46 0e 3e b2 4d 00 3e 54 e7 65 bd 2a fd 42 be
       0.13893935 0.12529638 -0.056128815 -0.19041887
000030 af 4c 30 bc 9e 47 71 3e e7 7c db 3d 0f 1c 0c bd
       -0.01076047 0.23562476 0.107171826 -0.034206446
000040 d6 4b 4a be ef 85 4c be 5e df af 3c 17 14 b7 b9
       -0.19755492 -0.19972967 0.021468814 -0.00034919448
000050 c6 8c 70 3c 33 2e 04 bc bb 60 71 3d 83 80 0e bc
       0.0146820005 -0.008067655 0.05893014 -0.008697632
000060 f5 c1 93 3c 3e 07 1b bc a6 50 0c 3a ae bd 33 bc
       0.018036822 -0.009462176 0.0005352594 -0.010970516
000070 11 11 6d 3c 20 4f 6a bc e4 55 fa 3c 33 93 91 bc
       0.014469401 -0.014301091 0.030558534 -0.017770385
000080 2d 84 75 3d 5a 16 23 3e 51 ce 44 3e d0 b1 1d 3e
       0.059940506 0.15926495 0.19219328 0.15399861
000090 a8 64 89 bd 8a 38 86 bc b6 f0 ae bc f0 0d 0e be
       -0.06708652 -0.016384382 -0.021355014 -0.13872504
0000a0 28 e1 4d 3d 85 88 55 bd ec 5d 96 bd 27 ad a1 bd
       0.050263554 -0.05213215 -0.07342133 -0.07894354
0000b0 4c bb b3 bd 08 33 2f 3d 3d 06 bc bd 2e 5f 49 be
       -0.087759584 0.042773277 -0.09180877 -0.19665214
0000c0 59 5d 62 3c 69 a5 af 3d d0 76 af 3d 05 19 cd 3c
       0.013816201 0.08576471 0.085675836 0.025036344
0000d0 b2 29 04 3d 2a aa 80 3c ae ba a7 3c cc 53 e7 3c
       0.032266326 0.01570614 0.020474758 0.0282382
0000e0 69 e8 e4 bc 7c 91 04 3d a4 9a 11 3d 61 98 31 3d
       -0.027942853 0.032365307 0.035547867 0.04335821
0000f0 b2 09 b6 3d 78 31 e1 3d 99 18 71 3c 19 d0 ef 3c
       0.08888568 0.109957635 0.014715337 0.029274033
000100 62 ff 79 bd fb ec 9a bd 7e 10 fb 3d 32 a3 30 be
       -0.061034568 -0.07564732 0.12259005 -0.17249754
000110 65 68 c7 bd 0b da 0f be 27 ca 9a bd 9b bd 3c 3d
       -0.097367086 -0.1404802 -0.07558089 0.04607926
000120 62 a2 b6 bd 7a fc a7 bc 6e d2 0d bc ae f6 f7 3c
       -0.08917691 -0.020506132 -0.008656127 0.030268993
000130 de 74 05 3d c8 5a 0f bd 4b 25 5f 3d 49 4d 52 bd
       0.032582156 -0.034998685 0.054478925 -0.051343236
000140 cc 63 2c 3c c8 53 26 bc fe cc 04 3c 76 ba e3 3c
       0.01052184 -0.010151811 0.008105515 0.027798872
000150 af 40 e9 bb 0a d3 0c 3d a2 34 2c bc e5 69 02 bd
       -0.0071183066 0.03438095 -0.0105105955 -0.03183927
000160 ac 3c 6d 3c 9a 11 6e 3c 76 aa 59 bd c1 43 18 3e
       0.014479797 0.014530564 -0.05314108 0.14869596
000170 20 27 4d 3c 16 dd 58 bd a2 46 d2 3b 30 8b 9d bc
       0.012521535 -0.05294522 0.0064171115 -0.019231409
000180 dc 77 18 be 98 cb 15 3d e2 ef 71 3c 96 68 d7 bd
       -0.14889473 0.036571115 0.014766665 -0.10517995
000190 05 1f 54 be 5b 0e ac 3d 00 24 97 3d ae a5 54 3d
       -0.20714958 0.084011756 0.07379913 0.051915817
0001a0 2d ab a5 3c 17 90 cf 3d 79 a3 97 3c f8 df 24 bd
       0.020223225 0.10134905 0.018510567 -0.040252656
0001b0 ff 5e b6 bc d8 c7 9f bc 56 86 bf 3c cd 3b be 3c
       -0.022262095 -0.019504473 0.023379486 0.023221875
0001c0 31 e6 ff 3c 37 ec 0c bc bb 8b 1b bd c5 4b 9c bc
       0.031237694 -0.00860124 -0.037975054 -0.019079098
0001d0 c4 17 3d 3c 0b 56 e7 bd ac c0 59 3c 9e fd 81 3d
       0.011541311 -0.11295708 0.013290565 0.06347202
0001e0 14 f7 61 3d 47 0f 8a 3d a9 a8 8c 3d 6b 9b f2 3d
       0.055167273 0.06741195 0.06868107 0.1184605
0001f0 c9 df 87 bd 09 33 8a 3d 75 e6 8f 3d 8d 33 0b bd
       -0.066344805 0.067480154 0.07026378 -0.03398471
000200 9b cc b5 bb 2d f9 15 bc c3 7d 08 3e 67 00 de 3d
       -0.0055480725 -0.009153646 0.13329224 0.108399205
000210 b1 51 2b bd b8 56 cf 3d 24 43 72 bd 41 e2 5d 3b
       -0.041825954 0.10123962 -0.05914606 0.0033856782
000220 55 b4 b4 bd 56 95 c3 bc 86 67 da bc d4 a7 a1 bc
       -0.08823458 -0.02387492 -0.026660692 -0.019733347
000230 d4 f5 05 bd d4 ac ca bc 31 ff 56 bd c0 87 3b 3a
       -0.032705143 -0.024740614 -0.052489463 0.0007153712
000240 99 66 41 bd 23 40 d2 bd 82 d7 fd 3d 78 60 96 bd
       -0.047216985 -0.10266139 0.123946205 -0.07342619
000250 10 e1 48 3d 2c 96 3f bd 07 11 0e be b7 f0 23 be
       0.04904276 -0.046774074 -0.13873683 -0.16009794
000260 71 44 82 bd df c6 77 bc 63 ed fa bb 86 7f fe bc
       -0.063607104 -0.015123098 -0.0076576932 -0.031066667
000270 d0 24 fc bd 41 54 3b bc cf 65 80 bd 60 17 b9 3d
       -0.12311709 -0.011433662 -0.062694184 0.090376616
000280 74 cb 7b 3c 75 cb 3c 3d cd c2 8d bc 25 f5 70 bd
       0.015368331 0.04609247 -0.017304802 -0.058827538
000290 d9 72 43 bd 71 2c 90 bd c5 99 21 3c bd 53 23 bc
       -0.04771695 -0.070397265 0.009863322 -0.009968695
0002a0 f8 06 12 bc f3 50 04 bd 05 7d 6d bd e1 86 41 bd
       -0.008912794 -0.03230376 -0.057980556 -0.04724777
0002b0 bf e4 2b bd d0 cf ea bc 0e 00 96 3d 83 b0 81 3c
       -0.041966196 -0.028663546 0.07324229 0.015831238
0002c0 74 fd c1 bd 33 55 0f be 52 58 2f bd a2 e5 1f bb
       -0.094721705 -0.13997345 -0.04280884 -0.0024398346
0002d0 ca 0e c4 bc 16 65 f3 bc d6 b3 30 3b da c4 67 3c
       -0.023932833 -0.029711287 0.002696266 0.014146054
0002e0 97 b4 ca bd 75 de cf 3d 94 c1 a2 3c 9d 4e 05 3d
       -0.09897726 0.10149852 0.019867696 0.032545675
0002f0 70 6b d0 3c cd c6 1d 3c 20 84 c3 bb ef cf aa bd
       0.025441855 0.009629917 -0.0059666783 -0.083404414
000300 f2 4a b9 bd 21 8b 8b bd 7a 56 f9 bc 4c 84 1a bd
       -0.09047498 -0.06813646 -0.030436743 -0.037723824
000310 fc e0 ee bc ec ce 88 bc ac fb 30 bd ef 27 bf bd
       -0.029160015 -0.01670023 -0.043208763 -0.093337886
000320 db f3 b8 ba d6 38 e7 bd 17 a8 d9 3c 73 38 95 bc
       -0.001411076 -0.112901375 0.02656941 -0.018215394
000330 82 dc 08 bd c0 4e 1e be aa a1 0d bc db 3a da bc
       -0.033413418 -0.15459728 -0.008644501 -0.026639393
000340 4b b5 06 be 5d 4f 0f bd 1e 53 df 3b ec 09 cf bc
       -0.13155095 -0.034987796 0.0068153283 -0.025273286
000350 aa f5 27 bd e5 6a a4 3d 62 70 87 bd 24 a7 9d 3d
       -0.041005768 0.08028201 -0.06613232 0.07697895
000360 87 98 1a 3d 22 6b c6 3c 07 d5 f0 bd 1a bd 38 3c
       0.037743118 0.024221007 -0.11759382 0.011275554
000370 9a 39 13 bd 09 4c b3 bd f3 21 f9 bc f3 9f ad bc
       -0.035943605 -0.08754737 -0.030411696 -0.021194434
000380 fb 5a 2c bd d5 4e 11 bc 10 11 1a bd cf 1d de 3b
       -0.042078953 -0.008868893 -0.03761393 0.006778456
000390 ac bb 6d 3d 1b e6 da bd 64 37 fa bd f7 cc b4 3c
       0.058040306 -0.106884204 -0.12217596 0.022070391
0003a0 4b 0c 2f 3e 20 c0 d8 3d 8c 50 2b 3d fc 08 7d 3c
       0.17094533 0.1058352 0.041824862 0.015444037
0003b0 70 42 8f bd 33 a0 85 bc 3d d5 5b bd e8 93 00 be
       -0.06995094 -0.01631174 -0.053670157 -0.12556422
0003c0 a9 98 02 bd 6d e6 84 3d a2 3a 9e 3d 5e c8 39 3d
       -0.03188387 0.06489263 0.07726027 0.0453571
0003d0 67 bb 05 3e 17 6e 63 bd 51 ad 58 bd c4 8d 1c bc
       0.1305977 -0.05552491 -0.052899662 -0.009555284
0003e0 14 9b a6 3c b6 f3 f2 bb f0 44 a6 bc ce db cb 3c
       0.020337619 -0.0074143065 -0.020296544 0.024885084
0003f0 d1 c4 00 3c e1 d8 59 bd b8 e4 25 bc d6 c4 37 3d
       0.007859425 -0.053185347 -0.010125332 0.04486545

linear1.bias f4 [32]
000000 9f bb 35 bd b0 b4 7e be 0e 78 e2 3e 02 48 bb 3d
       -0.044368383 -0.24873614 0.4423222 0.09144594
000010 f9 82 17 3e 4d 24 f0 bd 5e 57 1e 3e 0b 1e 3c be
       0.14796056 -0.11725674 0.15463015 -0.18370835
000020 87 29 15 3e 28 a8 cc bd c0 1d e6 be 16 51 26 be
       0.14566623 -0.09993011 -0.44944572 -0.1624187
000030 8f 55 21 be 1d 92 cc 3e ab cf 80 3d 8c ce 8e 3d
       -0.15755294 0.39955226 0.062896095 0.069729894
000040 a5 de b2 3e 4f d1 26 be fa 6f 65 3d e2 b4 5f 3d
       0.3493549 -0.16290782 0.056014992 0.054615863
000050 09 52 85 be d9 8c 79 3e 3c 64 ce 3d 6c 6d 1f bd
       -0.2603915 0.24370135 0.10077712 -0.038922712
000060 cf 0f 1e be 49 59 62 bd 46 32 49 3d 48 a8 8b bd
       -0.15435718 -0.05526093 0.04912021 -0.068192065
000070 95 c1 a6 be ea 95 ed 3c a5 16 b6 3d 00 7b 2d bd
       -0.32569566 0.029002149 0.08891038 -0.04235363

linear2.weight f4 [64, 32]
000000 c2 9f 32 3e 42 fa 52 3e f9 eb 05 be bc da 18 bc
       0.17443755 0.20603278 -0.13078298 -0.009329494
000010 30 22 9d be b4 81 d9 3d 1b ba 08 3e cf 83 13 bd
       -0.30690145 0.10620442 0.13352244 -0.036014374
000020 a6 c7 aa 3e fb 16 3c be 08 ff 25 bd 06 cc 2f be
       0.33355445 -0.18368141 -0.04052642 -0.17167673
000030 30 27 26 bd 14 a1 8e be 57 3a 56 3e 1d 6f 44 3e
       -0.040564716 -0.27857268 0.20920692 0.19183011
000040 b4 76 2f be 39 1f 7a be d3 a7 10 3e 49 49 83 3d
       -0.17135125 -0.24425973 0.1412652 0.064104624
000050 98 e4 a7 be 0c a0 f1 3d c5 93 e4 bc 21 1c 71 3e
       -0.3279159 0.11798105 -0.027902493 0.23545887
000060 3d 1f 6f bb 35 95 44 be ee 38 f2 3d 01 f7 24 be
       -0.0036487125 -0.19197543 0.11827265 -0.1610985
000070 78 ec 20 bd 7d 8c 61 3e 24 cd db bd e0 b2 1e 3e
       -0.039288014 0.22026248 -0.10732487 0.15497923
000080 e7 55 89 be 0e 6f 43 3e fe 52 6b 3b 26 1c 33 3e
       -0.2682335 0.19085333 0.0035907621 0.17491207
000090 56 77 35 3e 15 5d 91 3d ff eb 0a be 90 5d 82 3d
       0.17721304 0.07097832 -0.13566588 0.06365502
0000a0 f2 74 ab 3d 11 89 12 3e 36 90 f4 3d b4 1c a5 bd
       0.08371915 0.14310099 0.119415686 -0.08062115
0000b0 bf 92 55 bc 84 42 13 3d f2 e7 0f be 73 c0 a4 3d
       -0.013035475 0.035952106 -0.14053324 0.08044519
0000c0 f2 04 b0 3d 47 2f 75 bc 74 a7 3e 3e 2a 02 75 be
       0.08594693 -0.014964885 0.18618566 -0.23926607
0000d0 ac bd 05 3e b8 72 15 be 02 16 4d bd b2 40 4a be
       0.13060635 -0.14594543 -0.050069816 -0.19751242
0000e0 49 f4 56 bd ee ea 25 be 5d 98 c1 3b d2 f2 c2 bd
       -0.052479062 -0.162029 0.0059080557 -0.095189705
0000f0 0e a4 17 3c 25 5e e6 bd 60 11 33 3d 14 86 a8 bc
       0.009255422 -0.112484254 0.043717742 -0.020571746
000100 38 67 c9 bc cf 46 51 3e cf a5 97 3e 32 65 00 3d
       -0.024585351 0.20437168 0.2961869 0.031346507
000110 a2 81 00 be 21 41 19 3d 5c 27 14 ba 81 7d 0c 3e
       -0.12549451 0.037415627 -0.0005651617 0.13719751
000120 f9 96 b5 3d 1d 66 7d 3b c2 0c c6 bc 52 91 0c be
       0.088666864 0.00386656 -0.024176005 -0.1372731
000130 69 a2 25 3e 8d de 02 bd 78 3c 54 be 88 9f 8b bd
       0.16175236 -0.031950522 -0.20726192 -0.068175375
000140 63 f4 09 3d a2 9c f2 3c 6a 74 8a 3e 33 2c 0f bc
       0.03368033 0.029615704 0.27041942 -0.008738565
000150 cd dd 67 3e ce 2f 7f 3d 52 b6 d7 bd 5a ac d5 3c
       0.22643204 0.06230145 -0.10532822 0.02608316
000160 89 f2 41 be 76 e0 86 be 37 99 56 be 2c d9 67 3e
       -0.18940176 -0.26343125 -0.20956884 0.22641438
000170 6f 29 8c bc 75 10 62 3e 5d ab ae bd ec b8 4f 3d
       -0.0171096 0.2207659 -0.08528779 0.050713465
000180 07 a2 2b 3e 10 ea 0a 3e de 05 e4 bd 13 32 94 be
       0.16761027 0.1356585 -0.111339316 -0.28944454
000190 f1 16 5f 3e 3b 8b 96 bd 4c 6e f3 3b 97 7f 91 3d
       0.21786095 -0.07350775 0.00742892 0.07104414
0001a0 87 1d 1a be a1 c2 09 3c 1f 67 28 3e c3 96 ec 3d
       -0.15050326 0.00840822 0.16445588 0.11552193
0001b0 89 db b2 3e dd ba ad bd ae 47 c0 ba 5f 6a 2a bd
       0.34933117 -0.08482907 -0.00146698 -0.04160535
0001c0 78 4f 4f 3e a9 05 f3 bd 69 28 06 3e c8 a4 05 bd
       0.20245159 -0.11866314 0.13101353 -0.03262785
0001d0 b8 fd a9 3d ee ff 3b be 81 33 01 3b 6a b0 21 be
       0.08300346 -0.18359348 0.0019714537 -0.15789953
0001e0 84 bf 69 3e f6 68 69 3e 11 57 e8 3d 50 7e b4 bc
       0.22826964 0.22793946 0.113447316 -0.022032887
0001f0 ca ec 35 be 03 9c b2 be 29 0d a8 bd ab ae 02 be
       -0.17766109 -0.34884652 -0.08205635 -0.12761943
000200 13 fe 9a 3e 80 3f ea 3c 01 6e 8c bc 42 9e b2 bc
       0.30271968 0.028594732 -0.017142298 -0.021803979
000210 32 be 79 be 5e 21 9b 3d 27 4d 00 3e a8 ca 95 bd
       -0.2438896 0.07574724 0.12529431 -0.07314044
000220 f4 dd 0e 3e ba d9 98 bc de d3 b4 3d 09 0b cd 3d
       0.13951856 -0.018658508 0.08829473 0.100118704
000230 be ee ee bd 31 30 30 be da d4 42 3e cc 37 45 3e
       -0.1166663 -0.17205884 0.19026509 0.19259566
000240 59 3a ca bd a6 48 53 3e 2c 91 01 bd ea 1b 92 3e
       -0.0987441 0.20633182 -0.031632587 0.28536922
000250 92 59 38 bd a9 13 00 be 5a 52 08 3d 8a ac 62 3c
       -0.045007296 -0.125075 0.03328166 0.013835082
000260 ed 10 8e 3d 03 96 30 3e 68 e8 41 3e 48 3c 3f 3e
       0.06936822 0.17244725 0.18936312 0.18675339
000270 48 e5 8e 3e 67 67 87 3c a5 bf a5 bd 5e d2 51 3e
       0.27909303 0.016528798 -0.08093194 0.20490405
000280 bd 87 55 bd 44 e7 4b 3d bb f6 12 3e 5e 34 6d 3e
       -0.052131403 0.0497811 0.14351933 0.23164508
000290 0b 8b 3c 3e 41 0a 9a 3d 8d 34 30 3e ca 03 9d 3e
       0.18412416 0.07521487 0.17207547 0.30666953
0002a0 09 22 3a be b6 90 ee bd b2 36 59 be fa 48 cf bd
       -0.18177046 -0.11648695 -0.21212271 -0.10121341
0002b0 c0 2c 22 be a0 ea d0 3d 94 4f b9 bd f6 65 09 be
       -0.15837383 0.10201001 -0.090483814 -0.13417801
0002c0 2e 93 7c 3d de d0 77 3d 99 e3 8b 3e b7 6b fe bd
       0.0616638 0.060501926 0.2732208 -0.12422889
0002d0 05 0f 08 3e 2c e6 24 be 33 14 fa bd e9 16 06 be
       0.1328698 -0.16103429 -0.12210884 -0.13094677
0002e0 2b d9 35 3d 64 29 b3 ba 6a ef d9 be c3 33 39 3e
       0.04439656 -0.0013668952 -0.4256547 0.18086152
0002f0 f2 6f 96 bd 6d 9e 16 3e 76 4e 35 be 70 8d 64 3e
       -0.073455706 0.14708872 -0.17705712 0.22319579
000300 30 9a c9 bd 85 e6 7e 3e 38 aa cf 3a 33 ce 6b be
       -0.09843862 0.24892624 0.0015843576 -0.23027878
000310 f4 26 93 bc 11 cb 7f 3e db b7 b1 bd 3f b5 a1 3d
       -0.01796291 0.24979807 -0.08677646 0.07895898
000320 f3 96 8e be d0 e8 db 3d fd df 3c 3d 15 d6 62 bd
       -0.2784954 0.10737765 0.04611205 -0.055379946
000330 29 07 4d 3e 2c 4b 33 3e 34 01 26 be 69 14 98 bd
       0.20022263 0.17509145 -0.16211396 -0.07425768
000340 01 69 fc bd d8 0b ae 3d 88 e4 a7 be b9 f4 22 be
       -0.123247154 0.08498353 -0.32791543 -0.15913667
000350 79 f0 85 3e 02 6d 81 3c aa 88 be bd a0 43 66 bc
       0.2616003 0.01579905 -0.0930341 -0.014054209
000360 90 89 35 3d 76 e8 07 3e f4 1c 6a be f1 d6 37 be
       0.044320643 0.1327227 -0.22862607 -0.17953087
000370 e5 0d 82 3e f6 13 54 be 01 91 e1 bd e0 df 02 be
       0.25401226 -0.2071074 -0.110139854 -0.12780714
000380 cd bf 9f 3d 18 36 80 3e f8 7c 15 be 62 ae 87 39
       0.07800255 0.2504127 -0.14598453 0.00025879132
000390 3c 28 c8 3e d6 96 84 be 3b ba d8 bd 38 f2 d6 3e
       0.39093196 -0.2589633 -0.10582396 0.41981673
0003a0 5f 0f bc 3c 3f 0b 03 3e 28 7f 5c be d7 e0 be bc
       0.022956548 0.12797259 -0.21532881 -0.023300571
0003b0 85 a7 60 bd 22 86 3c bd bf 15 48 be f8 14 43 be
       -0.05484726 -0.046026357 -0.19539545 -0.19050968
0003c0 ad 44 e4 3d 9f 43 96 3d dd c4 49 3e f8 35 2f 3e
       0.11145911 0.073371165 0.19704004 0.17110431
0003d0 8c 04 5c 3e 96 f0 84 be 20 e2 e0 3d cd d5 6b 3e
       0.2148611 -0.25964803 0.1098063 0.23030777
0003e0 b7 28 19 be c4 80 25 3e 80 a6 a5 be ce 7c 05 3e
       -0.14956938 0.16162401 -0.32353592 0.1303589
0003f0 2a f2 e1 bd 51 c6 07 3e fb 01 01 be fd 94 db 3c
       -0.11032517 0.13259245 -0.12598412 0.026804442

linear2.bias f4 [64]
000000 2f ff 7a bd 22 02 19 bb 04 d1 70 3d aa fb 17 be
       -0.06127852 -0.0023347219 0.058793083 -0.14842096
000010 63 da 9c 3d bc 48 18 be 0a 2c b5 bd fb c8 7c bd
       0.076588415 -0.14871496 -0.088462904 -0.061715107
000020 25 74 e3 bd 25 a7 fa 3d 58 66 c7 3d 22 e3 6e 3d
       -0.11106137 0.122389115 0.097363174 0.05832208
000030 22 fe 34 be 84 ba 24 3b 79 bf 45 be a0 d8 ff bc
       -0.17675069 0.0025135586 -0.19311322 -0.031231225
000040 9b 26 0d bd 4e ec 27 be 52 72 a9 bc be 09 5d 3e
       -0.034460645 -0.16398737 -0.020684395 0.21585748
000050 db d3 08 bc c0 14 f0 bc 31 b0 46 3e c3 81 51 3d
       -0.0083512915 -0.02930677 0.19403149 0.05114914
000060 01 c2 ae 3e c6 df 9e 3d 04 0a ab 3c 47 f9 7e bd
       0.34132388 0.07757525 0.0208788 -0.06224945
000070 d2 67 8b 3d 02 20 0f be d6 39 cb 3d 52 54 14 be
       0.068069115 -0.13977054 0.09923141 -0.1448529
000080 bc 82 db 3c da c5 a1 bd b0 04 d2 3b 1b fb 4f 3b
       0.026795737 -0.07899065 0.00640925 0.0031735364
000090 2a 94 15 be 85 bc f6 3d e1 b7 8f 3d bb 13 6e 3e
       -0.14607301 0.12047676 0.07017494 0.23249714
0000a0 69 ba 85 be 7c 02 62 bd 2d 92 30 be 9d 82 a6 be
       -0.26118782 -0.05517815 -0.17243262 -0.32521525
0000b0 eb 2a 87 bd 18 64 ac bc b4 fb 47 bc f1 03 ab 3e
       -0.06599983 -0.021043822 -0.012206007 0.33401445
0000c0 cf ae a7 bd 1a c8 33 3d 97 b8 3a 3e 66 64 4b be
       -0.08187639 0.043892004 0.18234478 -0.19862518
0000d0 19 ec c0 bd 3f e5 43 be ab 08 d6 bc 0d f0 31 bd
       -0.09420032 -0.19130419 -0.02612718 -0.04344182
0000e0 cc 4d 87 3d 1c 03 4c be d2 8b 61 be bd 12 52 3e
       0.066066355 -0.19923061 -0.22025993 0.2051496
0000f0 3e d4 b5 bd dc e6 00 3e 8d 8f 9c 3d 73 2c 3b be
       -0.088783726 0.12588066 0.07644568 -0.18278675

linear3.weight f4 [128, 64]
000000 05 6a 4b 3e 15 12 23 bd c5 08 52 3d ab 10 5f be
       0.19864662 -0.039812166 0.051277895 -0.21783702
000010 f3 79 e1 3c 54 9a 49 3d bb 44 d5 bc 0a 6e 9d bc
       0.02752397 0.049219444 -0.02603375 -0.01921751
000020 c6 95 57 be 6d 7d 3b 3e 88 2a fb 3d f9 42 73 bd
       -0.21053228 0.18309565 0.122639716 -0.059390042
000030 e2 28 35 3d b3 fa 81 bc c2 b1 89 bd e2 e4 e8 bd
       0.044228442 -0.015866613 -0.06723358 -0.11371781
000040 90 ec ca bc a8 2c 26 bc 7b 99 37 be 9d da 26 be
       -0.024771005 -0.010142483 -0.17929642 -0.16294332
000050 ca 1f d0 3d cc 39 88 3c 81 b2 f7 3d ab a1 6f 3d
       0.10162313 0.016629122 0.12094594 0.058503788
000060 cf 72 2e be 11 72 b3 3b 9a 1e 28 3d 4a 64 1b be
       -0.17035984 0.0054762443 0.04104481 -0.15174976
000070 7d c3 bb 3d fc 75 04 be ed c2 21 be 65 1f b9 bd
       0.09168146 -0.12935632 -0.15797015 -0.09039191
000080 d1 75 ba bd 2c 83 54 be b5 0f 9e 3d 48 94 91 bd
       -0.09104503 -0.20753163 0.0771784 -0.071083605
000090 93 5c 19 be 1a 6d 1c 3c 35 a3 23 3e 56 53 a4 3d
       -0.1497672 0.009547496 0.15980227 0.080237076
0000a0 74 5b 07 3e 2b 28 12 bd ac 17 05 3e 41 b6 ca bd
       0.1321848 -0.03568284 0.12997311 -0.098980434
0000b0 30 59 d9 bd c4 1f 07 3b 5a 3c 0e be 33 83 4f 3d
       -0.10612714 0.00206183 -0.1389021 0.05066223
0000c0 27 91 28 3e 59 ff cb bc 5d 86 26 be 86 6f 4f bd
       0.16461621 -0.024902033 -0.16262193 -0.050643466
0000d0 ef ca 02 3d e2 81 a7 bd fb 6c 9f 3d 47 1c d3 3d
       0.031931814 -0.0817907 0.07784458 0.10308128
0000e0 db 6d 36 3d 27 31 4e be f8 7c c8 3d 85 41 87 3d
       0.04453836 -0.20135938 0.09789461 0.06604294
0000f0 ae 98 20 3e 6d 89 89 b9 7e ec 11 3e e1 a9 aa bd
       0.15683243 -0.00026233066 0.14250371 -0.08333183
000100 4e fa 83 bd 39 79 66 3c c3 8c af 3d 01 0f 8b 3d
       -0.06444226 0.014066988 0.0857177 0.06789971
000110 27 19 74 3d c9 7c 89 bd 93 cc 83 bd 37 ce 19 3e
       0.0595943 -0.06713254 -0.06435504 0.15020071
000120 ff df 8e bd 93 e1 76 bd fd 7e bd bd 7a 61 31 3d
       -0.069763176 -0.060273718 -0.09252737 0.04330585
000130 ba 48 90 bd 9b a5 68 3d 99 aa 2b 3e 24 04 6a bd
       -0.070451215 0.05679856 0.16764297 -0.057132855
000140 00 f6 5d 3c 14 e6 b7 3d b6 b3 67 3d 74 c2 10 be
       0.0135474205 0.08979431 0.05656787 -0.14136678
000150 94 36 06 be e4 9e 01 be 2e 98 11 be a0 d7 38 3c
       -0.13106757 -0.12658268 -0.14218208 0.011281878
000160 83 71 b6 3d 78 54 c1 3c 11 a9 e2 3d dc 89 f7 3c
       0.089083694 0.023599848 0.11067403 0.030217104
000170 a0 87 c8 bd a9 2f 1f 3e f0 28 85 bd 6a 67 3e bd
       -0.097914934 0.15545525 -0.06501949 -0.046485342
000180 5a 87 1b bd 9d c7 5c 3d 9b d0 14 3e 85 e5 51 3d
       -0.03797088 0.053901304 0.14532702 0.051244278
000190 4e f5 01 bd 75 25 b0 3c 8c ba 2e 3e e2 1f b8 3d
       -0.03172808 0.021502236 0.1706335 0.08990456
0001a0 c2 e8 a3 bd 98 63 dc bd 0e 57 ad 3d 0a 3e 1b be
       -0.080033794 -0.107611835 0.0846387 -0.15160385
0001b0 ff a7 89 bd d7 a7 73 3d c1 af fa 3c 59 85 ae 3b
       -0.06721496 0.059486236 0.030601384 0.005325955
0001c0 44 82 4b bc b3 e1 7f bd dc 01 8f bd fe ac 9a bd
       -0.012421194 -0.062471103 -0.069827765 -0.07552527
0001d0 41 6c 93 bb f7 0d f7 3d 21 af 28 3b 55 ed fb bb
       -0.004498989 0.120632105 0.002573915 -0.0076882043
0001e0 0d f1 0d 3e 82 b0 2e 3c 09 83 b2 3d 93 a1 da 3b
       0.13861485 0.0106622 0.08716399 0.006672093
0001f0 ec d0 21 bd bb 6a cb 3c 25 d7 46 3d ed a2 61 3d
       -0.039505884 0.024831166 0.04854502 0.05508702
000200 4e 1b 5c be 8a 08 f9 3d 28 30 97 3c 84 e6 0a 3e
       -0.21494791 0.12159832 0.01845558 0.13564497
000210 66 0e e0 bd c0 dd 7d bd 8c fb 83 3c f1 03 8e 3d
       -0.10940246 -0.061979055 0.016111158 0.069343455
000220 67 8e 8b 3d a8 77 27 3d a2 1c bd 3d 3d 09 2e 3d
       0.068142705 0.040885597 0.09233977 0.04248928
000230 31 fd 6e bd 34 36 c2 bd cf d4 a5 3d 3c 45 16 3e
       -0.05834693 -0.09482995 0.08097231 0.14674848
000240 fe 3d 51 3d 8a ae 33 3c 37 f1 b6 3d 5d 35 9b 3d
       0.05108451 0.010966906 0.08932727 0.075785376
000250 81 ad 67 bd 00 0d 22 be 74 0e 17 be e8 c7 1a 3c
       -0.05656195 -0.15825272 -0.14751607 0.009447075
000260 b6 1e d7 bc db 9f fe 3d f7 32 0b bc 23 9f 80 3d
       -0.026259761 0.12432834 -0.008496038 0.06280353
000270 53 5c 0f be de cd a7 bb d6 77 de bb a4 63 e5 bc
       -0.14000063 -0.005120977 -0.006789188 -0.028001614
000280 ee a7 b4 3d 53 da de bc 91 02 61 bd 38 9c 03 3e
       0.088210925 -0.027203714 -0.05493409 0.12852561
000290 20 5a 54 3e b5 21 c5 3d e7 8d 02 3e ab 74 8a bd
       0.20737505 0.0962557 0.12749444 -0.06760534
0002a0 2e 37 0c be 0c d0 a6 bd ac 1b 87 3d 33 78 dc 3c
       -0.13692924 -0.081451505 0.06597075 0.026912784
0002b0 80 a0 4e 3c 53 e5 e7 3d 75 34 3d 3e 56 ea b3 3a
       0.012611508 0.11323037 0.18477042 0.0013726454
0002c0 e3 ab 3f be ca fd 36 3e 64 a5 1e 3e 84 1d e5 3d
       -0.18717913 0.1787025 0.15492779 0.1118727
0002d0 ce f6 b3 3d 87 1e ce bd 44 35 2f bd ec 3b 24 be
       0.08787309 -0.100644164 -0.042775407 -0.16038483
0002e0 3c 25 c4 3d 14 0c 9c 3a 32 d2 38 be aa 37 37 3d
       0.095774144 0.0011905455 -0.18048933 0.04473082
0002f0 d4 83 51 bd 2e a6 a9 bb 21 59 ef bb 9d 1f 13 bd
       -0.05115111 -0.005177281 -0.007304326 -0.03591882
000300 ed 8f ce 3d e9 a4 f2 3d 62 89 e4 bd ec 8c 16 3e
       0.100860454 0.1184786 -0.11159016 0.14702195
000310 85 eb 2b 3d f0 12 96 bd dd e1 46 3d f5 7e 23 bc
       0.041972656 -0.07327831 0.048555244 -0.009978999
000320 54 da 03 bc 72 bd 1e be 68 cc 4a 3e 3d a3 e0 bd
       -0.008047659 -0.15501955 0.19804537 -0.10968635
000330 41 07 e6 bd 36 34 fb bd 7f db 36 be 86 f7 e8 bd
       -0.11231852 -0.12265818 -0.17857169 -0.11375336
000340 8a 5b 6c 3d 13 69 23 be ca cd 64 bd 64 ed 4a 3e
       0.057704486 -0.15958051 -0.05586032 0.1981712
000350 b0 89 fa 3d b6 37 1e 3d 6a 3d e9 3b 72 22 f2 bd
       0.12233293 0.03862735 0.007117917 -0.11822976
000360 d9 dc 58 3d 6a a2 92 3d 1e c9 5b bd a4 bb 2a 3e
       0.05294499 0.07159884 -0.053658597 0.16673142
000370 85 be 5a 3e 79 43 20 be ce 50 f0 bb 29 32 2b 3e
       0.2136174 -0.15650739 -0.0073338514 0.16718353
000380 74 c7 0e 3e d6 d4 a8 bc 63 68 25 bd ac 3c d5 bd
       0.13943273 -0.0206093 -0.040382754 -0.10411963
000390 12 e2 a5 3c 35 d6 e5 bd 3c d1 29 be eb b9 0d 3d
       0.0202494 -0.112224974 -0.16583723 0.034601133
0003a0 eb 50 af bd d6 ae 2a be 79 b0 48 3d 67 c3 d4 3c
       -0.08560356 -0.16668257 0.048996422 0.025972081
0003b0 63 7a 8b 3d cc d5 c9 bd 69 cf 90 3b ac 5f 52 3e
       0.06810453 -0.09855232 0.0044192565 0.20544308
0003c0 eb f8 51 3d b6 12 d3 3d ff 15 9b 3d e1 45 ad 3d
       0.051262777 0.10306303 0.07572555 0.08460594
0003d0 3b c3 a2 3d 94 55 a1 3d 03 89 52 3c 51 5c 66 bc
       0.079473935 0.07877651 0.012850049 -0.014060096
0003e0 bc 2e 27 3e 4f a2 95 3d 83 c6 d6 3c a7 65 68 3d
       0.16326421 0.073063485 0.026217705 0.05673757
0003f0 58 66 97 3b aa fa a4 bd 04 9c 9f 3c 10 9f 6e bd
       0.0046203546 -0.08055623 0.019483574 -0.058257163

linear3.bias f4 [128]
000000 20 9e 45 bd d0 81 88 3c b0 f3 63 3d ab 6d f7 3d
       -0.048246503 0.016663462 0.05565232 0.120814644
000010 1a 57 e6 bd 3c 52 9a bb 8d c6 18 3e 7d 29 ec 3d
       -0.11247082 -0.00470951 0.14919491 0.11531351
000020 c7 15 01 3e ee f8 1e 3e 58 82 88 bc 49 07 c5 3b
       0.12605964 0.15524647 -0.016663715 0.0060128313
000030 50 e6 0f 3e b9 e6 a4 3c 79 8c 02 3e 96 2f e5 3d
       0.14052701 0.020129548 0.12748899 0.11190717
000040 35 42 09 bd 78 26 35 bc 4f 57 16 3d e8 4b 7d bd
       -0.033510406 -0.011056535 0.036704358 -0.061839968
000050 a9 cf 09 3c e4 7e 68 3d 53 fb 3e be 6e 64 3a 3d
       0.008411326 0.056761637 -0.1865056 0.045505933
000060 3d 74 04 be 10 1b 5a bd 55 fc f6 3d 47 9e 6f bd
       -0.12934966 -0.053248465 0.12059847 -0.058500554
000070 ea 95 0e 3b d2 c1 88 3c 48 4a 93 3d bb 4f ae bc
       0.0021756836 0.016693983 0.071919024 -0.021278253
000080 e6 db 72 3d 1c 95 6a 3d cd 33 11 3a 7b 89 ef bd
       0.059291743 0.057271108 0.000553903 -0.11696144
000090 16 f5 9c bc 78 f0 b6 3c 15 e2 7e 3c 81 3b a3 bd
       -0.019159835 0.022331461 0.015556832 -0.07970334
0000a0 b5 17 3d 3d ab 08 04 3b 9b 47 e9 bc 2f 5a 75 3d
       0.046165187 0.0020146768 -0.028476527 0.05990046
0000b0 1b e0 26 3e 94 a5 da 3d 73 f6 8f 3b e4 ee 57 bd
       0.16296427 0.10676113 0.0043933927 -0.05271806
0000c0 09 e5 07 3e 93 5b e0 3d 89 55 30 3d d5 3f 29 bd
       0.13270964 0.109549664 0.043050323 -0.04132064
0000d0 7d c9 fe 3d cb 08 80 bb 71 d9 49 bd 0d 5f 59 3c
       0.124407746 -0.003907298 -0.049279634 0.013267291
0000e0 a2 99 35 bd b9 85 10 be 5f 76 98 3d 3a e2 07 3c
       -0.04433597 -0.14113511 0.074444525 0.008293683
0000f0 0d bf f4 3c 5d 69 18 3e be ed f8 3d 46 dc ff 3d
       0.029876256 0.14883943 0.12154721 0.12493186
000100 b7 42 2a 3e b8 84 ed bc f5 31 0b bc 84 f1 ba bc
       0.16627012 -0.02899395 -0.008495797 -0.022820242
000110 55 b5 fd bc 0f a2 eb bc 09 e9 28 be 44 90 ed 3d
       -0.030970255 -0.028763799 -0.16495146 0.11599782
000120 2a 2c 93 bc f8 7d 17 be 46 78 3f bd a8 5e 8e 3c
       -0.017965395 -0.14794147 -0.04674556 0.01737912
000130 2e ad 5a bd 59 48 a7 bd 0e ed d6 bc d7 3e 94 bd
       -0.053387813 -0.08168096 -0.026236083 -0.07238548
000140 d3 8f 15 be f6 a2 18 be 06 38 ae 3d 09 f2 e8 bb
       -0.14605646 -0.14905915 0.085067794 -0.007108931
000150 f3 45 d4 3d c3 15 6f bb 9f fb 12 be c6 33 15 3c
       0.10364904 -0.0036481477 -0.14353798 0.009106582
000160 50 d0 19 bc 08 7a 97 bd 60 eb 6f bd 07 08 53 3d
       -0.0093880445 -0.073963225 -0.05857408 0.051521327
000170 54 7f e7 3d f6 51 9d 3d 81 5a 99 bd 0a d0 df 3d
       0.11303583 0.076816484 -0.074879654 0.10928352
000180 94 de c9 bd 84 8c d1 bd e0 6a f2 bc c7 f3 2c bb
       -0.098569065 -0.10231879 -0.029591978 -0.002639042
000190 4f fa a6 bc 11 5a 0c be f8 75 81 3d b3 2f 9c 3b
       -0.020383028 -0.13706233 0.06321329 0.0047664284
0001a0 43 f1 e9 3d d0 11 9e bd a9 1a 31 3e 41 8c a0 3d
       0.1142297 -0.07718241 0.17295326 0.07839251
0001b0 27 1c 57 3d 3a 42 5e 3d 2f 91 ca bc 3f f9 d6 bb
       0.052517083 0.054262377 -0.024727432 -0.006560474
0001c0 76 db 9c 3d db 2e d0 bd 83 d1 13 3e 28 7f 5a bd
       0.07659046 -0.10165187 0.14435391 -0.053343922
0001d0 08 7f 9d bd 04 80 36 bd da 8e 86 3d 13 29 0c 3e
       -0.07690245 -0.04455568 0.065702155 0.13687544
0001e0 23 85 fa bc 3c 91 37 be 3f 11 1b be ea 8b b6 bd
       -0.030581063 -0.17926496 -0.15143298 -0.08913405
0001f0 23 9d 4c 3d 65 56 56 3c d9 75 54 3e 0c ea be bd
       0.049954545 0.0130821215 0.2074808 -0.09321985

linear4.weight f4 [10, 128]
000000 17 24 92 be 54 fd 3a bc 26 2f aa 3e 64 56 7b 3e
       -0.2854316 -0.011412937 0.33239096 0.24544674
000010 33 c0 32 be 7f 36 7b bd 45 f0 72 3e 1a 0f 67 3e
       -0.1745613 -0.06133127 0.23724468 0.22564355
000020 c7 0f 91 3e 56 60 7a 3e 0c 4f 74 be 03 16 99 3e
       0.2833235 0.24450812 -0.23858279 0.29899606
000030 dd 03 4b be 5e 03 2d be 01 e7 5a 3e 02 fe 5a bd
       -0.19825692 -0.16895816 0.21377183 -0.053464897
000040 84 a8 cd 3b 86 e5 b2 3d d9 27 b9 3d 5c 91 48 3e
       0.006276192 0.08735184 0.090408035 0.195867
000050 ac d9 0a be 73 ef 1c be 8f 3d 6f 3d 34 dd 31 be
       -0.13559598 -0.15325718 0.058408316 -0.17369539
000060 2d a6 4b be 4f e2 19 3e 71 5e 81 3e af ba a4 bd
       -0.1988761 0.15027736 0.25267366 -0.080434196
000070 13 9f 62 be 63 90 2f be b5 4c 31 be 16 af 92 3d
       -0.22130994 -0.17144923 -0.17314418 0.07162301
000080 5d f0 11 3e 36 cc 2f 3e 52 1e 6b 3e 48 84 fa 3d
       0.14251848 0.17167744 0.22960785 0.12232262
000090 f4 e0 7c 3e ee 3e 4c be 85 d5 4e 3c 0e 09 3b 3d
       0.24695188 -0.19945881 0.012624149 0.045662932
0000a0 2a e4 0d be 1d fe 03 3e 21 65 de 3d 6a 24 3e 3e
       -0.13856569 0.12889905 0.108591326 0.18568578
0000b0 de 48 bd 3c 47 34 80 bd 0a 31 d1 bc 14 8e ab 3d
       0.023106035 -0.06259971 -0.025536079 0.083767086
0000c0 a5 b4 7a 3d b0 d5 e3 bd 6d 1a 8f 3d 95 ef 7a be
       0.061207432 -0.11124742 0.06987462 -0.24505456
0000d0 c7 8a d4 3e 2b 48 cc 3c 1e 30 37 be 00 a4 5e be
       0.4151213 0.024936756 -0.17889449 -0.21742249
0000e0 c0 43 fa 3d 1c 5d c2 3d b1 d2 bd 3d 3b 0c 0c 3e
       0.122199535 0.094904155 0.09268702 0.1367654
0000f0 e2 f3 7c 3e 79 5f bc 3e 57 99 75 bc f4 91 46 3d
       0.24702409 0.3679159 -0.014990172 0.048479035
000100 ab a3 4a 3e c3 27 40 be 03 01 94 bd 20 a5 26 be
       0.19788997 -0.18765168 -0.072267555 -0.16273928
000110 d9 37 01 3e 0f 15 18 3d b3 8c 40 be d3 c1 10 bd
       0.1261896 0.037129458 -0.18803672 -0.035341095
000120 30 24 49 3e c9 a2 52 be 2b e8 32 bc 59 1c 22 3e
       0.1964271 -0.2056991 -0.010919611 0.15831126
000130 49 86 7a be 8f 09 9a 3d fa 4b 4a 3b d2 ca 98 bc
       -0.24465288 0.075213544 0.003086804 -0.0186514
000140 3b df 42 be 0a 78 ba be 2f 14 27 3e c1 34 61 3e
       -0.19030468 -0.36419708 0.16316293 0.2199278
000150 6e a3 13 be 6a d5 85 bd 80 72 9e 3d 14 f9 7e 3e
       -0.14417812 -0.06534846 0.07736683 0.24899703
000160 de 65 3a 3d b3 2f 3e be 18 92 bb 3e 54 66 47 3a
       0.045507304 -0.18572883 0.36634898 0.00076064956
000170 bd 64 7d 3e 9c f8 e0 3d a1 ce d5 bd 0b e3 89 3d
       0.2474546 0.109849185 -0.10439802 0.06732758
000180 1a d0 3d be d1 59 a0 be 7e c5 1b be 7c 4d 86 be
       -0.18536416 -0.31318524 -0.15212056 -0.2623099
000190 af 1f a8 be 59 49 e0 bc 0e cd 58 be 91 9a 92 bd
       -0.32836673 -0.027378725 -0.21171972 -0.071583875
0001a0 2d 20 da bd d3 1c 85 bd 16 3b 99 3d 8a 39 88 3d
       -0.10650668 -0.064996384 0.07481973 0.066516
0001b0 5d 3f 51 be 6b bf f0 3d d6 29 8b 3e 88 4d 22 bc
       -0.20434327 0.1175526 0.27180356 -0.00990618
0001c0 83 1f 30 bc 89 f3 52 be 0d 47 4d 3e eb e3 e6 3d
       -0.0107497005 -0.20600714 0.20046635 0.11273941
0001d0 a5 4a 88 be 09 ba 5d bd 60 0b 20 be ed 54 93 3d
       -0.2661945 -0.054132495 -0.15629339 0.07193933
0001e0 2b 43 0f 3e 6a dd b9 be 23 f3 8f bc a7 7e 55 bd
       0.13990466 -0.36301738 -0.017571991 -0.05212274
0001f0 3d 1f 24 3e 4b fd 62 3e 47 48 3e be 3b 22 bf bd
       0.16027541 0.22166936 -0.18582259 -0.09332701
000200 a8 b2 77 be 41 eb 3d 3e 12 f5 e1 3d 5c 1d b7 3d
       -0.24189246 0.18546773 0.110330716 0.08941147
000210 74 d8 a9 3e 2a dc 53 3c ed 8e 49 bd ce e6 2c bd
       0.33172953 0.012930909 -0.04920857 -0.0422123
000220 07 bc 70 bd 49 ad 78 3e 4c 86 c9 3e df bd b6 be
       -0.058773067 0.24284853 0.39360273 -0.35691735
000230 8c 4b fe 3d f7 ef dc 3d 13 c5 40 3e 1f 6b 64 3d
       0.12416753 0.10787957 0.18825178 0.05576622
000240 7f a1 e0 bb c7 19 c7 3d 6a 7c fc 3d cc 9e 87 be
       -0.0068551893 0.097217135 0.123284176 -0.2648834
000250 52 9e 21 be b5 d0 dd 3c d6 76 8e 3d c7 b1 13 bd
       -0.1578305 0.027077058 0.0695626 -0.036058214
000260 8f fb 6c be b9 bd 90 3e 80 f6 f7 bd a4 39 0e 3e
       -0.23142837 0.28269747 -0.12107563 0.13889176
000270 f1 0b 52 be b1 97 db bd e5 bc df 3d a5 ee 21 3e
       -0.20512368 -0.10722292 0.10924701 0.15813692
000280 2d 4d 41 bc 8c 67 05 be 6b c4 3d 3d 71 00 b1 3d
       -0.011798185 -0.13027781 0.046329897 0.08642662
000290 54 9a 9c be ab 66 8c 3e e8 39 f6 bc d0 d9 29 3d
       -0.30586493 0.2742208 -0.030056909 0.041467488
0002a0 8e ac 68 3e 7d 42 57 be 69 44 f3 3d fa 99 25 3d
       0.22722074 -0.21021457 0.118782826 0.040430047
0002b0 1b f7 81 3e 36 bf 00 3e 2c ef 4d 3d 4e 07 5b 3e
       0.2538384 0.12572941 0.05027692 0.21389505
0002c0 3e 31 99 be c7 be 72 3e 71 f0 02 3e 77 9d 8e 3e
       -0.2992038 0.23705588 0.12787034 0.2785451
0002d0 d2 66 2c be 82 2b 17 be 2c 34 82 be e2 2f 87 3e
       -0.16836098 -0.1476269 -0.2543043 0.2640372
0002e0 da 35 69 be 8b ca 58 3e e6 d4 5b 3e 2a cb 50 be
       -0.22774449 0.21171014 0.21467933 -0.20390001
0002f0 14 d3 55 be 05 3d 94 3d d9 97 2d be 4b e4 25 3e
       -0.20881301 0.07238201 -0.16952457 0.16200368
000300 41 b2 86 3e f4 95 02 3e d4 9a fa bd 5f e7 2a 3e
       0.26307872 0.12752515 -0.12236562 0.16689824
000310 74 d0 86 be 03 1e 6b 3d 9f f0 04 3e df 71 70 bd
       -0.26330912 0.05740167 0.12982415 -0.058702346
000320 21 06 ec bd 61 b8 35 3e 9a 88 29 bd d2 97 b5 3d
       -0.115246065 0.17746116 -0.04139004 0.08866848
000330 a2 bd 7f 3d b9 ed 34 3e e3 c6 af be d0 59 93 be
       0.062436707 0.17668809 -0.34331426 -0.2877946
000340 75 b3 80 3e 9b f3 d8 3e d8 83 87 be cf 51 01 be
       0.25136915 0.42373356 -0.26467776 -0.12628864
000350 56 b2 66 be b9 a6 99 3d db e2 c6 bd 2e 88 a6 3d
       -0.22528967 0.07502503 -0.09711238 0.08131443
000360 9e ba 26 be 64 de b2 bd 9f 66 dd bd cb 10 23 3e
       -0.16282126 -0.08733824 -0.10810589 0.15924375
000370 26 a9 4b 3e c8 32 bf 3b 73 1b 99 be 44 68 6d 3d
       0.19888744 0.005834911 -0.29903755 0.057960764
000380 29 89 2c 3e 97 d4 52 bc f5 20 64 3d bf e3 ad be
       0.16849197 -0.012868068 0.055695493 -0.3396282
000390 e3 56 f6 bd 69 46 8a 3e 8e 71 c7 bd 18 f6 2c bd
       -0.12028291 0.27006844 -0.09738456 -0.04222688
0003a0 f9 98 30 3e 57 e5 3b be ca 6c 17 3e e0 b1 9f bd
       0.17245854 -0.18349205 0.14787593 -0.07797599
0003b0 f5 75 d1 3d 7e 43 5d be 3c 2d 67 3e cd 4b 08 be
       0.10227577 -0.21607777 0.2257585 -0.13310166
0003c0 73 6a 9f 3e 5b a2 5b be 99 c4 9d bc 5c b1 4a 3e
       0.31135902 -0.21448652 -0.019258784 0.1979422
0003d0 6b a5 99 bc a1 a8 6f 3e f5 3e 9d 3c 93 c3 99 be
       -0.018755635 0.2340417 0.01919506 -0.30032024
0003e0 95 f9 92 be 7a 69 8e 3e 1f cc 82 be ec d6 ab bd
       -0.2870604 0.27814847 -0.25546357 -0.083906025
0003f0 09 1e 81 3e 8f 21 59 3e a3 11 fb 3c 43 28 28 bc
       0.25218228 0.21204208 0.030648058 -0.010263505

linear4.bias f4 [10]
000000 db a1 38 3e 6d 59 c6 bc 90 de a4 bc b9 2d 83 bd
       0.18030493 -0.024212563 -0.020125657 -0.06405205
000010 d0 6e d7 bd d6 a4 82 3e 1c c5 e1 3d ee 01 05 be
       -0.10519183 0.25516385 0.11023924 -0.12989017
000020 6e cf 8a 3c 17 3d 8b be
       0.016944613 -0.27195045
