lab_3/logs_task1_Adam/lightning_logs/version_2/checkpoints/epoch=19-step=37500.ckpt (torch, 8446 bytes, 9 tensors)

linear1.weight f4 [64, 1]
000000 e2 3f 8a ab cc 23 fd ac 91 99 a2 b3 b2 54 be bf
       -9.823221e-13 -7.1946667e-12 -7.5716464e-08 -1.4869597
000010 38 19 86 9b 4f dd 00 32 47 6e e2 33 8b 7e 2d b4
       -2.2184738e-22 7.5009e-09 1.05440044e-07 -1.6157917e-07
000020 d0 83 0e 2a 8c 2a 56 b2 41 8b d3 b9 eb 21 16 2f
       1.2657865e-13 -1.24661135e-08 -0.00040348808 1.365447e-10
000030 b0 dc 2c ba 77 86 ef 2f 1a 65 db af 0c 91 89 bf
       -0.00065941643 4.356939e-10 -3.9907705e-10 -1.074739
000040 ed 9d 89 ac d4 67 76 b1 b4 a8 c0 b1 fc c3 9e ab
       -3.9113075e-12 -3.585673e-09 -5.6071148e-09 -1.1280972e-12
000050 78 9d 48 ac cc 79 c5 9e ae 1a 93 bf 6c 92 73 3f
       -2.8509122e-12 -2.090856e-20 -1.1492517 0.951453
000060 66 29 31 bb 3d b5 22 ae fc fe 8e bf fa 0f f9 b0
       -0.0027032732 -3.6995507e-11 -1.1171565 -1.8121675e-09
000070 1b 67 16 3a 4e bc 98 3f a0 ac ae 32 4e 08 05 30
       0.000573741 1.1932466 2.0334767e-08 4.839692e-10
000080 23 ac 22 af cd 4c 88 26 8e 94 e2 2b 30 e1 57 3f
       -1.479497e-10 9.457713e-16 1.6099498e-12 0.84327984
000090 54 62 a2 ae ea 87 9d b1 03 df bc ac 81 f1 56 bf
       -7.384374e-11 -4.584753e-09 -5.3680406e-12 -0.83962256
0000a0 14 fd b6 2e 65 12 a0 bf c7 ee 8e 3f 09 6d 41 af
       8.3213575e-11 -1.2505614 1.1166619 -1.7591985e-10
0000b0 7a 12 a2 bf be 24 21 bc 99 63 f3 be c8 61 6a b6
       -1.2661889 -0.00983542 -0.47536924 -3.4925633e-06
0000c0 20 8e 36 2e d1 63 59 a4 0b 1c ec 3b d0 d4 0a bf
       4.150824e-11 -4.7138922e-17 0.0072054914 -0.54230976
0000d0 fd f1 b2 a2 90 77 4d 28 8b ed ec b4 ce d2 84 30
       -4.850321e-18 1.1405712e-14 -4.413126e-07 9.664178e-10
0000e0 b4 2c 2f 31 e9 24 53 35 02 71 d3 39 b8 c5 fb a9
       2.5491262e-09 7.8657337e-07 0.00040329254 -1.1180938e-13
0000f0 68 b5 a1 bf 78 8b fc b3 b5 da ba b9 bd 02 aa bb
       -1.2633486 -1.1760034e-07 -0.00035639634 -0.0051883147

linear1.bias f4 [64]
000000 a7 05 ad ad b1 fe 75 ad ab 44 a7 35 5e 0e 9e 3f
       -1.9670333e-11 -1.39831905e-11 1.2462455e-06 1.2348135
000010 41 bf cf 9d 1e 5e 10 b3 e8 39 b0 b3 ff 7a f4 34
       -5.4990196e-21 -3.361321e-08 -8.206172e-08 4.5538033e-07
000020 10 76 59 ab 07 b7 29 34 49 41 87 39 1c e4 da 2f
       -7.725773e-13 1.5805936e-07 0.00025797848 3.981605e-10
000030 f0 34 b9 b8 08 1b a8 af c3 46 9f b2 08 61 73 40
       -8.831348e-05 -3.057823e-10 -1.8542215e-08 3.8027973
000040 4f 2f 49 2e 1e 33 8e 32 76 14 20 33 d0 a5 4a ae
       4.5744127e-11 1.6554221e-08 3.7271512e-08 -4.6076754e-11
000050 f0 b3 f6 b0 4c 95 04 a1 3c 03 dc be a9 fd 47 c0
       -1.7949997e-09 -4.492093e-19 -0.42971218 -3.1248572
000060 ff 08 13 3b 36 00 6f ae 5c 73 22 bf 9d b9 80 b1
       0.0022435782 -5.4342496e-11 -0.63457274 -3.746392e-09
000070 86 0b eb b9 81 64 44 c0 41 7f 5c b6 7f 81 00 b1
       -0.00044831279 -3.0686343 -3.2856626e-06 -1.8700061e-09
000080 b7 2c 36 b0 45 72 c1 a7 69 25 5d 2e e8 64 aa c0
       -6.627476e-10 -5.3692152e-15 5.028281e-11 -5.3248177
000090 11 2d 40 30 34 48 13 b3 67 52 2c ae 72 af aa c0
       6.9913236e-10 -3.4291773e-08 -3.918146e-11 -5.3339167
0000a0 63 c2 9f b1 8c a4 57 c0 62 6c 3a 3e 2d 13 02 af
       -4.6496083e-09 -3.3694181 0.18205407 -1.1830244e-10
0000b0 52 c6 43 c0 50 3a 4f 3c d2 36 8d c0 2f 2c 05 36
       -3.0589795 0.01264818 -4.412942 1.9844263e-06
0000c0 fb 59 c4 31 d6 54 e2 25 80 9f fa 3b cd 41 ac 40
       5.7145804e-09 3.9262238e-16 0.0076484084 5.3830323
0000d0 e3 4c 2a 24 b3 d9 63 2a bc 9e 51 35 76 63 61 b1
       3.6928e-17 2.023718e-13 7.8089556e-07 -3.2798346e-09
0000e0 c0 95 3d b2 b8 cf 37 36 d8 b0 b6 3b 96 62 2d 2a
       -1.1035297e-08 2.7390033e-06 0.0055752806 1.539969e-13
0000f0 6c 7d 99 c0 f9 3c 02 35 0c 12 89 39 7f a8 3a be
       -4.7965603 4.85175e-07 0.00026144122 -0.18228339

linear2.weight f4 [1, 64]
000000 06 92 c1 ab 3f f3 a9 ac 0e 70 f7 b4 b0 aa 00 be
       -1.3754004e-12 -4.8302746e-12 -4.6088866e-07 -0.12565112
000010 cc 42 0c 9c a6 e1 2c 32 54 a8 c1 33 78 5d 1d b4
       -4.6408447e-22 1.0063024e-08 9.0178816e-08 -1.4655768e-07
000020 60 85 4d 2a 5c 04 0d b3 55 82 c0 b9 1e ff 3e 2e
       1.8253931e-13 -3.2833086e-08 -0.000367182 4.3427588e-11
000030 3d c4 f1 b9 2c 22 e0 2e b6 47 81 af ed ea 80 3e
       -0.0004611331 1.0192411e-10 -2.3515917e-10 0.25179234
000040 c0 f8 0f ad a0 41 b7 b1 8d 6b a0 b2 e2 88 33 ac
       -8.1838425e-12 -5.3334617e-09 -1.867536e-08 -2.5513415e-12
000050 f9 98 2c b0 a3 b7 15 9f b7 3f 11 be 71 e7 b8 bd
       -6.279062e-10 -3.1703878e-20 -0.14184462 -0.09028519
000060 72 b5 5f b9 52 56 be ac 25 9a 91 bd 60 e3 83 af
       -0.00021334531 -5.4097083e-12 -0.07109479 -2.399032e-10
000070 5f bc 16 39 07 af 1b be ab 1b b7 b2 a3 b7 0a 30
       0.00014375288 -0.15203486 -2.1316586e-08 5.046507e-10
000080 95 a9 4d af 8b a2 88 26 6e 53 de 2c f8 d5 0c 3f
       -1.8704889e-10 9.480953e-16 6.318882e-12 0.5501399
000090 74 3d e5 ad 22 65 de b1 32 81 00 ad 85 64 14 bf
       -2.6061577e-11 -6.472548e-09 -7.304645e-12 -0.5796588
0000a0 08 a9 dd 2e 45 bd 15 3e 7a e5 1c 3e bd 44 69 ae
       1.00799424e-10 0.14622982 0.15321913 -5.3039118e-11
0000b0 4d 7c ec 3d 5b c9 c6 bb 7e 80 0c 3f 74 da 65 b6
       0.11547146 -0.006066484 0.54883564 -3.4250816e-06
0000c0 f0 b6 6f ae c4 1d 6f a4 76 6a 89 3b 8b e9 2c 3f
       -5.450479e-11 -5.1850076e-17 0.0041935993 0.6754386
0000d0 a6 b9 d3 a2 32 b9 dd a8 a6 ff a3 b4 38 c2 dd 2e
       -5.7388228e-18 -2.4616245e-14 -3.0547125e-07 1.00844166e-10
0000e0 ca 5d 79 31 42 9e 4b 35 f1 37 11 3b b8 83 49 a9
       3.6287582e-09 7.585369e-07 0.0022158588 -4.4745213e-14
0000f0 a5 1b 64 3e c3 28 16 b4 12 4d 82 b9 a0 dd 89 39
       0.2227617 -1.3984668e-07 -0.00024852954 0.000262958

exp_avg f4 [64, 1]
000000 56 f2 e5 29 50 ae 4f 2a 7f b8 73 b2 7b 19 0a 38
       1.02116815e-13 1.844577e-13 -1.4186411e-08 3.2925494e-05
000010 51 98 c8 19 70 96 e2 2e b5 7c e3 af c0 9b da 30
       2.0741035e-23 1.0304013e-10 -4.137967e-10 1.5905854e-09
000020 fe 76 78 27 c2 6c 9d b0 d6 26 61 35 07 fe af ac
       3.448142e-15 -1.1454164e-09 8.3875545e-07 -5.002002e-12
000030 40 d9 33 37 6c f8 25 ae 0d 83 bc 2e 7f d0 98 b9
       1.0719814e-05 -3.77373e-11 8.5725295e-11 -0.0002914704
000040 1d bf ad aa 7f 96 78 ae 64 2a 19 b0 fe ea f9 a9
       -3.0863585e-13 -5.652234e-11 -5.5721316e-10 -1.1098586e-13
000050 05 c4 1c 2c 1a 4b 08 1d 92 40 fa b8 34 6e 78 39
       2.2277746e-12 1.8038277e-21 -0.00011932956 0.00023692177
000060 9a 5d 3e 38 fc 20 af 2b be b1 a1 b8 ad d3 0b 2e
       4.5386703e-05 1.2443653e-12 -7.710185e-05 3.1792947e-11
000070 87 d7 00 b6 e5 71 03 3a 14 c2 5d b1 dc 0e db aa
       -1.919894e-06 0.0005014225 -3.2270053e-09 -3.8912526e-13
000080 09 6f 2d 2c 4d 2d 8c 23 54 44 09 2b f2 52 03 3c
       2.4646416e-12 1.5198016e-17 4.8767e-13 0.008015381
000090 50 24 a3 ab b0 2a ff 2e 13 94 d8 aa 23 3f 11 3b
       -1.1591925e-12 1.160364e-10 -3.8472055e-13 0.0022162877
0000a0 c9 a6 07 2e 65 2c 75 39 7a 8d ba 38 e2 ad 3e 2d
       3.084358e-11 0.00023381559 8.895523e-05 1.0838859e-11
0000b0 6b d1 5d 39 63 e5 56 38 50 67 84 bb 0b c0 16 32
       0.00021154217 5.123521e-05 -0.004040636 8.774815e-09
0000c0 7a 26 de ae 72 c1 2e a3 0a f8 5e b9 72 fb 18 3a
       -1.0102226e-10 -9.4735225e-18 -0.00021263972 0.0005835808
0000d0 32 12 6b 9f d0 14 23 a7 0d 8e 35 32 61 1d 9b ae
       -4.9778236e-20 -2.2632077e-15 1.0567885e-08 -7.053803e-11
0000e0 e5 e1 14 2e f8 18 6e b2 a9 1b f7 36 64 d1 fc a5
       3.385194e-11 -1.38591005e-08 7.3643937e-06 -4.385692e-16
0000f0 38 e9 f3 ba fc a7 9c b0 20 26 0f 36 6a 0c a6 38
       -0.0018608933 -1.1398238e-09 2.1330852e-06 7.917809e-05

exp_avg_sq f4 [64, 1]
000000 19 9e 2a 36 8a 75 7e 36 31 8e c3 35 9a 41 0a 35
       2.5424e-06 3.7917366e-06 1.4570015e-06 5.150447e-07
000010 22 0f 0d 36 7c 63 d5 35 b1 dc a5 35 05 73 e0 35
       2.1019446e-06 1.589869e-06 1.2357688e-06 1.6722776e-06
000020 e0 63 cb 35 aa da e0 35 c3 62 a6 35 cf 85 f3 35
       1.5153746e-06 1.675294e-06 1.2396707e-06 1.8143854e-06
000030 74 79 1f 36 3b 28 60 36 68 5a f5 35 a7 de 8a 38
       2.3763541e-06 3.3402018e-06 1.8280234e-06 6.621825e-05
000040 02 88 ce 35 e0 70 d5 35 16 4c d4 35 c7 73 31 36
       1.538778e-06 1.5902588e-06 1.5817375e-06 2.6442447e-06
000050 bd 03 18 36 ee 4d 01 36 e6 3a 01 35 23 81 0f 37
       2.265194e-06 1.926786e-06 4.8141953e-07 8.553531e-06
000060 64 58 69 35 d0 26 1a 36 23 63 53 34 6e da 16 35
       8.692789e-07 2.297038e-06 1.9686972e-07 5.619721e-07
000070 59 3e 3e 34 8e 9f 35 37 4d 0e 05 37 4b 42 c0 35
       1.7717811e-07 1.082559e-05 7.930747e-06 1.4324409e-06
000080 2b 29 fb 35 32 99 ad 35 86 26 72 36 56 aa ea 3a
       1.8712939e-06 1.293409e-06 3.6083234e-06 0.0017903547
000090 97 88 52 36 9e 91 0f 36 3c e7 54 36 9c 64 01 3b
       3.1371944e-06 2.139342e-06 3.1725058e-06 0.0019743806
0000a0 41 ec ca 35 98 4b 3e 37 ba a0 d0 34 1a 09 41 36
       1.5118932e-06 1.1342483e-05 3.8859963e-07 2.876454e-06
0000b0 1c f2 b1 36 dc 81 6a 35 43 e0 05 3b 1c be c3 35
       5.3031963e-06 8.7360763e-07 0.002042786 1.4583961e-06
0000c0 f7 7c 4a 36 62 a2 56 36 8e 6f b5 35 fe e6 c4 3a
       3.0173085e-06 3.1983004e-06 1.3518018e-06 0.0015022454
0000d0 e9 c5 9f 35 6e 12 96 35 71 f3 f7 35 e1 a7 50 36
       1.1904023e-06 1.1181235e-06 1.8473785e-06 3.1092134e-06
0000e0 15 8c f6 35 c8 d5 f9 35 d7 eb 23 36 e2 6e 23 36
       1.8369198e-06 1.8614164e-06 2.442617e-06 2.4353435e-06
0000f0 46 41 39 38 5e 67 b3 35 59 7a 8a 35 bb d5 59 35
       4.4168228e-05 1.3366623e-06 1.0317409e-06 8.114982e-07

exp_avg f4 [64]
000000 00 48 ff a1 bc e0 8c a8 4f a2 b1 b0 07 cd 18 39
       -1.729853e-18 -1.5640585e-14 -1.2924576e-09 0.00014572228
000010 2c a5 8f 96 02 a0 18 2e 07 e9 77 2f 8d e2 20 b0
       -2.3207134e-25 3.4702914e-11 2.2547307e-10 -5.852961e-10
000020 de dc 30 26 59 06 ef ae 28 8e 6e b5 06 4f 38 ab
       6.1361597e-16 -1.0869589e-10 -8.8868774e-07 -6.54796e-13
000030 6e af 86 34 c6 64 f2 ac 70 b3 3c 2c ef 2b 20 b9
       2.5087087e-07 -6.8892418e-12 2.6816015e-12 -0.00015275156
000040 3c 14 e6 a8 25 58 a5 ad de 5b 35 ae ba 21 fe a8
       -2.5543905e-14 -1.8797472e-11 -4.123623e-11 -2.8214291e-14
000050 c3 24 98 ac 26 8d 06 19 bc c3 df 39 de ba c7 38
       -4.324181e-12 6.956142e-24 0.00042679708 9.523866e-05
000060 6e ed 78 34 ff 57 60 2a d8 1f 4e 39 0f fd 9c 2c
       2.3183176e-07 1.9925726e-13 0.00019657554 4.461882e-12
000070 11 1e bd 34 f7 82 28 39 ac 0b ab b0 03 3b 0a 2c
       3.522587e-07 0.00016070517 -1.2445205e-09 1.9643738e-12
000080 96 cd 0f ab d0 86 71 22 00 b9 1d 2a 55 c7 9e 3a
       -5.1089113e-13 3.273296e-18 1.4008586e-13 0.0012113849
000090 ff 51 40 29 e8 00 2b ad 17 95 11 aa a4 6e fd b9
       4.2703684e-14 -9.720426e-12 -1.2930313e-13 -0.00048338354
0000a0 25 01 13 ab 3e 5c f1 b8 df c4 fc b9 ce fc f7 2b
       -5.222648e-13 -0.00011508957 -0.00048211866 1.7620573e-12
0000b0 1b 33 da b8 6b 41 73 b7 f4 74 14 3a 91 8f 0d b2
       -0.00010404569 -1.449916e-05 0.00056631793 -8.239923e-09
0000c0 66 e6 ae ad 19 2f 03 a2 4a be 89 37 3f 84 b9 38
       -1.9883827e-11 -1.7778744e-18 1.6420283e-05 8.84612e-05
0000d0 d4 90 0b 9f 96 3c 70 a4 26 59 c0 b0 5b 21 69 ad
       -2.9554194e-20 -5.2093023e-17 -1.3995176e-09 -1.3251923e-11
0000e0 7f a5 5c 2d 59 ab 99 30 87 8c 53 37 61 03 12 a6
       1.25423e-11 1.1180915e-09 1.2609299e-05 -5.0658505e-16
0000f0 ca 44 d7 39 94 fc 04 b0 da 5d 27 b5 18 bb 41 38
       0.00041059247 -4.8380255e-10 -6.234892e-07 4.618903e-05

exp_avg_sq f4 [64]
000000 f4 fc 6f 33 4b 25 16 33 c3 40 21 33 06 ad 4a 35
       5.5876583e-08 3.4958514e-08 3.7544634e-08 7.5502646e-07
000010 1e 38 cd 32 d1 d0 18 33 59 24 18 33 68 63 18 33
       2.389066e-08 3.5580175e-08 3.5423316e-08 3.5480667e-08
000020 3a 17 f4 32 17 7d 56 33 06 a9 0f 33 02 a0 2d 33
       2.84159e-08 4.9939526e-08 3.3448508e-08 4.0425228e-08
000030 49 54 d4 33 ac 7f 9d 33 db e9 43 33 66 99 ad 36
       9.887351e-08 7.3341056e-08 4.5614666e-08 5.1736597e-06
000040 89 d2 08 33 28 df 62 33 96 01 04 33 1e 0e d8 33
       3.1856448e-08 5.2822685e-08 3.0735087e-08 1.0060852e-07
000050 c9 37 9a 33 7e 6a f4 32 ff af b0 35 b2 26 51 35
       7.181331e-08 2.8453766e-08 1.3164243e-06 7.7914876e-07
000060 82 f8 10 33 f2 ec 88 33 0c d3 ad 34 38 58 77 32
       3.375363e-08 6.3760936e-08 3.2377318e-07 1.4397351e-08
000070 55 ea d3 31 fa 6a d6 35 18 95 11 34 5e 71 32 33
       6.1675487e-09 1.5975377e-06 1.3558417e-07 4.154696e-08
000080 19 f6 6b 33 53 06 72 32 88 08 a4 33 cc bd 36 38
       5.4939026e-08 1.4087692e-08 7.638397e-08 4.3568944e-05
000090 16 f4 f5 32 53 74 fc 32 69 d1 77 33 c6 4c 47 38
       2.8632751e-08 2.938956e-08 5.7699626e-08 4.7516798e-05
0000a0 28 1d 30 33 97 0a bd 35 53 45 d2 35 8c 34 91 33
       4.100471e-08 1.4084679e-06 1.5666395e-06 6.761647e-08
0000b0 7f 4e 6c 35 94 4b 10 32 4f 46 03 38 7e 7a 2f 33
       8.803108e-07 8.399088e-09 3.1298314e-05 4.085677e-08
0000c0 56 6e 4c 33 82 fe d0 33 6a 6e 46 33 b5 ce b5 37
       4.75978e-08 9.7320495e-08 4.620089e-08 2.1673137e-05
0000d0 50 ec 79 32 d0 a8 17 32 f9 61 0b 33 84 2b ae 33
       1.4547439e-08 8.82774e-09 3.2452565e-08 8.110422e-08
0000e0 b4 3c 35 33 26 a9 72 33 7a 3b cd 33 a7 27 ec 32
       4.2197556e-08 5.6498855e-08 9.556875e-08 2.7492048e-08
0000f0 3d 91 51 36 46 a3 07 33 a1 8f 29 33 0f 0e c4 32
       3.1227967e-06 3.1580633e-08 3.947901e-08 2.2823796e-08

exp_avg f4 [1, 64]
000000 0c 6f 16 aa 86 87 05 2a a9 d7 bd 32 82 92 6a ba
       -1.3361203e-13 1.1859792e-13 2.2100567e-08 -0.0008948223
000010 74 37 0c 9a 7d 41 ac af 66 ff 23 b0 af 31 9d 30
       -2.8996116e-23 -3.133315e-10 -5.9662e-10 1.1437374e-09
000020 c1 12 14 a8 87 97 06 31 4c 5b 6d 36 32 e0 ce 2c
       -8.219717e-15 1.95857e-09 3.5368894e-06 5.879763e-12
000030 14 ff 04 35 5e c0 26 2e bd 52 1f af 43 b9 42 bb
       4.954502e-07 3.7914887e-11 -1.449036e-10 -0.0029712475
000040 32 d9 1e 2b 3c c1 29 2f f1 96 6f 30 62 0d 5e 2a
       5.6434295e-13 1.5439111e-10 8.7162194e-10 1.9722204e-13
000050 09 b3 83 2b 0d 23 4b 9d 62 96 4e 3b c0 78 2c 3b
       9.357802e-13 -2.6884947e-21 0.003152274 0.002631709
000060 2b 1f 34 b8 83 07 af ab dc 89 79 3b bd ed 8c ae
       -4.294437e-05 -1.2436583e-12 0.0038076555 -6.408694e-11
000070 18 7f 98 35 a9 d8 d9 3a aa f0 b4 b1 ec 04 27 ad
       1.1361872e-06 0.0016620356 -5.26605e-09 -9.493944e-12
000080 96 52 90 ab f1 e5 6a a4 ff 78 4a ab b2 4d bb 3a
       -1.0254738e-12 -5.093543e-17 -7.193273e-13 0.0014290123
000090 13 f4 06 2c 0c fd 77 ae c9 00 56 2b 18 17 f2 39
       1.9178034e-12 -5.638605e-11 7.602916e-13 0.00046175043
0000a0 1e 3c 5d ae 50 9f 04 3c 36 5c 1c bb 0e 07 3c ad
       -5.0302977e-11 0.008094624 -0.0023858673 -1.0688129e-11
0000b0 ad 6f ff 3b 6e ee 24 38 4e 0a 8c ba be 88 f6 32
       0.007795295 3.9322702e-05 -0.0010684223 2.8700352e-08
0000c0 66 7a 1f 2f fd 99 59 23 93 cd 42 39 33 79 d7 3a
       1.450445e-10 1.1796202e-17 0.00018577864 0.0016439318
0000d0 ec 8a ad 20 8b 31 8c 27 dd 35 ab b1 aa 4c 96 2e
       2.939927e-19 3.891152e-15 -4.9828786e-09 6.8348285e-11
0000e0 3c 55 dd ae 41 64 06 32 09 80 cf b7 63 03 ac 27
       -1.0065057e-10 7.822622e-09 -2.4735944e-05 4.774326e-15
0000f0 5e 6e fc 3b 7e da 93 31 70 2e f4 34 78 59 fe b9
       0.0077035865 4.3031028e-09 4.548233e-07 -0.00048513315

exp_avg_sq f4 [1, 64]
000000 3a 86 3c 36 df 28 c2 36 2a c7 1a 36 e9 28 01 3b
       2.8092313e-06 5.7864086e-06 2.3063717e-06 0.0019708222
000010 d5 15 9e 36 6f 4e 2f 36 c8 99 0e 36 c7 87 1c 36
       4.7113085e-06 2.6122686e-06 2.1249161e-06 2.3324844e-06
000020 78 ef 4b 36 c9 f2 2c 36 c4 57 1c 36 be cd c0 36
       3.0388746e-06 2.5771317e-06 2.3296898e-06 5.7459974e-06
000030 60 a3 92 36 7c f4 88 36 10 08 6f 36 87 7e e5 3a
       4.3701584e-06 4.0815776e-06 3.5618468e-06 0.0017509022
000040 e6 21 4d 36 cc 06 1a 36 27 57 1e 36 62 dd dc 36
       3.0567112e-06 2.2951745e-06 2.3594564e-06 6.5822833e-06
000050 b4 91 4f 36 dd db 96 36 7d 1d fd 3a ea 67 e6 3a
       3.0930214e-06 4.495944e-06 0.0019311156 0.0017578576
000060 44 6c 05 36 e4 79 83 36 91 65 fb 3a f2 a1 8d 37
       1.9881563e-06 3.918294e-06 0.001918005 1.6883921e-05
000070 cb 27 4e 37 32 6c f1 3a c7 6d 1d 38 09 fb 22 36
       1.2287822e-05 0.0018419086 3.7533955e-05 2.4286003e-06
000080 5e e8 8d 36 ea 83 97 36 e4 09 90 36 7a 2b c0 3a
       4.2291786e-06 4.5155075e-06 4.292686e-06 0.0014661395
000090 2b 8f 35 37 e3 b5 b9 36 08 c8 a8 36 35 66 cb 3a
       1.0821775e-05 5.534604e-06 5.030077e-06 0.0015518131
0000a0 be 9b 72 36 20 85 f1 3a 5c e3 fd 3a 34 51 92 36
       3.6151464e-06 0.0018426515 0.0019370127 4.3605924e-06
0000b0 27 25 f4 3a eb 2c 6a 36 a1 83 d0 3a 87 ba 03 36
       0.0018626795 3.4894863e-06 0.0015908369 1.9629094e-06
0000c0 7b 69 9f 36 16 9d 66 37 6d 6d 5c 36 f7 0b d7 3a
       4.750849e-06 1.3745643e-05 3.2846249e-06 0.0016406764
0000d0 2b 19 bf 36 98 11 96 36 a0 65 16 36 0b 46 93 36
       5.6951735e-06 4.4723965e-06 2.2410895e-06 4.3890955e-06
0000e0 c1 9a 15 36 9d 84 90 36 eb 37 54 36 bd 32 f2 36
       2.2292809e-06 4.3069726e-06 3.162301e-06 7.2180687e-06
0000f0 65 2a ea 3a 7a bd 4a 36 5c d2 16 36 d4 81 73 36
       0.0017865418 3.0210635e-06 2.2474187e-06 3.6285392e-06
