lab_3/logs_task1_Adam/lightning_logs/version_0/checkpoints/epoch=19-step=37500.ckpt (torch, 8446 bytes, 9 tensors)

linear1.weight f4 [64, 1]
-0.5597222 -0.36290058 0.3659932 0.8620801 0.6493493 0.5133286 -0.6990601 -0.3258782
-1.0699106 -0.4224491 -1.0025403 0.3536249 -0.82749444 -0.70722467 0.93256414 -0.7835139
-0.7028813 0.36578602 -1.4299104e-05 -0.7202082 0.5128803 -0.4979767 0.48392814 -0.58400023
0.3426513 0.5534105 -0.6112145 0.8563559 -0.38404688 -0.7371177 -1.0737352 -0.32714963
-0.35812768 -0.3365382 0.47610107 -0.1640796 -0.4461874 -0.6793316 0.6482377 -0.2966039
-0.30747992 -0.3510461 -0.64447725 -0.7014039 -1.0286883 0.36879134 0.56604993 0.5955166
0.6470414 0.39615938 -0.32725176 -0.9410417 -0.34146512 0.55621064 0.64426655 -0.63741773
0.37961084 -0.7893978 0.6620735 -0.93567914 0.4010813 -0.49673262 0.6531401 0.32011554
00000000: f449 0fbf 1bce b9be 7663 bb3e 48b1 5c3f
00000010: c13b 263f 8169 033f 9af5 32bf 82d9 a6be
00000020: d5f2 88bf 404b d8be 3e53 80bf 530e b53e
00000030: add6 53bf ad0c 35bf 86bc 6e3f 5e94 48bf
00000040: 07f0 33bf 4e48 bb3e 2fe6 6fb7 915f 38bf
00000050: 204c 033f cdf6 febe 6ec5 f73e 0a81 15bf
00000060: fe6f af3e 4fac 0d3f 8e78 1cbf 243a 5b3f
00000070: cba1 c4be bfb3 3cbf 2870 89bf 2880 a7be
00000080: 835c b7be bc4e acbe 85c3 f33e 7c04 28be
00000090: ad72 e4be ade8 2dbf e8f2 253f 77dc 97be
000000a0: 026e 9dbe 50bc b3be 76fc 24bf 358f 33bf
000000b0: 0fac 83bf 38d2 bc3e a6e8 103f c773 183f
000000c0: 81a4 253f 67d5 ca3e 8b8d a7be 1ce8 70bf
000000d0: 84d4 aebe d263 0e3f a7ee 243f cf2d 23bf
000000e0: 5a5c c23e f915 4abf a67d 293f ab88 6fbf
000000f0: 875a cd3e bd53 febe 3134 273f 2fe6 a33e

linear1.bias f4 [64]
-0.7993783 0.891661 -0.94857746 -0.031246264 1.0589365 -0.49406162 -0.8314028 -0.611476
1.0189813 -2.0004907 0.6840084 -0.5796896 -0.0022060955 2.434055 -0.48303127 -3.0377223
2.3824275 1.4028685 -0.00020223118 -0.36226743 0.40313774 0.09147877 -0.020280922 0.835762
1.0620775 0.69313234 -1.026223 0.6870225 1.2569858 -2.7605014 0.9602819 -0.2269668
0.6744805 0.09611402 -2.3182294 -1.1698797 -0.095953494 1.6310682 2.0754337 -0.5352492
-1.0086646 -1.1979306 1.134174 1.9848899 0.83204126 1.4413897 -0.80143344 -0.91873765
1.5492337 -1.4513651 -0.62993187 -0.4163184 0.34633705 -0.6869694 1.5896146 -1.2450546
-1.1794025 3.0398405 0.7315616 -0.38221142 1.797084 0.12503418 1.2950369 -0.20964561
00000000: 0ea4 4cbf e543 643f f9d5 72bf 2af8 ffbc
00000010: 3b8b 873f a5f5 fcbe d0d6 54bf b189 1cbf
00000020: fb6d 823f 0a08 00c0 2d1b 2f3f 8a66 14bf
00000030: 2494 10bb 8fc7 1b40 e04f f7be 0b6a 42c0
00000040: b179 1840 3291 b33f 050e 54b9 1e7b b9be
00000050: 1268 ce3e 3959 bb3d 2d24 a6bc 80f4 553f
00000060: 28f2 873f 1f71 313f 465b 83bf b5e0 2f3f
00000070: e9e4 a03f 0eac 30c0 09d5 753f fc69 68be
00000080: c1aa 2c3f 6dd7 c43d df5d 14c0 9ebe 95bf
00000090: 4483 c4bd d8c6 d03f e8d3 0440 1706 09bf
000000a0: ec1b 81bf ca55 99bf 9d2c 913f df10 fe3f
000000b0: a800 553f 757f b83f be2a 4dbf 6432 6bbf
000000c0: 4a4d c63f 55c6 b9bf 3743 21bf af27 d5be
000000d0: 1753 b13e 3add 2fbf 7e78 cb3f f35d 9fbf
000000e0: a9f6 96bf bf8c 4240 9f47 3b3f 37b1 c3be
000000f0: d906 e63f f608 003e c5c3 a53f 57ad 56be

linear2.weight f4 [1, 64]
0.08427716 -0.11651468 0.12838031 0.12866385 0.048346486 -0.080368 -0.04139386 -0.19645521
-0.07279895 -0.4782313 -0.06944385 0.17522018 -0.047176793 0.33547345 0.08752696 0.5474166
0.41398436 0.28701922 -5.979649e-06 -0.019261366 -0.14526127 0.19442108 -0.11640044 0.20344959
0.1919913 -0.15805952 0.16329353 0.094885565 -0.29105628 0.3982274 -0.06302974 -0.19518013
-0.23959622 -0.15622465 0.64591676 0.37073705 0.050458036 -0.118975766 -0.35868376 -0.029563027
-0.009057399 -0.22537842 0.21554466 0.2585563 -0.03955091 0.28536358 -0.091272786 -0.14339752
-0.26085484 0.2731237 -0.24548368 -0.0991816 -0.10622492 -0.15538593 -0.2550197 0.11635587
0.26664808 0.5185188 0.026546998 -0.0974769 0.4391995 0.16977589 0.10197092 0.047044564
00000000: 8199 ac3d 409f eebd 2176 033e 75c0 033e
00000010: f706 463d fa97 a4bd 9c8c 29bd 8e2b 49be
00000020: 9e17 95bd bcda f4be 9438 8ebd eb6c 333e
00000030: 743c 41bd 2dc3 ab3e 5641 b33d 7f23 0c3f
00000040: c2f5 d33e 2ff4 923e cba4 c8b6 03ca 9dbc
00000050: 5fbf 14be 5216 473e 5b63 eebd 1755 503e
00000060: 5e99 443e 5bda 21be 6b36 273e 5d53 c23d
00000070: 5405 95be 76e4 cb3e bc15 81bd 4ddd 47be
00000080: b658 75be 5bf9 1fbe cd5a 253f 3fd1 bd3e
00000090: 16ad 4e3d 91a9 f3bd 66a5 b7be 292e f2bc
000000a0: 7c65 14bc 9ac9 66be bdb7 5c3e 7e61 843e
000000b0: 2300 22bd 2d1b 923e 3aed babd cdd6 12be
000000c0: c48e 85be dfd6 8b3e 1360 7bbe b91f cbbd
000000d0: 738c d9bd 7d1d 1fbe f191 82be fd4b ee3d
000000e0: 1986 883e a6bd 043f 1779 d93c f8a1 c7bd
000000f0: c2de e03e bbd9 2d3e 21d6 d03d cdb1 403d

exp_avg f4 [64, 1]
8.733458e-05 0.0016648909 -0.00195876 0.00012095509 4.942126e-05 3.4813587e-05 -1.5502894e-05 0.00013261451
-9.965175e-05 0.0031320783 -0.000105293555 -0.0015580914 -4.359142e-05 -0.0017647808 0.00012375384 0.0014374364
-0.0021034486 -0.00078306877 -8.7203125e-07 -1.1486853e-05 -0.00011684348 8.552892e-05 -4.817479e-05 -0.00014270666
-0.00022089413 -0.0001483424 0.00019553206 -5.124597e-06 0.00609811 0.0011037069 -9.2137656e-05 0.00035624794
0.0024376942 0.00058648945 -0.024097446 0.0016877316 1.0862159e-05 0.00028033846 -0.0011196536 4.6816618e-05
9.401154e-06 0.00037745884 -0.00024060634 -0.00079144526 -5.9416503e-05 -0.0008431697 7.731715e-05 0.00012808153
-0.0006554711 -0.0067902575 0.00015454425 -2.5146768e-05 0.0006693892 7.760366e-05 -0.00067328964 0.00018486976
-0.0051751332 -0.003210742 1.4868537e-05 -2.9753033e-05 -0.0022951798 6.3735024e-05 0.00016008884 -0.00028630113
00000000: 6527 b738 7838 da3a 8a5e 00bb 45a9 fd38
00000010: ad49 4f38 ce04 1238 360c 82b7 700e 0b39
00000020: 20fc d0b8 8e43 4d3b 0cd1 dcb8 df38 ccba
00000030: eed5 36b8 3850 e7ba ebc3 0139 5d68 bc3a
00000040: 03da 09bb db46 4dba 8815 6ab5 a8b7 40b7
00000050: de09 f5b8 fd5d b338 490f 4ab8 87a3 15b9
00000060: d19f 67b9 5c8c 1bb9 bd07 4d39 f4f3 abb6
00000070: a8d2 c73b 42aa 903a 073a c1b8 cac6 ba39
00000080: b9c1 1f3b a4be 193a 0268 c5bc e036 dd3a
00000090: 9e3c 3637 64fa 9239 57c1 92ba f65c 4438
000000a0: a6b9 1d37 abe5 c539 464b 7cb9 fe78 4fba
000000b0: fc35 79b8 2908 5dba 5425 a238 a04d 0639
000000c0: ecd3 2bba cf80 debb 280d 2239 46f2 d2b7
000000d0: f379 2f3a 26bf a238 b47f 30ba 99d9 4139
000000e0: 2a94 a9bb 506b 52bb e173 7937 2796 f9b7
000000f0: ba6a 16bb 7ba9 8538 85dd 2739 b01a 96b9

exp_avg_sq f4 [64, 1]
3.3126933e-06 4.2565276e-05 5.5232485e-05 5.142982e-07 9.543772e-07 2.6571458e-06 3.729994e-07 0.00010012923
3.8640704e-07 0.0018327641 2.3725809e-07 6.0856833e-05 7.8717534e-08 0.00021355323 3.3191574e-07 0.00059075514
0.0003170464 0.0005225495 3.8669072e-07 2.996907e-08 6.7161104e-06 9.7854245e-06 3.7871175e-06 1.94925e-05
0.00017538884 1.0018729e-05 1.3338481e-05 7.498929e-07 0.0003904833 0.00031120432 2.5496732e-07 5.3920794e-05
0.00012932367 2.8911363e-05 0.0030840558 0.0048118234 9.829574e-07 1.2295891e-05 0.00020956235 2.8187067e-06
4.430247e-07 0.00027525172 2.5163363e-05 8.5538064e-05 9.019543e-08 0.0005292702 4.1874214e-06 1.0460625e-05
6.0595026e-05 0.00040257475 0.00015915683 3.476703e-07 1.69531e-05 1.0429335e-05 6.191959e-05 8.253161e-06
0.00030422234 0.0005591897 1.5424524e-07 3.2205e-07 0.0014752549 7.732312e-06 5.897656e-06 3.4946604e-06
00000000: a34f 5e36 1e88 3238 6ea9 6738 4e0e 0a35
00000010: 2718 8035 6b51 3236 a640 c834 79fc d138
00000020: 6173 cf34 5c39 f03a 02c1 7e34 8740 7f38
00000030: 6c0b a933 42ed 5f39 2732 b234 e8dc 1a3a
00000040: 3f39 a639 b4fb 083a 5e9a cf34 57b7 0033
00000050: f35a e136 142c 2437 2f26 7e36 d383 a337
00000060: 95e8 3739 1d16 2837 57c8 5f37 3f4c 4935
00000070: c8b9 cc39 2329 a339 71e2 8834 0329 6238
00000080: 0f9b 0739 ae86 f237 df1d 4a3b 80ac 9d3b
00000090: 29ee 8335 734a 4e37 f7bd 5b39 0329 3d36
000000a0: dad8 ed34 a94f 9039 e915 d337 e662 b338
000000b0: 76b1 c133 b9be 0a3a ad81 8c36 0b80 2f37
000000c0: 6a27 7e38 ab10 d339 56e3 2639 71a7 ba34
000000d0: 8136 8e37 a7f9 2e37 d4da 8138 0e77 0a37
000000e0: 0880 9f39 9696 123a 9c9e 2534 37e6 ac34
000000f0: 575d c13a 07ba 0137 7be4 c536 cf85 6a36

exp_avg f4 [64]
6.065941e-05 0.00013844448 -0.00018130001 0.00020614934 2.0398515e-05 -0.00013977033 -3.261431e-05 -0.00013265763
-0.00015605456 -0.00021837058 -0.00015471698 1.4646561e-05 -7.485906e-05 -0.00035880244 0.00018604568 -0.00036073293
-0.0004245818 4.2611922e-05 -2.1608322e-07 -2.3569633e-05 -0.00019463548 0.0003721999 -0.0002164362 0.0002628093
4.066551e-05 -0.00013982435 6.814388e-05 8.22854e-05 0.0007612803 -0.000295684 -0.00013884545 -0.00021824791
5.6623365e-05 -0.00017708226 -0.003379577 -3.1265023e-05 8.658673e-05 2.2208093e-05 0.00030667015 -1.9466781e-05
-9.2145e-07 -3.5013152e-05 0.0001624494 -0.00013931183 -8.787036e-05 4.464714e-05 -0.00011946378 -0.00016181514
0.000108682405 -0.0009125742 -0.00016060277 -9.1318856e-05 -7.4330805e-05 -0.00023807117 0.00012389806 1.2152854e-05
-0.0006158402 -0.000704658 2.2680733e-05 -9.330991e-05 0.00014120038 0.00032681593 6.6023676e-06 3.5116747e-05
00000000: 8c6c 7e38 682b 1139 5a1b 3eb9 cb29 5839
00000010: 7a1d ab37 508f 12b9 59cb 08b8 031a 0bb9
00000020: 94a2 23b9 68fa 64b9 863b 22b9 80ba 7537
00000030: a7fd 9cb8 a61d bcb9 4215 4339 c120 bdb9
00000040: 689a deb9 34ba 3238 8104 68b4 67b7 c5b7
00000050: 1017 4cb9 d323 c339 26f3 62b9 abc9 8939
00000060: 4290 2a38 d09d 12b9 78e8 8e38 a390 ac38
00000070: a890 473a 0906 9bb9 0b97 11b9 7ad9 64b9
00000080: e07e 6d38 28af 39b9 e57b 5dbb 9022 03b8
00000090: e695 b538 844b ba37 92c8 a039 984c a3b7
000000a0: 9059 77b5 16db 12b8 2e57 2a39 3c14 12b9
000000b0: 0a47 b8b8 8043 3b38 a188 fab8 ecac 29b9
000000c0: 6cec e338 d139 6fba 7a67 28b9 7082 bfb8
000000d0: 0ce2 9bb8 bea2 79b9 a2ea 0139 1ce4 4b37
000000e0: 5670 21ba ccb8 38ba 8142 be37 60af c3b8
000000f0: 300f 1439 7e58 ab39 e889 dd36 524a 1338

exp_avg_sq f4 [64]
8.650813e-07 3.6972283e-06 4.563092e-06 1.1141578e-06 2.4717542e-07 9.1527806e-07 1.5700385e-07 9.400379e-06
3.1031848e-07 6.874131e-05 2.9212794e-07 7.3580736e-06 1.5604186e-07 1.649026e-05 4.955261e-07 3.6620528e-05
2.5106325e-05 2.5496005e-05 5.512788e-09 3.0439917e-08 2.63638e-06 4.927091e-06 1.8104679e-06 5.423219e-06
1.0741068e-05 3.0021238e-06 3.047666e-06 6.2317594e-07 2.5146004e-05 2.0425286e-05 2.277588e-07 7.912895e-06
1.4268324e-05 4.980285e-06 0.000115224975 9.793534e-05 3.730813e-07 1.7847719e-06 1.7744374e-05 2.3457093e-07
2.4727717e-08 1.5277928e-05 5.7398515e-06 9.125332e-06 9.102972e-08 2.5261828e-05 1.1420818e-06 2.6969585e-06
8.245347e-06 2.2547069e-05 1.4742946e-05 5.9590417e-07 2.4945675e-06 3.2417252e-06 8.0166365e-06 1.5454359e-06
2.0815976e-05 3.5872563e-05 6.810526e-08 5.786686e-07 5.953951e-05 3.7954348e-06 1.1413905e-06 4.969761e-07
00000000: ef37 6835 e61d 7836 a91c 9936 2c8a 9535
00000010: 88b3 8434 6eb1 7535 e494 2834 52b6 1d37
00000020: d999 a634 3629 9038 c2d5 9c34 5fe5 f636
00000030: 768c 2734 9054 8a37 4b04 0535 fe98 1938
00000040: 6c9b d237 41e0 d537 ff6a bd31 0bbd 0233
00000050: aaec 3036 6453 a536 34ff f235 19f9 b536
00000060: 8934 3437 1878 4936 8186 4c36 5348 2735
00000070: a2f0 d237 f856 ab37 dd8d 7434 a0c1 0437
00000080: fc61 6f37 531c a736 f0a4 f138 a362 cd38
00000090: e74b c834 4c8c ef35 c1d9 9437 5ede 7b34
000000a0: d368 d432 1a29 8037 f398 c036 0119 1937
000000b0: 1e7c c333 5de9 d337 a249 9935 65fd 3436
000000c0: 7f55 0a37 7623 bd37 7958 7737 39f6 1f35
000000d0: 5868 2736 6a8c 5936 317f 0637 c66c cf35
000000e0: f89d ae37 df75 1638 4341 9233 ce55 1b35
000000f0: 10ba 7938 13b5 7e36 e131 9935 f067 0535

exp_avg f4 [1, 64]
0.01305147 0.014503694 -0.014476203 -0.013867589 -0.012781167 -0.015106542 0.012907519 0.01335295
0.015624739 0.013272554 0.014974599 -0.014556938 0.013844983 0.015778568 -0.0146352835 0.013557115
0.01581088 -0.013167231 4.1351527e-06 0.013396548 -0.013500949 0.01434711 -0.014218369 0.015665188
-0.013177318 -0.013141664 0.012867143 -0.013031061 0.014183097 0.013489586 0.01549043 0.013704084
0.014594297 0.014103151 -0.012580655 0.012342296 0.014025155 0.016087895 -0.013191751 0.013367062
0.013119504 0.013164258 0.016022934 0.016120829 0.015268799 -0.013170041 -0.015607332 -0.015773695
-0.012816172 -0.013880223 0.013341621 0.0132691655 0.0143658705 -0.015439744 -0.01284282 0.012777683
-0.014284438 0.015506426 -0.013006048 0.01330277 -0.013224005 0.0144124245 -0.012707859 -0.01412971
00000000: d5d5 553c e7a0 6d3c 992d 6dbc e234 63bc
00000010: 1a68 51bc 6e81 77bc 0f7a 533c 55c6 5a3c
00000020: e8fe 7f3c 2075 593c 0558 753c 3980 6ebc
00000030: 11d6 623c 0e42 813c d4c8 6fbc a91e 5e3c
00000040: d285 813c 5fbb 57bc b1c0 8a36 327d 5b3c
00000050: 1633 5dbc 2410 6b3c 29f4 68bc 4854 803c
00000060: ade5 57bc 2250 57bc b6d0 523c 3b80 55bc
00000070: 3860 683c 6d03 5d3c 93cb 7d3c 1887 603c
00000080: eb1c 6f3c e710 673c 171f 4ebc 5737 4a3c
00000090: c4c9 653c c3ca 833c 3722 58bc 8601 5b3c
000000a0: 30f3 563c e6ae 573c 8742 833c d40f 843c
000000b0: fc29 7a3c 28c7 57bc e5b5 7fbc d637 81bc
000000c0: ecfa 51bc e069 63bc d096 5a3c ea66 593c
000000d0: d45e 6b3c fbf6 7cbc b16a 52bc 7d59 513c
000000e0: 4709 6abc aa0e 7e3c 5217 55bc ddf3 593c
000000f0: 7fa9 58bc 1722 6c3c a034 50bc 4d80 67bc

exp_avg_sq f4 [1, 64]
0.0024573025 0.0019749869 0.0019547539 0.0026726304 0.0024905154 0.0024141322 0.0025611708 0.0020931924
0.0026299625 0.0017467949 0.0026582296 0.0020951354 0.0026637658 0.0020258334 0.002661304 0.00212065
0.0020364425 0.001859272 3.3017602e-07 0.0026214214 0.0024730773 0.0024624432 0.0024532827 0.0024013147
0.0019543907 0.0024711213 0.0024567249 0.0026450595 0.0018453164 0.0021366694 0.0026405195 0.0021805593
0.0020660877 0.0021940444 0.001603367 0.0010817378 0.002414442 0.0022652482 0.0022174465 0.0020234624
0.0018982547 0.0019146072 0.0023760176 0.0021606544 0.002646322 0.001849564 0.0023922632 0.0023897456
0.0023604461 0.0017793196 0.0020910283 0.0026881923 0.0021487286 0.0024126654 0.0023470556 0.0024290879
0.0018733036 0.0019521315 0.0025551543 0.002688393 0.0017766835 0.0024580183 0.002442354 0.002128768
00000000: b20a 213b c86e 013b 541b 003b 4c27 2f3b
00000010: ea37 233b 6b36 1e3b 51d9 273b f12d 093b
00000020: 735b 2c3b b6f4 e43a b135 2e3b 8a4e 093b
00000030: 9392 2e3b d8c3 043b 4669 2e3b 9afa 0a3b
00000040: d675 053b d1b2 f33a 0c43 b134 27cc 2b3b
00000050: 5a13 223b f160 213b 41c7 203b 605f 1d3b
00000060: 3c15 003b 89f2 213b 0101 213b bc58 2d3b
00000070: 8bde f13a 5d07 0c3b 910c 2d3b b7e7 0e3b
00000080: 3367 073b f5c9 0f3b 1228 d23a 19c9 8d3a
00000090: 9d3b 1e3b 8f74 143b 9452 113b 119c 043b
000000a0: dcce f83a 8ff3 fa3a f6b6 1b3b c499 0d3b
000000b0: ea6d 2d3b 126d f23a 84c7 1c3b 479d 1c3b
000000c0: b7b1 1a3b 0f38 e93a a209 093b 622c 303b
000000d0: afd1 0c3b cf1d 1e3b 0fd1 193b 5531 1f3b
000000e0: a389 f53a aade ff3a 6074 273b c02f 303b
000000f0: 9bdf e83a b416 213b e70f 203b cd82 0b3b
