lab_3/logs_task1_Adam/lightning_logs/version_1/checkpoints/epoch=19-step=37500.ckpt (torch, 8446 bytes, 9 tensors)

linear1.weight f4 [64, 1]
00000000: 46db b8bd 52f6 983f 1787 a9b4 3459 16a7
00000010: 7016 01bd 313f 3d35 86d4 5437 b4f8 1d3b
00000020: 159d 9ca4 6acc 4dba 9cd2 b9b8 2c39 beb9
00000030: f93e 91bf 6a45 0237 d615 78bb c00b 4238
00000040: c8a4 35bb 2cdf cb3b 7457 583f 609e 0baa
00000050: 8805 a5b8 8782 4f37 2426 a333 b486 edbe
00000060: 24f1 183a baa6 8034 562a a2bf dab5 94b0
00000070: 1ef4 8930 1c95 d1be f2f6 63bf 319a 3ebb
00000080: d8a5 b2b4 1bba f9b6 b424 4dbb 0456 61bc
00000090: e5d9 da31 f80a c3bc ac66 623f 6c5d e430
000000a0: 2706 be3f 6157 993f 1cd9 00bd 3d08 86bc
000000b0: ea5e c735 b43e 903f 8701 b0bb b84d d236
000000c0: ecc6 cb3a 4773 10bf 0002 443c 312b a13f
000000d0: a451 b6b3 c270 90bd 38a7 4931 8a5d 7634
000000e0: e96a 92bf d327 a53f 271a 9eb1 bc3e 3537
000000f0: e6cb 3635 d360 922c 11f4 29b9 4fc0 88bd
-0.09026198 1.1950171 -3.1576994e-07 -2.0865039e-15 -0.03151554 7.049994e-07 1.2685667e-05 0.0024104537
-6.792032e-17 -0.00078505895 -8.8607165e-05 -0.0003628222 -1.1347343 7.7647655e-06 -0.0037854812 4.6264147e-05
-0.0027716625 0.0062216725 0.8450844 -1.2400627e-13 -7.8688434e-05 1.2368552e-05 7.597217e-08 -0.46391833
0.00058342726 2.3963167e-07 -1.266917 -1.0820103e-09 1.0037444e-09 -0.40934074 -0.89048684 -0.0029083604
-3.327575e-07 -7.442444e-06 -0.0031302394 -0.013753418 6.369407e-09 -0.023808941 0.88437915 1.6615735e-09
1.4845628 1.1979791 -0.03145705 -0.01636135 1.4854279e-06 1.1269135 -0.005371276 6.2675354e-06
0.0015546954 -0.564259 0.011963367 1.2591306 -8.489886e-08 -0.07052757 2.9344402e-09 2.2944565e-07
-1.1438876 1.2902778 -4.6013784e-09 1.0803047e-05 6.8096995e-07 4.1603192e-12 -0.00016208018 -0.06677305

linear1.bias f4 [64]
00000000: 3711 6bbe 91f1 8a40 0359 d5b4 547d 56a8
00000010: 9f83 9bbd 5726 6435 3503 ad38 4e76 fa3c
00000020: 4cb8 aea6 22b1 673c 0bbb 12b9 86d1 afba
00000030: 8348 8240 5edc 4537 b6c5 123d 4a04 dfbc
00000040: 564b 27bb 2e41 fa3c ef8f ab40 d4a1 bfa9
00000050: 637e 06bb b58f 0239 67ae 3135 6481 9140
00000060: 017c 3a3a 4857 cab3 56df 26bf 3ef9 d7b0
00000070: 07c3 1932 d35e 7240 40b8 b540 030f 9abb
00000080: f14e 1534 e280 9d35 a345 96bb 065d 28bb
00000090: b2cd 1532 1a6e 8cbc 0546 a23c 38b0 cd31
000000a0: 2a89 80bf d31b 1d3d 597b debd 3801 91bd
000000b0: f957 01b8 086c 80c0 6d7c 983c 4e3b 70b8
000000c0: 87e2 3d3b 5df3 adc0 c755 b4bc af92 4d40
000000d0: 35e7 dcb3 6b6b bebd 8329 9031 9f34 b2b6
000000e0: f3a8 40c0 1adf 4bc0 21b6 f5b1 712c 0f3b
000000f0: f5db c8b4 e3d7 992e 3f37 71bb c9b1 343e
-0.22955786 4.341988 -3.9739106e-07 -1.19065626e-14 -0.07593464 8.499241e-07 8.24988e-05 0.03057399
-1.2123629e-15 0.014141353 -0.00013993324 -0.0013413883 4.0713515 1.1793423e-05 0.035833083 -0.027223725
-0.0025527081 0.030548658 5.36132 -8.5101766e-14 -0.002052211 0.00012451301 6.6191427e-07 4.5470448
0.0007113815 -9.4222344e-08 -0.65184534 -1.5714148e-09 8.950116e-09 3.7870376 5.6787415 -0.0047014966
1.3905425e-07 1.1734921e-06 -0.004585938 -0.0025690212 8.719711e-09 -0.017142344 0.019808779 5.986319e-09
-1.0041859 0.038356613 -0.108633704 -0.070803106 -3.0837928e-05 -4.0131874 0.018614018 -5.727569e-05
0.0028974132 -5.4359574 -0.022013558 3.2120779 -1.02866046e-07 -0.09297832 4.195671e-09 -5.3109393e-06
-3.0103118 -3.185492 -7.151144e-09 0.0021846558 -3.7412943e-07 6.995984e-11 -0.003680661 0.17645945

linear2.weight f4 [1, 64]
00000000: d3e2 35bd 35c1 8abe d29b 50b3 6bad 3826
00000010: 0027 f039 c451 4433 acbc 00b7 71f3 3abb
00000020: 04b7 2625 2c82 07bb 4619 0db8 a0f0 fd39
00000030: f414 2a3e e28e 6b36 aa19 32bc f7cc bb3b
00000040: 30d2 d2ba a933 22ba c42f 0c3f 54b0 14a9
00000050: 53b9 f539 1b20 adb7 0841 0833 6f69 e23e
00000060: bb77 9039 28ee 80b2 8f69 2dbe 02f8 47af
00000070: c649 05b1 5a9d 543d c779 0dbf 532d eeba
00000080: 6827 dc32 f0ac efb4 a34c e9ba 3ed5 1cbc
00000090: 0019 4f30 7a27 1fbc b05a 873d 184f 26b1
000000a0: e2c5 013e 8e11 f33d 3bf7 2fbc e94c 903c
000000b0: 0369 de36 72b4 05be ff5c 0cbc 9aa6 8c37
000000c0: 2a9c e239 2080 113f 8346 833c 3af7 0cbe
000000d0: 0990 70b3 2151 3ebd 2b9a e830 640c b235
000000e0: cf76 c73d ca33 22be 0f96 14b1 a023 0dba
000000f0: 4e14 9fb3 4cd3 cbad c5df 4b3a 0fba 00bd
-0.04440577 -0.2710053 -4.857049e-08 6.407285e-16 0.00045805424 4.570917e-08 -7.673323e-06 -0.002852645
1.4460213e-16 -0.0020676954 -3.3640557e-05 0.000484352 0.16609555 3.5100898e-06 -0.010870377 0.005731221
-0.0016084369 -0.00061875075 0.54760385 -3.3015542e-14 0.0004686812 -2.0638157e-05 3.1724113e-08 0.44221064
0.00027555026 -1.5009462e-08 -0.16934799 -1.8187055e-10 -1.9395983e-09 0.051907875 -0.5526394 -0.0018171467
2.562929e-08 -4.4643048e-07 -0.0017799329 -0.009572325 7.534169e-10 -0.009714002 0.06609094 -2.4201139e-09
0.12673143 0.11868583 -0.010740097 0.017614799 6.6283405e-06 -0.13057116 -0.008567094 1.676688e-05
0.0004322243 0.5683613 0.016024834 -0.13766184 -5.6010354e-08 -0.04646409 1.6924039e-09 1.326564e-06
0.09739458 -0.15840068 -2.1622133e-09 -0.00053840317 -7.407708e-08 -2.3172263e-11 0.00077771797 -0.03142744

exp_avg f4 [64, 1]
00000000: e41a a73b 2ec9 0b3b 1ea5 5932 314f 9b24
00000010: 596b 323b 35e6 a0b1 f7da ecb4 f2df 5439
00000020: da6c d5a2 a356 2338 42f4 b536 a00e 2835
00000030: 32ea d8b9 677f 9bb4 fef3 ac39 e1b9 ebb9
00000040: 18ab c239 5b73 6bb8 e69c d5bc 701d af27
00000050: 7c8f 5736 b2be 35b5 485f 2133 128b 2aba
00000060: bfbc 28b8 1729 6db2 91c9 7b39 1bf1 4f2e
00000070: 0f8f 322f f183 88b9 8fde 1b3c 0010 4639
00000080: 7b8e a332 831b 05b5 07c7 5339 75bd 6a3a
00000090: 48d2 93af c0c9 5e3a 2404 8bb8 9c7f d52e
000000a0: 4c9d eb38 a96e 3db8 08ca 7eba e442 3b3b
000000b0: ea91 0cb5 1498 a539 cead 36b9 8b8b 04b5
000000c0: 66fa 9fb8 c579 d0bb b2d9 6cbb 643b f13a
000000d0: fdd5 c631 a121 763b 5709 56af 22d2 b1b3
000000e0: 7693 b2ba 16a8 3539 b59c 912f a402 de35
000000f0: c4f2 55b3 4a78 972b fb12 f836 4600 4bb9
0.005099641 0.002132963 1.2668606e-08 6.735469e-17 0.0027224629 -4.6827844e-09 -4.4117743e-07 0.00020301322
-5.7849017e-18 3.8942915e-05 5.4226557e-06 6.260616e-07 -0.0004137322 -2.8963697e-07 0.00032988185 -0.00044961183
0.00037130038 -5.61358e-05 -0.026075792 4.8604174e-15 3.2121015e-06 -6.770525e-07 3.757239e-08 -0.00065057084
-4.0230105e-05 -1.3804558e-08 0.00024012315 4.7280495e-11 1.623983e-10 -0.00026038245 0.009513511 0.00018888712
1.904049e-08 -4.9586396e-07 0.00020196672 0.0008954623 -2.6888558e-10 0.0008498691 -6.628808e-05 9.7087866e-11
0.00011234972 -4.516417e-05 -0.0009719436 0.0028573805 -5.2366397e-07 0.0003158456 -0.0001742162 -4.9376894e-07
-7.628351e-05 -0.0063621723 -0.0036140499 0.0018404541 5.786886e-09 0.0037556665 -1.9466505e-10 -8.280428e-08
-0.0013624269 0.00017324122 2.6486693e-10 1.6541057e-06 -4.981372e-08 1.0762582e-12 7.3931856e-06 -0.0001935969

exp_avg_sq f4 [64, 1]
00000000: 9ca5 ce36 1d24 a638 54de 3836 24ef bb35
00000010: 54db 5536 8fd8 8a33 7a79 4136 82bd 4836
00000020: 8e0e 3636 3549 4535 700d c036 42f1 b736
00000030: 96f7 0e38 7670 0236 56be 3136 01ab 7736
00000040: 1dda 5536 e74d 5c36 7a1f 0d3b 02e4 d635
00000050: 6c89 3536 de55 3136 1673 0137 0f05 c03a
00000060: 608e ce36 a922 9335 eb4a 7535 81ff 6136
00000070: de86 8336 0efb 5e38 26ef 033b 9adb e836
00000080: 077f 9535 caf6 3e37 325c cd36 beba 9d36
00000090: fa5c 6636 2a5b 8436 a5bb 2f34 740b 6736
000000a0: 9c50 2a35 9839 5934 c27e cb36 30f1 3b36
000000b0: 1ac1 4136 8174 b237 1f4c 5936 f985 1836
000000c0: 4036 7d36 0076 d43a c0c8 0b37 b02c 0a37
000000d0: f37e f836 8b01 d736 3f44 d336 929d 8e36
000000e0: 6d39 a436 6131 6c37 3d69 9a36 f3a4 3836
000000f0: ee2d f335 be40 4f36 b379 3736 b811 4137
6.158558e-06 7.9222234e-05 2.7547549e-06 1.4002185e-06 3.186714e-06 6.4655175e-08 2.882995e-06 2.991263e-06
2.7128585e-06 7.349475e-07 5.7236102e-06 5.481911e-06 3.408602e-05 1.943697e-06 2.6485845e-06 3.6905406e-06
3.1866432e-06 3.28279e-06 0.0021533654 1.6010601e-06 2.7051092e-06 2.6425037e-06 7.715795e-06 0.0014649945
6.155853e-06 1.0962441e-06 9.137863e-07 3.3676336e-06 3.919805e-06 5.3162737e-05 0.0020131557 6.939704e-06
1.1138335e-06 1.1382343e-05 6.120209e-06 4.7007043e-06 3.432679e-06 3.9445194e-06 1.636641e-07 3.442835e-06
6.3447237e-07 2.0230652e-07 6.064628e-06 2.800556e-06 2.887164e-06 2.1273505e-05 3.2379828e-06 2.2727747e-06
3.7731515e-06 0.0016209483 8.331786e-06 8.235846e-06 7.405755e-06 6.407679e-06 6.296235e-06 4.2502734e-06
4.894266e-06 1.4078193e-05 4.601809e-06 2.751415e-06 1.8118278e-06 3.0883089e-06 2.7339963e-06 1.1507822e-05

exp_avg f4 [64]
00000000: 900f 08ba 756c 35ba d5a9 8faf c697 5422
00000010: 0f89 0aba 7033 c32f a255 bbb1 3724 a9b8
00000020: 52bd 4a22 981c 33b7 b11a c5b4 82f5 8537
00000030: fcca cab8 8c8b 4233 54d4 a9b8 1571 4239
00000040: fc23 7439 0865 18b8 dc3f 853b 66d9 04a6
00000050: b41a 0e34 8622 ab32 d1e8 cbb1 8a08 44b9
00000060: f0bd 5436 fe55 5431 6823 abb9 2d1d c9ab
00000070: 4782 b8ae c8d3 59b8 92fa cb3a 637b 21b7
00000080: ffe5 92b1 918f 1734 ea2f 7bb7 92a4 8239
00000090: f89c d628 d664 14b9 3038 1a39 6222 c9ae
000000a0: cc07 4039 0385 4e39 0a37 d739 c79c 22ba
000000b0: 2b39 4934 e1f2 9a38 a588 0337 c42e e033
000000c0: 391f c036 1874 683a 7264 1e3a a02a 49ba
000000d0: 3334 92af 05a4 fab7 89e3 862d 9dc2 0733
000000e0: c101 133a 3752 a738 e391 c0ad cf35 bfb5
000000f0: 52be 4132 5180 4cab ec20 e135 4f1c 0c39
-0.0005190307 -0.00069207634 -2.613222e-10 2.8811706e-18 -0.00052847055 3.5506842e-10 -5.4521516e-09 -8.0652935e-05
2.747633e-18 -1.0675889e-05 -3.671353e-07 1.5969159e-05 -9.6699194e-05 4.5296062e-08 -8.098097e-05 0.00018543408
0.00023283059 -3.6333717e-05 0.0040664505 -4.609133e-16 1.3234495e-07 1.992272e-08 -5.9345457e-09 -0.00018695198
3.170102e-06 3.0898941e-09 -0.0003264204 -1.4290007e-12 -8.390493e-11 -5.193407e-05 0.0015562347 -9.625076e-06
-4.2753068e-09 1.41152e-07 -1.4971922e-05 0.00024918147 2.3826847e-14 -0.00014151944 0.00014707516 -9.1465294e-11
0.00018313451 0.00019695242 0.00041049003 -0.0006203171 1.8740381e-07 7.388532e-05 7.8400235e-06 1.04393195e-07
5.7256807e-06 0.0008867397 0.0006042189 -0.0007673893 -2.6594335e-10 -2.98787e-05 1.5335082e-11 3.1609137e-08
0.00056078663 7.978494e-05 -2.189266e-11 -1.4246269e-06 1.1277352e-08 -7.2653434e-13 1.6773388e-06 0.00013361986

exp_avg_sq f4 [64]
00000000: 8982 9734 e5ce c036 92db 9c33 6017 8b33
00000010: 6bb1 b933 e039 5b31 073f 7933 1b2c 5d33
00000020: 20fd 5833 90d9 8132 6695 2034 bc83 bf33
00000030: 4b4d 3836 300e 1534 4459 8633 2cda 9533
00000040: d14f 0f34 3d86 9633 89b6 5d38 c093 2134
00000050: 48ef 4033 1f05 8a33 a42d 4a34 28cb ba37
00000060: 97c3 2834 4b29 3133 5a90 0836 6722 a833
00000070: a2b5 f133 3144 6635 bd62 4e38 b804 0b34
00000080: 45d0 1533 70f0 9234 b7f0 3434 64a8 5e34
00000090: 22df ac33 f615 c733 f2d9 0b35 7bed c333
000000a0: 3d07 8935 17c8 9135 78af 3434 2d7c 1034
000000b0: fda7 5f33 cf96 e935 13e1 af33 6c2a 3a33
000000c0: c467 9133 f174 c537 4a08 5d34 c3e9 aa35
000000d0: 64ee 3b34 937c ac34 99e3 2834 fca1 4c33
000000e0: 9148 3d35 87cd 1236 4daf ae33 d4e8 6b33
000000f0: 00af 7333 9d58 8733 f436 9333 f241 f134
2.822092e-07 5.7461316e-06 7.304256e-08 6.476944e-08 8.647006e-08 3.1901592e-09 5.8032153e-08 5.1495686e-08
5.0521635e-08 1.5116512e-08 1.4955512e-07 8.918093e-08 2.7463127e-06 1.3881868e-07 6.2560986e-08 6.9780384e-08
1.334695e-07 7.009337e-08 5.2860505e-05 1.5048045e-07 4.492111e-08 6.427057e-08 1.882932e-07 2.226753e-05
1.5717374e-07 4.124858e-08 2.0349603e-06 7.8293674e-08 1.1255476e-07 8.578091e-07 4.9206184e-05 1.29471e-07
3.4881186e-08 2.736956e-07 1.6851378e-07 2.0736621e-07 8.049962e-08 9.270654e-08 5.209869e-07 9.1235925e-08
1.0209402e-06 1.0861576e-06 1.6827642e-07 1.345622e-07 5.2074018e-08 1.7403744e-06 8.190013e-08 4.3345082e-08
6.7709635e-08 2.3538685e-05 2.0585244e-07 1.2734021e-06 1.7502458e-07 3.2128136e-07 1.5729019e-07 4.7644775e-08
7.0513585e-07 2.1875328e-06 8.1343934e-08 5.4926957e-08 5.6737008e-08 6.302546e-08 6.855217e-08 4.493773e-07

exp_avg f4 [1, 64]
00000000: 70f9 0a39 72c3 c8bb 99df b5b1 f2b5 82a5
00000010: 241d 28bb 0dfc 8fb2 0bd0 ba35 eeed 2139
00000020: 6f80 85a3 7342 c539 04fe a4b4 ffac 96b8
00000030: 528b be3c 926e 75b4 7e31 723a dfd6 cbb9
00000040: f55d afba 4508 d038 f7b2 a63b 980d 6ea5
00000050: a6ed 6ab8 d08d 5736 05c1 37b3 5bdc 6b3c
00000060: 405e 5f35 6cf8 4332 34f4 a63c c584 90ad
00000070: 4c62 e82e 0885 713c 9bc5 893c 4603 7738
00000080: c148 8cb2 d006 b135 f6c3 4338 8d8f 2bba
00000090: 490e 0f2f 4f4a a33a f844 aebc 7a22 932f
000000a0: 8c35 bcbc e9ee afbc 4eee 7c3b 3617 a9bb
000000b0: 25de f5b4 06ab bebc 22ea c93a 97ba c3b5
000000c0: 325f 2737 57ad 5abc ea86 053b d22b 3dbc
000000d0: dcc0 5831 4d0d d63a 9c57 46ae 93df e0b3
000000e0: 124b 363c 6df1 c1bc e26a 522e ce97 7938
000000f0: 8cfe 0b33 c625 462c 372c d1b8 5ae1 f23b
0.00013253628 -0.0061268145 -5.2932134e-09 -2.2674696e-16 -0.0025652135 -1.676201e-08 1.3918628e-06 0.00015442792
-1.4474283e-17 0.00037624277 -3.07322e-07 -7.1847804e-05 0.023259792 -2.2857628e-07 0.00092389423 -0.0003887927
-0.0013379442 9.919753e-05 0.0050872522 -2.0647815e-16 -5.6011275e-05 3.2120042e-06 -4.2783558e-08 0.014395799
8.3211125e-07 1.14069785e-08 0.020380117 -1.6429866e-11 1.05675996e-10 0.01474119 0.016817858 5.8892438e-05
-1.633123e-08 1.318951e-06 4.6674126e-05 -0.0006544523 1.301085e-10 0.0012458059 -0.021273121 2.676364e-10
-0.022974752 -0.021476226 0.003859419 -0.0051602377 -4.5796438e-07 -0.02327491 0.001540486 -1.4582937e-06
9.97614e-06 -0.0133469915 0.0020374605 -0.011546092 3.1541765e-09 0.0016330868 -4.50978e-11 -1.0471481e-07
0.011126297 -0.023674691 4.7843403e-11 5.9507605e-05 3.259497e-08 2.815846e-12 -9.974132e-05 0.007412118

exp_avg_sq f4 [1, 64]
00000000: 5574 0f37 817b 163b add8 4f37 3ed9 3437
00000010: d6af d836 c9e6 593a 2a3b cb36 9955 d936
00000020: 9cc4 f336 bb07 8f37 d148 dc36 1598 e636
00000030: 9291 163b 0f9d 0237 548e 9536 5000 0337
00000040: 2113 4137 59cc bd36 a38e 013b d9b1 9137
00000050: fe7e ad36 1b85 bd36 a38e 5437 191d 0a3b
00000060: 3fb4 e336 b670 b236 f853 273b ca45 3137
00000070: f758 d736 e14d 053b ab3e 053b 9bfa 4537
00000080: f76e b536 81f2 1138 fba0 1a37 4d14 1537
00000090: e615 2a37 a6f4 1037 d125 233b 967e 0e37
000000a0: f355 273b 1c8a 263b 1fb7 5137 52e3 d936
000000b0: b8e2 1b37 93b5 163b 13bb d836 c7a8 a236
000000c0: 1243 3e37 04a2 0c3b c085 5d37 3ad8 1e3b
000000d0: bd3e ba37 aa0f 0f37 11af 2337 020d 0a37
000000e0: 188a 1d3b 80c8 1d3b 7900 7937 8c71 a436
000000f0: cc97 5036 a4d2 2b37 3f2d ad36 016e 5438
8.55055e-06 0.0022961798 1.238861e-05 1.0779417e-05 6.4577716e-06 0.0008312283 6.056759e-06 6.477069e-06
7.2648527e-06 1.7050528e-05 6.564988e-06 6.872239e-06 0.002297495 7.785172e-06 4.457115e-06 7.808281e-06
1.150815e-05 5.656428e-06 0.0019768856 1.7368164e-05 5.1705856e-06 5.6481344e-06 1.2669395e-05 0.0021074472
6.7861106e-06 5.3179347e-06 0.0025532227 1.0566271e-05 6.417856e-06 0.002034061 0.0020331542 1.1800464e-05
5.4071384e-06 3.4796543e-05 9.2165965e-06 8.885819e-06 1.0137888e-05 8.6400305e-06 0.0024894367 8.493333e-06
0.0025533407 0.002541191 1.2500007e-05 6.4935675e-06 9.291507e-06 0.002299641 6.45908e-06 4.8476245e-06
1.13404985e-05 0.0021458874 1.3203768e-05 0.0024237768 2.2202143e-05 8.527111e-06 9.756318e-06 8.22847e-06
0.002403861 0.0024075806 1.4841667e-05 4.9007995e-06 3.1082773e-06 1.0241438e-05 5.161069e-06 5.0647188e-05
