Lab_4/logs_task_1b/epoch=0-step=600-v2.ckpt (torch, 125259 bytes, 8 tensors)

conv1.weight f4 [16, 1, 5, 5]
00000000: 3eef ce3d 48dd 213e 901d 3a3d 200e d2bd
00000010: 754b 0fbe d289 f13d b9f1 083e ee0f aa3d
00000020: 554a 89bd 464c 0fbe d61d 923e 5495 643d
00000030: 1457 1e3e fbde 293b 46ec 363d 2a14 bb3c
00000040: c72b 2f3e d05a f83c 2cde 453d 5316 fd3d
00000050: 4be1 a33e 376f cb3d e476 483e e3b6 2d3e
00000060: 0ebc 5bbc 90aa 963d c086 b9bd 0a1d 5f3e
00000070: 59a0 6a3e 1f84 293e 672a 873e dd63 02be
00000080: 098f 5c3e 77e5 443e 36ab a2bc 8bd0 5d3e
00000090: 9f0e d4bd 6248 853e 0477 103e b57b 453e
000000a0: 1c9f 4fbc d4e0 f43d 326d 1a3e e0fe 40be
000000b0: 1117 07be fdf1 01be 6896 49be 0de7 bcbd
000000c0: b3cb 46be 3fe9 f5bd 81bb 143e 1e7a 113e
000000d0: e24c 41bd ee91 3ebe 41f2 e1bd 8a47 ca3c
000000e0: 1305 353e 66c0 023d f0dc 64bd fc14 94bd
000000f0: a2fd 26be 9493 bdbd 36cb 93bd 87c8 afbc
00000100: e2d1 16be 700f 16be 305e 41be 035d 8cbc
00000110: b4a3 ddbd a00b 793c 607e 4fbe 645b c53d
00000120: 597b 6a3d f9d2 293e ea55 6e3e a25c b83d
00000130: 2e96 3b3e bea2 3dbe e91f 78be 8990 98bd
00000140: 973d 223e 6eda 663e f283 133b b040 7abe
00000150: b831 11be f6a1 943e 21dc 013e a700 d0bd
00000160: ebde 41be 3e1a 003e 2d0c 6d3e c1c7 febc
00000170: 9d08 2c3e 1773 9dbe 13f8 02bd c3e6 173e
00000180: 82b7 4b3e 59ae e1bd c69d 64be e405 febd
00000190: a909 7d3c dcf9 a2bd eced afbd 8192 b5bd
000001a0: 89a7 76bc e744 f73c 0d72 34be d11d 083e
000001b0: c7ba ecbc c55b 2ebe 0fec 99bd e0f1 543d
000001c0: 9d18 2f3d 9516 bebd f80b 02bc 203f 0ebe
000001d0: 9072 d4bd c9fe 133e 2963 b33d 1851 20be
000001e0: 3d4e 3e3d 687a 0ebe 7bfd e6bd c2af d03d
000001f0: c638 37be 5d56 643d 1878 d53c cc2a 0dbe
00000200: 1dfa 30be 29a1 85bd 4a0f 1c3e c780 27be
00000210: 975f babb 7033 10be 1a6e a4bd bca0 e9bd
00000220: a224 51be 92a4 91be 908d ed3d 4091 24be
00000230: feef 763e a05a 263d 25cf cbbd 4c73 bb3d
00000240: 707d fd3d 5f23 c3bd a790 873e ec4a 2c3e
00000250: ae26 fa3c 67c1 5c3e 7d41 42be 266e 1fbe
00000260: 0b0d acbd 85e7 113e e123 1f3e 9a7e 063d
00000270: e244 7cbe a03c ffbd 433b dc3b 01ad 623e
00000280: 6b72 183e d132 54be 69a3 3dbc 518a b03d
00000290: 819f 7e3e 023b 583e f8f1 71bd 4599 c03b
000002a0: 6c66 153c f706 513e e4a5 febd b204 35ba
000002b0: deb3 13bd 332a 77bd 7bae 1c3e c426 323e
000002c0: c2e5 28be 0e42 37bd 6c5e 8c3c c587 63bd
000002d0: 39ca 283d d57d 30be a14b f73c 83ab 153e
000002e0: 1ca6 20be bad8 5ebb d689 8cbd f73d 273e
000002f0: 42e4 28bd 0448 87bc 9a9f b9bd d5b3 913d
00000300: 2261 6bbd 6351 bb3d 7c28 75bd 0692 88bd
00000310: 425d af3d 525d 3dbd 1bc7 853d 85fd 13be
00000320: 4db5 803e 6570 9f3e b8aa f9bd 6a54 a63d
00000330: c7b8 b33d 233d 003e ae42 853e 1b7e 0cbe
00000340: 6bdf 453d a4e1 473e 98cd 18be 9aa0 94bd
00000350: 8e25 95bd 99a2 cbbd d0a8 5c3d a548 afbd
00000360: c553 38be 00b3 41be c368 b5be 2b22 16bd
00000370: b596 8a3e fb1e 2e3e 2abc e73a 100b 83be
00000380: d502 5fbe eeb5 8fbc c055 9a3e 5e20 9e3e
00000390: d958 3b3e ba9b e23b 0371 97bd e81e 8c3e
000003a0: 6835 3c3e eb00 c3bc bdb1 323e b083 00bd
000003b0: 5726 773e d87b 9f3d 6707 adbd 5ab5 8b3d
000003c0: 12d2 ea3c 258f e73d 6354 94bd 9a06 20bd
000003d0: caeb 603d 1b62 bcbd ed9b 10be 3e42 0b3c
000003e0: 8074 2e3e 1fb2 a63d 9c12 bb3d 5e53 8c3e
000003f0: cb77 383e 042e 3b3e 34e6 393e 25d7 fdbd
0.101042256 0.15807068 0.04543835 -0.102566004 -0.13993628 0.11793865 0.1337346 0.083038196
-0.06703631 -0.1399394 0.28538388 0.055806473 0.15462905 0.002592026 0.04465892 0.022836763
0.17106543 0.03031674 0.048307583 0.12357774 0.32007822 0.09933322 0.19576603 0.16964297
-0.013411535 0.07356751 -0.09058905 0.21788421 0.2291273 0.16554306 0.26399538 -0.12733407
0.21538939 0.19228159 -0.01985703 0.21661584 -0.10354351 0.26031786 0.14107901 0.19285472
-0.012672212 0.11956945 0.15080717 -0.18847227 -0.13192393 -0.12689967 -0.19686282 -0.09223757
-0.19413643 -0.12007379 0.14524652 0.1420674 -0.04719246 -0.18610355 -0.110325344 0.024692316
0.17677717 0.031921767 -0.055874765 -0.07230565 -0.1630769 -0.09256664 -0.07216494 -0.021457924
-0.14728501 -0.14654326 -0.18883586 -0.017134195 -0.108222395 0.0152005255 -0.20263052 0.09636572
0.05724654 0.16584386 0.23274961 0.09002043 0.18319008 -0.18519112 -0.24230923 -0.07449443
0.15843807 0.22544262 0.0022509065 -0.24438739 -0.14179122 0.29029816 0.12681629 -0.101563744
-0.18932693 0.1251001 0.23149176 -0.03110111 0.1680016 -0.3075187 -0.031974863 0.14834122
0.19894221 -0.11019582 -0.22325811 -0.12403467 0.015444198 -0.07957813 -0.08590302 -0.08865834
-0.015054592 0.030184222 -0.17621632 0.13292624 -0.028897656 -0.17027195 -0.07515728 0.051988482
0.042748082 -0.09281651 -0.007937424 -0.13891268 -0.103734136 0.14452662 0.08759148 -0.15655935
0.046461333 -0.13913882 -0.11278816 0.10189773 -0.17892751 0.055746425 0.026058242 -0.13785857
-0.1728291 -0.065248795 0.15240207 -0.16357718 -0.0056876647 -0.14082122 -0.08028813 -0.11407611
-0.2042413 -0.2844587 0.115992665 -0.16071033 0.24114987 0.04061377 -0.09951619 0.091528505
0.12377441 -0.09528231 0.26477548 0.16825455 0.030536022 0.21558152 -0.18970294 -0.15569362
-0.08400925 0.14248474 0.1554103 0.03283558 -0.24635652 -0.12462735 0.0067209317 0.22136308
0.14887397 -0.2072251 -0.011574605 0.08620132 0.24865533 0.2111626 -0.05906865 0.005877646
0.009118658 0.20412813 -0.12433985 -0.00069053017 -0.036060207 -0.06034298 0.15300934 0.173976
-0.16493896 -0.04474073 0.017134868 -0.0555494 0.04120848 -0.17235501 0.03018743 0.14616208
-0.15688366 -0.003400369 -0.068622276 0.16332231 -0.04123331 -0.016513832 -0.09063645 0.07114378
-0.05746568 0.09146383 -0.059853062 -0.06668477 0.085627094 -0.046231575 0.06532117 -0.14452179
0.25138322 0.31140438 -0.12190765 0.081215695 0.08775478 0.12523322 0.26027435 -0.1371998
0.04830877 0.19519669 -0.14922178 -0.07257195 -0.072825536 -0.099431224 0.05387193 -0.08558778
-0.18000706 -0.1891594 -0.3543149 -0.03665368 0.27068105 0.17004006 0.0017679979 -0.25594378
-0.21778424 -0.017542806 0.30143547 0.3088407 0.18295611 0.0069155367 -0.07394602 0.2736733
0.18379748 -0.023804149 0.17450614 -0.031375587 0.24135719 0.07787293 -0.084486775 0.068216994
0.028664622 0.113065995 -0.07242658 -0.039068796 0.054912366 -0.091984 -0.14121981 0.00849968
0.17036629 0.08139443 0.09134409 0.27407354 0.18014447 0.18279272 0.18154222 -0.12394551

conv1.bias f4 [16]
00000000: 868d fbbc 7255 dc3b dbda b33d e23d e1bb
00000010: d46e bcbd 32c7 253d 19e7 16be 462a 3dbe
00000020: 20f6 883d c1ec 29ba 47fe 42bc 22f0 2a3e
00000030: 348e 743e d3d0 46bb 5356 8a3e adb3 b53a
-0.030707132 0.006724053 0.08781978 -0.006873832 -0.09200826 0.04047317 -0.14736594 -0.18473157
0.066875696 -0.00064821175 -0.011901445 0.16693166 0.23882371 -0.0030336871 0.27018985 0.0013862752

conv2.weight f4 [32, 16, 5, 5]
00000000: 681d 553c 541a 233d 2eb8 8a3d aa26 b73c
00000010: 868d 89bd 7ddd 423d 5efd f53c 5643 e03c
00000020: db1e 993c 72cf 093d 0e16 453d e112 47bc
00000030: f16e e4bc 443d 353d 2148 663d 49f3 38bd
00000040: 793d 0ebd d345 58bd d281 9ebc 2281 a9bc
00000050: 6286 aabd 47c5 8cbd 2ad5 e3bd f478 39bc
00000060: 4694 293d a0c7 523c 7d7a 7f3d f637 163d
00000070: 86b2 163c 51ed 70bd 4419 c53c d870 a9bc
00000080: 4141 d73c ead1 903c 04cb c33c e4f9 0c3d
00000090: 253b 96bb e975 20bd 8f45 23bd 55d4 f6bc
000000a0: 4843 693d 1480 55bc b5ca bdbc fd85 233d
000000b0: bb3d ae3c 0e53 48bd 3fd3 ddbb 186c 7b3d
000000c0: 268d 483d 2483 5e3d 2629 693c af6f e4bc
000000d0: 0ad6 873c 22df 1e3d 6e26 f9bc accb 95bb
000000e0: 5acb 68bb 6d8e 313d 54ef c2bc 15c7 77bc
000000f0: 0984 46bc 4eff b0bc fa05 fa3c 00b2 263d
00000100: dad4 9b3c d830 bbbc 2bdc ed3c 1e13 03bc
00000110: b09a 7c3c 82b7 91bc f9a3 aa3c 066d 4e3c
00000120: 69d6 ba3c 9c96 07bd bff8 27bd 7e70 81bb
00000130: 85bc 7d3d d466 523d c01d 93bc 96c0 473d
00000140: 6b06 74bc a1cc 6d3d f98f da3c 048d f1bc
00000150: b620 a4bc 35d4 5e3d 3301 7ebc bd73 df3c
00000160: 76dd 64bd 5ac5 c33c 4e45 763d 9f56 9a3d
00000170: 0650 35bd fd67 2abd 650e 3bbd adb9 753d
00000180: 5b1f 73bb 3664 ecbc 2fba e1bc 27c4 6abb
00000190: c2fa 7cbc d266 72bc e3a9 13bd 17cd 053d
000001a0: e06f 203d 2768 80bc 7d15 bc3c 767c 2b3d
000001b0: 1053 40bd 0115 15bc 7f96 4bbd 2ba9 3bbc
000001c0: 0451 b23c f8e0 2dbd 18b4 ddbc 7577 3cbb
000001d0: ea89 473d 6097 39bd c862 53bc 2a39 d3bc
000001e0: 43e0 873c dcfa 0b3d 08af 03bd 49d3 c1bc
000001f0: 2069 9e3c db58 543c d3c0 353c 1827 003b
00000200: 4025 69bc 2f3e 713d 00d5 3cbd 6298 223d
00000210: 778f ce3b b2b5 083d c998 9cbc 5e70 313d
00000220: 30bc 45bc 9a0a fabb 003a 1abd 9a25 363d
00000230: 669c 413d 258e 483d f74b 063d ca96 a9bc
00000240: ecd8 093d 5437 11bd ac5b dabb 5966 053d
00000250: ef8c 8a3c d6eb 41bc 9e81 95bb f80d 913b
00000260: cb00 42ba e4ca 1bbd 2e36 1d3d 2acb 313d
00000270: 6671 aebb 1b16 3fbd e7f0 23bc 641d 33bd
00000280: 3ce0 da3c fa35 8a3c 14dd a1bc 9f43 c1bc
00000290: 63c1 6d3c 8290 00bd c8ed e53c 122c 9abc
000002a0: d297 e23c 42ac a93c dfc5 f2bc 6c74 5e3d
000002b0: 9ef0 273d ce93 23bd a1b2 833c fd68 c6bc
000002c0: cdde 44bd 0514 2c3d fe17 14bb 5706 dbbc
000002d0: 3233 4e3c 63d3 c13c e64c 933b 64db 00bd
000002e0: 10cb 023a 4514 d239 4f4b d8ba 0c0e 5e3c
000002f0: aa7c 3bbc dfe6 e73c d0d3 2fbd 3956 16bd
00000300: 4c28 01bd 8e3a b9bb e23c 003d f2ad 24bd
00000310: 07b6 34bd 9ff3 3bbd d65f ae3c 8eab e0bc
00000320: dd4c 543d 293c fa3b 2e29 ddbc b695 863b
00000330: 8684 9bbc 2758 513d 7fb4 ad3b 5f25 39bd
00000340: f5b8 9fbc afc5 b43c 670d 343d 2bed 15bc
00000350: 5537 ff3b 2854 8cbc 0abe 813c 7db5 03bb
00000360: 4b19 a1bc e06d 3fbc bfe4 cebc 07c1 1c3d
00000370: a007 dc3a bbeb 063d 347d 0bbd 0c40 633d
00000380: 863d 313d 8c0f d53d 8568 163d 0c81 ccbc
00000390: bf44 a1bc a00d a13b 9b31 403d 6372 c0b9
000003a0: 8bdf d13c 440f d13c 25b1 50bd 9e28 7b3d
000003b0: c8f8 013d 9b28 31bd 0e2f 22bd 279d eabb
000003c0: 3e40 8f3c e871 88ba 2b0b 13bd c0c5 343d
000003d0: c207 b0bc 10f2 35bc ecca 2abc 836b 903c
000003e0: b418 bfbb 62bb 48bc 72ad 923d 0735 dc3d
000003f0: 2fdc 1c3d 18bd 3f3c 8021 f1bc dcf2 453d
0.013007499 0.03982003 0.06773411 0.022357304 -0.067164466 0.04757451 0.030028041 0.027375858
0.01869147 0.0336451 0.048116736 -0.012150497 -0.027884932 0.04424788 0.05622113 -0.04515389
-0.034726594 -0.052800965 -0.019349013 -0.020691458 -0.08326413 -0.06873565 -0.11124642 -0.011320341
0.04140117 0.012864977 0.062372673 0.036674462 0.009197837 -0.058820073 0.0240599 -0.02068369
0.026276233 0.01767822 0.023900516 0.034418 -0.0045846873 -0.039174948 -0.039861258 -0.030130545
0.05694893 -0.0130310245 -0.023167947 0.039922703 0.02126967 -0.048907332 -0.0067695673 0.061382383
0.048962735 0.054324284 0.014231002 -0.027885286 0.016581554 0.038787015 -0.030413833 -0.0045713987
-0.0035521598 0.04334872 -0.023795761 -0.015123148 -0.012116441 -0.021606114 0.030520428 0.040697098
0.019022394 -0.022850439 0.029035648 -0.008000163 0.01541774 -0.017787699 0.020830141 0.012599235
0.022807317 -0.033102617 -0.041008707 -0.0039501777 0.061947364 0.051367596 -0.017958522 0.04876765
-0.014894108 0.058056477 0.02667998 -0.029486187 -0.020035129 0.054401595 -0.015503216 0.027276868
-0.055875264 0.023897815 0.060124688 0.07536053 -0.04426577 -0.041603077 -0.045668025 0.059991527
-0.0037097547 -0.028856378 -0.0275546 -0.0035822482 -0.015440645 -0.014795022 -0.03605069 0.032666292
0.039169192 -0.015674664 0.022959465 0.041866742 -0.046954215 -0.009099246 -0.04970407 -0.011453907
0.021767147 -0.042450875 -0.027063414 -0.0028757725 0.04871551 -0.045310378 -0.012901969 -0.025784094
0.016586429 0.034174785 -0.032149345 -0.023660319 0.019337237 0.012960638 0.011093336 0.0019554552
-0.0142300725 0.058897194 -0.04610157 0.039696105 0.0063037234 0.033376403 -0.019115822 0.043320052
-0.012068793 -0.0076306583 -0.03765297 0.044469453 0.047268294 0.048963685 0.03278729 -0.020701785
0.03365414 -0.035453156 -0.00666376 0.03256831 0.016912905 -0.011836013 -0.0045625707 0.004426714
-0.0007400631 -0.03803529 0.038381748 0.043406643 -0.0053235767 -0.04665194 -0.010006166 -0.0437292
0.026718251 0.016871441 -0.019758739 -0.023591815 0.014511439 -0.031387813 0.028067484 -0.018819842
0.027660284 0.020712022 -0.029635368 0.054310247 0.041000955 -0.03993588 0.016076388 -0.024219984
-0.048064042 0.04201128 -0.0022597308 -0.026736422 0.012585448 0.023660367 0.004495251 -0.031459227
0.0004989365 0.00040069423 -0.0016501936 0.013553154 -0.011443296 0.02830833 -0.04292661 -0.036703322
-0.03153257 -0.005652732 0.031308062 -0.04020495 -0.044118907 -0.045886632 0.021285933 -0.027425554
0.051831115 0.007636566 -0.026997175 0.0041072024 -0.01898409 0.05110946 0.005301058 -0.045201655
-0.019497374 0.02206692 0.043958094 -0.0091507835 0.0077885785 -0.017129973 0.015837688 -0.002009719
-0.019665381 -0.011683911 -0.025255559 0.038270023 0.001678694 0.032939654 -0.03405495 0.055481
0.043271564 0.10403356 0.03672077 -0.024963878 -0.019686101 0.0049149543 0.046922307 -0.00036706318
0.025619289 0.025519975 -0.05095019 0.061318032 0.031731397 -0.043251615 -0.039595656 -0.0071598473
0.017486688 -0.0010409923 -0.035899322 0.0441339 -0.021488074 -0.0111050755 -0.010424357 0.01762939
-0.0058318023 -0.012251707 0.07161988 0.10752302 0.03829592 0.011702798 -0.02943492 0.048327312

conv2.bias f4 [32]
00000000: d3a9 c03c 7a6c b23d ec33 9fb9 1538 113c
00000010: 3160 4abd 754c 8a3d e9d6 a1bc ca74 3d3c
00000020: 3cd2 a7bd 8c66 8f3c 4eed c73c 5352 123d
00000030: 1b3a 863d 8c0c 343d 8138 e4bb 80d9 5bbc
00000040: 9348 fbbc 4788 b83d 914c 0abd bc4a 983d
00000050: 275e dabc 85bf 993c a800 2e3d eb32 9c3c
00000060: 1708 b5bc 64c2 9f3d 1dba 3cbd 3239 043c
00000070: 72bc e83d 135e a13c 96a0 cf3b 4955 983c
0.023518478 0.087120965 -0.00030365528 0.008863469 -0.04940814 0.06752864 -0.019755797 0.011563489
-0.08194396 0.017504953 0.024405148 0.03572304 0.065540515 0.043957278 -0.0069647436 -0.013418555
-0.030674255 0.09010368 -0.033764426 0.074361295 -0.026656223 0.018768081 0.042481095 0.019067248
-0.022098584 0.07800749 -0.04607593 0.008070277 0.11364068 0.019698178 0.006336282 0.018595355

fc1.weight f4 [32, 512]
00000000: e3ab 25bd d5b2 123c 719a abbc 3b47 26bd
00000010: 8010 9b3c 1995 92bb cbf1 0bbc 4055 43bd
00000020: d3c8 02bd 8c30 04bd d6a0 99bc 02dd 18bd
00000030: 471c c03b 7bb8 ba3b 2b48 42bd 8849 dfbc
00000040: 981d 05bc c2b6 863d 0a68 943d 0c78 543d
00000050: 2ebd 493d 5bc4 b73d 5a3a 103c c516 da3c
00000060: 9499 98bc d469 913d ad49 b63c 342a 8abc
00000070: 1533 70bc bdd3 9fbb 71ea 07bd b2eb 52bc
00000080: d3c9 fe3c 834d f33c 3c18 8abb 15f0 45bd
00000090: a37b a0bb 59e5 b73c f065 18bd 5808 1b3d
000000a0: 4b8e 16bd ce74 25bc 055b d3bc 5862 ad3c
000000b0: 1ff7 25bd 7171 ff3c 3d43 4cbd 017d 383d
000000c0: f3a4 ebbc 31f3 213c aa7a 24bc e10d c83c
000000d0: 4cb8 873c 4591 8abc 281c 393b 39b6 dfbc
000000e0: f725 15bd c20c ce3c cd4b e9bb ae1f 58bb
000000f0: 0313 e5bc 6066 3ebc ce15 0dbc b358 5fbc
00000100: e4c5 e1bb f20e 3cbb d83c 643d 4d55 a1bc
00000110: 6164 8fbc 79c2 3dbd 976d d73b 1827 2fbd
00000120: ed38 c8bc fc6b f8bc c23c e53c c6b1 03bd
00000130: 21cb 33bc 845f 5bbc b82c 863c 896e 033d
00000140: 4cf0 103c 82b2 743c 4d91 a1bc f8f1 013d
00000150: a864 223d 8130 143d 7714 58bd c12d 253b
00000160: 0859 22bc 154d f0bc 5818 44bd 2da9 cf3c
00000170: d54a a3bc 740a 1cbc 8f51 02bb b75e 153c
00000180: 69a4 06bc 830c f5bc 7220 d93b 3119 8d3c
00000190: 6949 c83c c099 74bb 075e 1fbd 85d9 0abd
000001a0: 69b8 323d ed36 08bd 6567 ee3c b178 75bc
000001b0: 0d41 ed3c 2ab5 313d f5d0 2b3d cfee 7c3c
000001c0: 3c0c 3d3c b891 ffbc c552 a5bb 4fcb b5bc
000001d0: 4cf6 5e3c 0cc6 773b dcfd 45bc a3b6 2fbc
000001e0: 9f42 7cbc 7b8b af3c 6c1f 0dbc be0a 8fb7
000001f0: ca7f 70bb 7fcd 1e3d f131 153c 9095 6e3c
00000200: 4aa7 253d 0a16 c4bc c003 753d 5ddc bbbc
00000210: cc86 f4bc 2852 80bc 4b8c f63c 4547 bc3c
00000220: e2cb 0bbd 05f0 1cbd ea9c 77ba f5c5 8b3c
00000230: b4c1 883c cdb3 63bd 35b2 4dbd d6c9 573b
00000240: 9c44 5c3d 9f33 9ebc 16ec 1f3d 0c17 813d
00000250: 7d5a 863d ce10 813b 9598 973d 4559 a83c
00000260: 40d9 0e3c 7b0d 323d 192f a23d 5b17 f33c
00000270: ee9a 1abc e07d a33c 0212 073b 5b22 dd3c
00000280: 137b 3bba 95c4 0c3d d860 0d3d ffee bfbc
00000290: 97c2 e2bc 36bb 3a3b fb34 9fbc 9746 aabb
000002a0: aab3 49bd 8b3f 9bbc 4c33 473b 97d9 2b39
000002b0: 43ce 30bd f4b4 94bd e7b2 debb dd6d 36bc
000002c0: 6a30 30bd d6a4 fdbb 6c64 6fbc 2a69 943b
000002d0: decb 983b 59ba b0bc 6da4 b73a 7fdc b13c
000002e0: d7a0 15bc 2a9f 31bd 429e 5dbc 026c 8cbc
000002f0: d6eb 92bd 3494 84bd 86b0 d3bc 0502 4bbb
00000300: 4a02 b2bc 3de3 6dbd 70cd 29bc 4ac8 19bc
00000310: e5ed 40bd c29f 643b 4a24 46bd 52cc 063d
00000320: 9498 1ebd 3cb9 3cbd 3dff 0e3c d7db f83c
00000330: 3de3 f73c db84 093d 073f d1bc f51a f5bb
00000340: b104 b03a bf03 fdbb ba48 c7bb e2bc 59bd
00000350: b596 24bc 2ec8 ebbb a26b bcbc cd0a 39bd
00000360: b487 19bd c1c1 1ebd 89f8 eabc 8628 18bd
00000370: a63e 7dbd 89ad d4bd 9705 b2bd 537c 69bd
00000380: 1695 d33a dadf 073c 200b f73c cce5 46bc
00000390: fa58 a3bc 37a6 833b 6704 343c 438f 4c3d
000003a0: 9d88 773d 727a 5c3d 12d4 79bc 8757 8a3d
000003b0: 5815 093c aac5 5d3d 3065 3bbc 6d9a 583d
000003c0: f1d1 1a3d 311a 2d3c d6e4 2c3d bab8 d2ba
000003d0: 04d8 913c a158 c43c e976 333d 8ca3 f13c
000003e0: bcc7 223d aff4 95bb bef8 4bbc 956e 8abc
000003f0: ec19 083d 3a5e d53c b02a 46bc 5b6a 0fbd
-0.040447127 0.00895377 -0.020947667 -0.040595274 0.018928766 -0.00447334 -0.008541535 -0.047688723
-0.031929802 -0.03227286 -0.01875345 -0.037320144 0.005862746 0.0056982613 -0.047432106 -0.027256742
-0.0081247315 0.06577827 0.072464064 0.051872298 0.04925268 0.08972999 0.008802975 0.026622185
-0.01862792 0.07100263 0.022251928 -0.016865827 -0.014660616 -0.004877536 -0.033182565 -0.012873577
0.031102097 0.029700046 -0.0042143147 -0.048324663 -0.004897551 0.022448229 -0.03720659 0.037849754
-0.036756795 -0.010098649 -0.025800237 0.021165058 -0.040518876 0.031182023 -0.04986881 0.045041088
-0.028765177 0.0098846415 -0.010039011 0.02442068 0.016567372 -0.016914973 0.0028245542 -0.02730857
-0.03641316 0.025152568 -0.007119632 -0.0032977867 -0.027963167 -0.011621088 -0.008611156 -0.013631987
-0.0068900455 -0.0028695432 0.055722088 -0.019693995 -0.01750392 -0.04632804 0.0065743434 -0.042761892
-0.024441207 -0.030324928 0.027983073 -0.03215196 -0.010973723 -0.013389472 0.016378745 0.032087836
0.008846354 0.014935138 -0.019722605 0.0317249 0.039646775 0.03617907 -0.05275389 0.0025204273
-0.009908922 -0.02933363 -0.04787478 0.025349224 -0.019933144 -0.009523977 -0.0019885038 0.00911682
-0.008217909 -0.029913193 0.0066261822 0.017223926 0.024449067 -0.0037323087 -0.03890803 -0.03389885
0.0436329 -0.033255506 0.029102037 -0.014982388 0.028961683 0.043385662 0.041947324 0.015437796
0.011538561 -0.031197414 -0.0050452673 -0.022191672 0.013608526 0.0037807254 -0.012084451 -0.010724696
-0.015396743 0.021428814 -0.008613449 -1.705193e-05 -0.0036697262 0.038770195 0.009106145 0.014562026
0.040442742 -0.02393629 0.05981803 -0.022932226 -0.029849432 -0.015664175 0.030096194 0.022983203
-0.034129985 -0.038314838 -0.0009445684 0.017062167 0.016693927 -0.055591393 -0.05021878 0.00329267
0.05377637 -0.019311724 0.03904351 0.06303224 0.06560228 0.003938771 0.074021496 0.02055038
0.008718789 0.043469887 0.079191394 0.029674223 -0.009436352 0.019957483 0.0020610099 0.026993921
-0.00071518234 0.034367163 0.034516186 -0.023429392 -0.027680678 0.0028492934 -0.019434443 -0.0051964032
-0.049243607 -0.018951198 0.0030395566 0.0001638889 -0.043165457 -0.072610766 -0.006796229 -0.011134592
-0.04301492 -0.0077405972 -0.014611345 0.004529138 0.0046629747 -0.021573232 0.0014010795 0.021711586
-0.0091325855 -0.04336468 -0.013526501 -0.017141346 -0.071738884 -0.0647358 -0.025841009 -0.0030976546
-0.021729607 -0.05807804 -0.0103639215 -0.009386132 -0.047101874 0.0034885262 -0.04837445 0.0329097
-0.03871973 -0.04607509 0.008727846 0.030378265 0.030259723 0.033573966 -0.02554275 -0.00748002
0.0013429133 -0.007721394 -0.0060816677 -0.05315865 -0.010045697 -0.007195494 -0.023000542 -0.045176316
-0.037482932 -0.038758997 -0.028682964 -0.03714802 -0.061827324 -0.10384662 -0.086924724 -0.05700333
0.0016142454 0.008293116 0.030156672 -0.012139749 -0.019939888 0.004017617 0.010987378 0.049941313
0.06043302 0.05382771 -0.015248315 0.06754976 0.008366905 0.054143585 -0.011437699 0.052881647
0.037797872 0.010565327 0.042210422 -0.0016076781 0.0178032 0.023968043 0.043814573 0.02949693
0.039741263 -0.0045762877 -0.0124494415 -0.016898433 0.033227846 0.026045907 -0.012095138 -0.035013538

fc1.bias f4 [32]
00000000: 6d63 1f3d a811 6e3c 9249 233c 2ffc f2bb
00000010: ba2b 593d 2bb8 553d 5da4 2abd 0839 e7bc
00000020: 3753 01bd 12f8 0b3d 3d48 5d3c 06f1 23bd
00000030: fd2f 02bd 5c8e 0f3e ff59 84bd 5cb5 f03c
00000040: 8e4d d83b 239b 97bc 095f 12bd dca3 613a
00000050: ec54 ab3d 44ab 8bbc 80e0 2d3d c61a eebc
00000060: 00e1 f9bc b9d1 b83b 0782 1f3e 05c0 b33d
00000070: c432 d43d 398c 183d 1fbb 493b ce39 e83d
0.03891318 0.014530577 0.009966271 -0.0074153165 0.053020217 0.05217759 -0.041660655 -0.028225437
-0.0315735 0.034172125 0.0135059925 -0.04002478 -0.031784046 0.1401915 -0.06462478 0.029383354
0.006601042 -0.018506592 -0.035735164 0.0008607486 0.08365807 -0.01704944 0.042450428 -0.029065501
-0.030502796 0.0056402353 0.15576945 0.08776859 0.10361245 0.0372431 0.00307817 0.1133915

out.weight f4 [10, 32]
00000000: 4811 4dbe 619b 0cbe 95ad 9dbd ef1e 583d
00000010: d654 56be 2dd0 6e3d c9c7 08bd 0394 44ba
00000020: 88d6 18bd 1b1c a4bd 0622 873d f691 dfbd
00000030: e0c2 a5be 02a5 acbd 4164 bf3d 7792 e23c
00000040: 5190 0fbe d0e1 4b3c 9504 25be d40b 43b9
00000050: 4e28 a43e 9f29 33ba cf8e f8bd 109b d23d
00000060: f2e7 513b a7b6 d5be e0ea c83e 17d8 423e
00000070: 8c99 413e e470 bd3a c0ab 60bd d504 e63e
00000080: 1a04 de3d 4512 b33e 51e9 90bd 495b 51be
00000090: 7a04 59be 5d3a abbd bf3e 18bd fbe1 653e
000000a0: 3cce d0bd 0ded 933e b94e 6ebe 414b 09be
000000b0: f5ab 853e ce30 96be 35b5 113f df5e 8fbe
000000c0: 7f40 dcbd fe47 96bd 4e5f 2a3e 044b f5bc
000000d0: a7f3 a63d 82dc 3abe d0ca e03d 6f7a 1abe
000000e0: c9c5 a53d 75b2 b1be 718b 1ebe af25 83be
000000f0: 10ae 01be 935c 15be d56e 34be bfdd 2ebe
00000100: 8eec b8bd 3ab8 ee3b 7533 e23d 9b0b dfbd
00000110: fc42 f33b f611 ecbd 57e1 583d 4164 73be
00000120: d571 6e3c 8e9a 85bd 64e6 c63c ba1c 413e
00000130: 059b 003d 2aa5 8bbe 4c92 9bbd 06ce 343d
00000140: 32e7 f33d 6b84 b93d c325 c8bd c402 f4bd
00000150: 0d68 68be 13e6 893c 6da1 20bd 7df1 eabd
00000160: a003 f7bd 09c7 ab3e 5095 983e 9e04 46bd
00000170: 8def ef3e 842f b23d 57ad 903d fab7 e73c
00000180: 93a5 4bbe 8f2c f23e b80c f5bd 39b5 81be
00000190: 0a5b 033d d9ed 553d 5b50 8d3d ba09 7fbe
000001a0: c958 31bd 054d 853e 3f72 0abe a584 0a3e
000001b0: 8129 1a3e b07b a1bd 492f abbe d1db 24be
000001c0: d28f 933d f1ae 30bd 0e6d b8bd 02b4 273e
000001d0: b7e9 b53e ca91 33be bc76 ffbd 12e3 0c3e
000001e0: 076d d43c db5c a3be ac1d 063d 2172 c2bc
000001f0: bc6d 033e 1ce5 debd 918f b6bd 6450 603e
00000200: 79b0 23be fd48 b23e 93df 673d dd11 a2be
00000210: f207 26be f8e5 c1bc 00b5 333e 6b41 93be
00000220: 0ac3 08be 6646 ef3e f498 d23d bac3 f73c
00000230: a7e2 31bc 20db 5dbe 0fb4 26be e1f4 ca3d
00000240: 7a25 2d3d 4e90 073e 29c5 bebc 9be7 cabd
00000250: 8d27 83be ea73 743d 21ed 553d 5716 1a3d
00000260: ebf6 293e 3724 923e 44af 40be 2065 c7bd
00000270: 9fcc e93e 336c b93c b52b 34bc 2925 15be
00000280: e2d9 853c 7492 d1be 3af0 03be 32b8 de3e
00000290: 6f71 c7bd 9e9d debe 86b1 cbbd 17fa 973e
000002a0: f73c 08bd 0293 00be db70 50bd b58c 08bd
000002b0: 5c59 743d 6f91 b33e 6720 42be 524c de3e
000002c0: f8bd 693d e5b5 6d3e 76b1 963e 3ca1 1d3e
000002d0: a9a8 aa3d a767 9a3d a507 59be b1f7 19be
000002e0: 6211 1f3e c0f0 a63d 714a 9abe a7e0 9a3d
000002f0: e6e8 cfbe f17c fd3d b1ec 0c3d 1ea7 9abe
00000300: 0c9e ff3c b6e8 a1bd f529 debb 457b f0bd
00000310: ba68 e93c 7d55 2e3d f7e7 073e 0314 a1be
00000320: dbf7 87bd 481f 453e e3f5 a73d 3b9f 20be
00000330: fa9f 14be 4586 b4bd d0fe 11be 6ab8 e03d
00000340: dc9f 553c 8ff2 cabd 8481 a73c 5d76 d8b9
00000350: f5b8 7a3e 97b9 a7bc 9ed7 1b3d 8f99 133e
00000360: 5e44 8bbd 40ea e63b 808b c13e 4e4c 92bd
00000370: b540 da3e 36a2 fb3d be55 a4bd 9682 d33d
00000380: e55d 33be 4052 c4bd 61ef 4e3b 5d31 0a3f
00000390: bf4a 123f 3223 333e c9a2 0fbd 6f9a 413e
000003a0: 78c0 33be 50a4 42bd e10d 553e 4608 e93b
000003b0: fe2c 6d3d e7b8 a33e 88ee 09be eba3 c73c
000003c0: 7f12 6ebd c1ec 49be 6a65 34be 32e5 173e
000003d0: 48ce 5ebe 42d9 08be 5979 afbd 19d4 db3b
000003e0: c21f a83d e220 a7bd d73c c2be 9ed6 5ebe
000003f0: 0277 f1be c697 49bd 8c8a 203e e9d1 bebe
-0.20026124 -0.13731147 -0.07699124 0.052763876 -0.209308 0.058304 -0.033393655 -0.0007498862
-0.037313968 -0.08013173 0.06598286 -0.10916512 -0.3237524 -0.0842991 0.09345294 0.02765773
-0.14019896 0.012443975 -0.16115029 -0.00018601055 0.32062 -0.000683451 -0.121366136 0.10283482
0.003202912 -0.41740915 0.39241695 0.19027744 0.1890623 0.00144532 -0.054851294 0.44925562
0.10840626 0.34974876 -0.070757516 -0.20444979 -0.21193114 -0.08360741 -0.037169214 0.22449486
-0.10195586 0.28891793 -0.23272218 -0.13407613 0.26107755 -0.2933411 0.56917125 -0.28002068
-0.10754489 -0.0733795 0.16637918 -0.029942997 0.08151942 -0.1824818 0.109761834 -0.15085767
0.08094365 -0.34706464 -0.1548288 -0.25614688 -0.12664056 -0.14586096 -0.17620404 -0.17076777
-0.09029494 0.007285145 0.11044971 -0.108908854 0.0074237566 -0.11526863 0.052949276 -0.23768713
0.014553507 -0.065236196 0.02427978 0.18858615 0.03139784 -0.27274448 -0.07596263 0.04414179
0.119093314 0.0905846 -0.097728275 -0.1191459 -0.22695942 0.01683334 -0.039216448 -0.114718415
-0.12061238 0.3355029 0.29801416 -0.048344247 0.4686245 0.08700469 0.07064312 0.028285969
-0.1988738 0.4729962 -0.119653165 -0.25333574 0.032069243 0.052228782 0.06900092 -0.24906054
-0.043297563 0.26035324 -0.13520144 0.13527162 0.15054895 -0.0788492 -0.33434513 -0.16099478
0.07205166 -0.043135587 -0.090051755 0.16377261 0.35529873 -0.17536083 -0.12473819 0.13758495
0.025930895 -0.3190678 0.03274314 -0.023736062 0.12834829 -0.10883543 -0.08914102 0.21905667
-0.15985288 0.3482131 0.0566097 -0.31654254 -0.16213968 -0.023669228 0.17549515 -0.28760847
-0.13355651 0.46733397 0.1028308 0.030244697 -0.010857261 -0.21665621 -0.16279624 0.09909988
0.04227207 0.13238642 -0.023287373 -0.099074565 -0.25616112 0.059680857 0.052228097 0.03761896
0.16598098 0.28543255 -0.18816859 -0.09736085 0.45663926 0.022634601 -0.010996749 -0.14564957
0.016339246 -0.40932047 -0.12884608 0.43499905 -0.097384326 -0.43479627 -0.09945969 0.2968299
-0.033261266 -0.12556079 -0.050888877 -0.033337314 0.059655532 0.35071895 -0.18957673 0.43417603
0.057065934 0.23213919 0.29432267 0.15393537 0.083329506 0.07539301 -0.21194322 -0.15035893
0.15533975 0.08151388 -0.3013492 0.0756238 -0.40607375 0.12377346 0.034405414 -0.30205625
0.031203292 -0.07905714 -0.006779904 -0.11742262 0.02849232 0.042561997 0.13272081 -0.3146058
-0.066390716 0.19250214 0.08201196 -0.15685742 -0.14514151 -0.088146724 -0.1425736 0.10972674
0.013038602 -0.09909546 0.0204475 -0.00041286918 0.24484618 -0.020474238 0.038047425 0.14414047
-0.068001494 0.0070469677 0.37801743 -0.0714346 0.42627493 0.12286799 -0.080241665 0.10327642
-0.17516287 -0.095860004 0.0031575786 0.5398157 0.57145303 0.17493895 -0.035067353 0.18906568
-0.1755389 -0.04751998 0.20806076 0.007111582 0.057904236 0.31977007 -0.13469899 0.024370154
-0.058123108 -0.1971922 -0.17616811 0.14833525 -0.21758378 -0.13364127 -0.08568067 0.0067086336
0.08209182 -0.08160569 -0.37937042 -0.21761557 -0.47161108 -0.049217008 0.15677851 -0.37269524

out.bias f4 [10]
00000000: b9cd ad3d d245 86be 14a6 77bd cb27 d5bd
00000010: 9ca2 5abe f568 4f3d d703 e63d 565e cdbd
00000020: 0624 7c3d e425 20be
0.08486504 -0.26225144 -0.06046112 -0.104079805 -0.21351093 0.050637204 0.11231201 -0.10027759
0.061557792 -0.15639454
