Lab_4/logs_task_1b/epoch=59-step=36000.ckpt (torch, 125259 bytes, 8 tensors)

conv1.weight f4 [16, 1, 5, 5]
-0.26194865 0.26756936 0.09458301 -0.46986127 -0.89445794 -0.15874642 0.47390503 0.04687991
0.16288675 -0.8913636 0.11991553 0.41850728 -0.12130075 0.37807602 -0.320752 0.13549638
0.1614405 0.10286776 0.08013585 -0.059487116 0.04628452 0.20773253 0.14054966 0.19472353
0.025922658 0.013338639 -0.0103049325 0.0421024 0.15992337 0.004981352 -0.03278727 0.0046515632
-0.051889915 0.11722195 0.12287178 -0.39231452 -0.31621504 0.048299037 0.6925936 0.20479856
-0.3651093 -0.8550445 -0.17175291 0.57500327 0.50727737 -0.38172013 -0.27372998 -0.48952335
0.03442524 0.16178817 -0.11836933 0.32891214 -1.0137345 0.40652412 0.36278254 0.16874892
0.19152902 -1.6885347 0.8932999 0.42995873 0.057081014 -0.2591639 -0.5995707 0.9031681
-0.1457008 -0.09044588 -0.08494754 0.16240653 0.13049994 -0.088818334 0.00863523 0.023498489
-0.012783723 -0.014794935 0.023339203 -0.24197818 -0.07261275 0.14962725 -0.05625942 0.08330604
-0.088748276 -0.33659223 -0.37174776 -1.4543798 -0.6854307 0.6360761 0.29534093 -0.083504565
-0.08149935 -0.06678714 -0.30866832 0.25357288 0.87303823 0.70591867 0.076484084 -0.04264656
-0.31504524 -0.16842571 0.32676595 0.5801919 -0.004284408 0.19124344 0.55558926 0.1969849
-0.92782503 0.09271271 0.16944678 0.079947084 0.36592934 -0.2439768 0.083725944 -0.035225794
-0.21263875 -0.35254294 0.5580684 0.048517287 0.054856945 0.05503194 -0.30147028 -0.15607117
-0.02064034 0.064361475 -0.12551028 0.03606756 0.06829234 -0.1696709 -0.5661772 -1.043992
-0.5676837 0.0040829303 0.3672574 -0.30759495 -0.09237017 0.33852217 -0.0062940414 -0.13591787
0.014143479 -0.09158025 0.11171963 -0.0015308323 -0.14157787 -0.052090377 0.16557853 0.07907125
0.22192371 0.3275677 0.42011896 0.62656415 0.5161355 0.28732297 0.087124474 -0.048488144
0.1478193 -0.028539324 0.07795573 0.010726026 0.09737615 0.13249987 0.103613555 0.057211816
0.1624463 0.036935564 -0.10116589 0.0034861416 0.103166126 0.114135854 0.4041584 0.2236898
-0.15578322 0.063315324 0.028349862 0.033627417 -0.088469796 0.3052981 0.20509015 -0.36439547
0.149455 0.4066626 0.20177773 0.043786056 0.082701266 0.2806051 0.054721225 -0.29146484
-0.117979445 0.21880251 0.121628456 -0.8429903 -1.0588173 -0.025461905 0.47079465 -0.5156343
-1.7414533 -2.0628264 -0.7152409 -0.2094959 -0.77381134 -1.4367474 -1.168082 -0.4491232
0.5131638 0.1174071 -0.25186357 -0.36180016 -0.30220765 0.46796116 0.4601653 -0.12650357
-0.4124816 0.17513697 0.5883388 0.24490686 -0.38119978 -0.044325307 0.20962451 0.5232773
0.15473802 -0.29916853 -0.19666189 -0.099366724 0.23855892 -0.35996506 -0.3826538 -0.3157329
-0.004423244 0.12157466 0.45829287 0.28651875 0.6002074 0.34085435 -0.24374472 -0.35197967
-0.2427211 0.7570315 0.3698892 -0.04176772 0.1401261 -0.23850419 0.3367825 -0.30473182
0.028603096 -0.14596066 -0.1065984 0.11614324 -1.0858494 0.13664015 0.122575074 0.53106445
-0.094111055 -1.0654541 0.0075792586 -0.04851183 0.15659489 0.0040187784 -0.013685431 -0.05692625
00000000: 221e 86be dafe 883e bdb4 c13d a891 f0be
00000010: 32fb 64bf 6c8e 22be aea3 f23e 2605 403d
00000020: c9cb 263e 6830 64bf 4696 f53d 9646 d63e
00000030: 876c f8bd 2e93 c13e 9b39 a4be 90bf 0a3e
00000040: a950 253e 55ac d23d 441e a43d c3a8 73bd
00000050: d694 3d3d d6b7 543e 40ec 0f3e 9b65 473e
00000060: c15b d43c 4f8a 5a3c 05d6 28bc 9173 2c3d
00000070: f4c2 233e 9c3a a33b f24b 06bd 246c 983b
00000080: 858a 54bd 1012 f03d 33a4 fb3d 73dd c8be
00000090: f0e6 a1be 36d5 453d d04d 313f b7b6 513e
000000a0: 9bef babe 32e4 5abf ffdf 2fbe 6a33 133f
000000b0: eedc 013f d270 c3be 5626 8cbe cea2 fabe
000000c0: 7b01 0d3d ccab 253e 9f6b f2bd 2c67 a83e
000000d0: 0dc2 81bf ee23 d03e a2be b93e 84cc 2c3e
000000e0: 2f20 443e e821 d8bf 4daf 643f 8d23 dc3e
000000f0: c8cd 693d 21b1 84be 777d 19bf 0636 673f
00000100: 9732 15be b13b b9bd faf8 adbd e64d 263e
00000110: c7a1 053e 63e6 b5bd c87a 0d3c e77f c03c
00000120: d272 51bc 7466 72bc db31 bf3c 21c9 77be
00000130: feb5 94bd e337 193e 4770 66bd 5b9c aa3d
00000140: a8c1 b5bd d155 acbe b955 bebe 1e29 babf
00000150: 6378 2fbf e2d5 223f ed36 973e 7104 abbd
00000160: 22e9 a6bd b2c7 88bd c609 9ebe 4ed4 813e
00000170: 6f7f 5f3f 16b7 343f b0a3 9c3d 29ae 2ebd
00000180: 9c4d a1be ca77 2cbe de4d a73e 7587 143f
00000190: 3864 8cbb 52d5 433e 193b 0e3f 69b6 493e
000001a0: f185 6dbf 29e0 bd3d 7583 2d3e 4cbb a33d
000001b0: 175b bb3e 0ed5 79be 8278 ab3d ec48 10bd
000001c0: f9bd 59be 8280 b4be 92dd 0e3f 10ba 463d
000001d0: adb1 603d 2c69 613d 505a 9abe 1fd1 1fbe
000001e0: ee15 a9bc f3cf 833d c485 00be 94bb 133d
000001f0: dbdc 8b3d 35be 2dbe fdf0 10bf 88a1 85bf
00000200: b853 11bf 1aca 853b 2909 bc3e 167d 9dbe
00000210: 922c bdbd c752 ad3e 3f3e cebb 0e2e 0bbe
00000220: 0dba 673c 6d8e bbbd 43cd e43d 35a6 c8ba
00000230: caf9 10be b85c 55bd 6b8d 293e 1cf0 a13d
00000240: f83f 633e f4b6 a73e d519 d73e 8266 203f
00000250: 7521 043f ff1b 933e 516e b23d 819b 46bd
00000260: f15d 173e 4dcb e9bc 41a7 9f3d 37bc 2f3c
00000270: 266d c73d 0cae 073e 5833 d43d f056 6a3d
00000280: 5358 263e bf49 173d 1030 cfbd c077 643b
00000290: c348 d33d 0fc0 e93d daed ce3e f00e 653e
000002a0: a385 1fbe 77ab 813d f83d e83c e7bc 093d
000002b0: a72f b5bd 0850 9c3e 2703 523e 0b92 babe
000002c0: bb0a 193e 1536 d03e d29e 4e3e 0259 333d
000002d0: 485f a93d 79ab 8f3e 5d23 603d e13a 95be
000002e0: 359f f1bd c40d 603e 5718 f93d 36ce 57bf
000002f0: 5387 87bf 7c95 d0bc ff0b f13e 9c00 04bf
00000300: f1e7 debf 5905 04c0 071a 37bf 1886 56be
00000310: 8018 46bf 57e7 b7bf b683 95bf 7af3 e5be
00000320: b45e 033f 2273 f03d 43f4 80be df3d b9be
00000330: f6ba 9abe 9b98 ef3e c99a eb3e 278a 01be
00000340: ca30 d3be 1b57 333e 5f9d 163f ddc8 7a3e
00000350: 9e2c c3be 748e 35bd cfa7 563e 80f5 053f
00000360: a573 1e3e 9e2c 99be bc61 49be c880 cbbd
00000370: ca48 743e 574d b8be 33eb c3be bea7 a1be
00000380: dcf0 90bb 23fc f83d 5da5 ea3e 96b2 923e
00000390: 31a7 193f 7684 ae3e 3798 79be ae36 b4be
000003a0: e18b 78be d1cc 413f 1e62 bd3e a114 2bbd
000003b0: 377d 0f3e 713a 74be c16e ac3e cf05 9cbe
000003c0: 0a51 ea3c b676 15be 4350 dabd 82dc ed3d
000003d0: 1dfd 8abf 65eb 0b3e a408 fb3d d7f3 073f
000003e0: 4cbd c0bd cd60 88bf 6e5b f83b 57b4 46bd
000003f0: 695a 203e f5af 833b dc38 60bc 802b 69bd

conv1.bias f4 [16]
-0.015830316 0.103139035 -0.009497058 0.06818806 -0.06513058 -0.093780614 -0.731236 0.96164477
-0.03538855 -0.112392746 -0.01604676 -0.29057056 0.006627093 -0.10410236 -0.038298745 0.2288656
00000000: 94ae 81bc 8f3a d33d 8c99 1bbc 2ea6 8b3d
00000010: 2e63 85bd 0d10 c0bd 4832 3bbf 5a2e 763f
00000020: 96f3 10bd 2b2e e6bd 7f74 83bc aac5 94be
00000030: 1628 d93b 9e33 d5bd 25df 1cbd be5b 6a3e

conv2.weight f4 [32, 16, 5, 5]
-0.08469003 -0.01399656 0.0063010193 -0.018576924 -0.04181813 0.14979365 0.16729859 -0.020317812
0.055360507 -0.060569596 0.12601554 0.035844117 -0.08498352 0.0005102466 -0.03638982 0.06330621
-0.055378526 -0.1158082 -0.111756 0.059563763 0.12244148 0.10578336 -0.061769214 -0.15329741
-0.03709722 0.16797543 0.14968267 0.06298514 0.10560561 -0.037915453 0.035882637 -0.049253684
-0.12659049 0.00842465 0.03211019 -0.08750865 -0.15679328 -0.08703204 0.0012803333 0.014261248
-0.10854039 -0.09693109 0.005266803 0.16103949 -0.026302287 -0.051992513 -0.027579555 0.04951296
0.06370894 -0.031092046 0.21290345 0.12988028 0.11959731 -0.08597938 -0.010881176 0.19702229
-0.0020743716 0.09106099 0.06031903 -0.038525026 -0.02364036 -0.029322911 -0.09406159 0.016540427
0.015300926 -0.027352395 0.08829065 -0.10375665 -0.05964516 -0.022406265 -0.12565401 0.0028728924
0.01422036 -0.051576864 -0.008379094 -0.12937014 -0.012311126 0.02134679 -0.023059439 0.01143936
0.006279053 -0.013569142 -0.071346715 0.041069627 0.064974755 -0.11806445 -0.068912 0.07748859
0.039156068 0.01751106 -0.034015898 -0.13162272 0.041760374 0.0041093845 0.016515555 -0.11466144
0.07752941 -0.007357382 -0.16342409 -0.017807368 0.087802194 0.0062816665 0.03498169 -0.012538408
-0.027489472 0.062292356 0.063432015 -0.058338165 0.013693122 -0.054065127 -0.069100074 0.020909915
0.006303654 -0.061143365 -0.042858973 0.036652535 -0.076821335 -0.08611793 -0.037350148 -0.039499294
-0.025310304 -0.0011986403 -0.01597114 -0.030631058 0.029596092 0.07012957 0.040648036 -0.09184247
-0.12528607 -0.0035235197 -0.015114814 0.079056956 0.07712484 0.07623055 0.010990521 0.000995369
0.102339864 -0.003422972 0.014570331 0.008946211 -0.017355636 -0.04335365 -0.01988942 0.044947732
0.0645483 -0.11189473 -0.13551997 -0.04679995 -0.030811422 -0.012311079 -0.05921138 -0.03936856
-0.06592249 -0.025576964 -0.05457597 -0.07058059 -0.0015250458 -0.08853344 -0.11103299 -0.114568874
-0.010620542 -0.00825026 -0.115460634 -0.04690738 -0.0825531 -0.088752925 -0.026737623 -0.08614805
-0.09995691 -0.092512526 -0.05213553 -0.0813196 -0.11673421 -0.095491625 -0.07972314 0.014443573
0.0952762 0.097429454 -0.07617793 0.03396768 -0.087135784 0.038652327 0.02408278 -0.015723744
-0.059583187 -0.13934769 0.14664051 0.24190065 0.046271604 -0.08808328 -0.027743654 0.41040465
0.58386 0.16886748 0.06099683 0.060909964 0.24995378 0.29120645 0.07799022 -0.0627037
-0.031197546 0.05272505 0.10406901 -0.053814236 0.022300318 -0.0046707503 0.1105941 0.0803524
-0.13017291 -0.00552707 -0.019390041 0.08351218 0.043182597 -0.14419898 -0.044662066 0.070978306
0.11687799 0.030367102 -0.20256065 -0.02316688 0.059959788 0.07224864 -0.030040901 -0.20901218
-0.10316174 0.0487682 0.10577704 -0.053010345 0.04240058 -0.07708315 -0.055875096 0.04679738
-0.119135104 -0.035925213 -0.114721596 -0.03501229 0.114858896 -0.19350705 0.060264345 -0.04120758
0.012814971 0.13756105 -0.02490974 0.039449595 -0.040162656 -0.017989362 0.07645695 -0.07785586
-0.028719677 -0.074047774 -0.07883086 0.14604042 0.10742376 0.07402435 0.06365278 -0.10405855
00000000: f771 adbd d451 65bc c878 ce3b a22e 98bc
00000010: 7d49 2bbd 8263 193e 5250 2b3e 8a71 a6bc
00000020: b3c1 623d d317 78bd 380a 013e 48d1 123d
00000030: d70b aebd 12c2 053a 7e0d 15bd b0a6 813d
00000040: 98d4 62bd d92c edbd 54e0 e4bd 22f9 733d
00000050: 99c2 fa3d f2a4 d83d b701 7dbd fff9 1cbe
00000060: 41f3 17bd c001 2c3e 6a46 193e 5afe 803d
00000070: c147 d83d 3c4d 1bbd acf9 123d 3bbe 49bd
00000080: f0a0 01be 8b07 0a3c f985 033d bc37 b3bd
00000090: 6b8e 20be db3d b2bd dbd0 a73a 02a8 693c
000000a0: 6d4a debd cf83 c6bd 2595 ac3b 89e7 243e
000000b0: e577 d7bc 1af6 54bd 85ee e1bc 1ace 4a3d
000000c0: d579 823d bfb4 febc 5d03 5a3e 56ff 043e
000000d0: 6fef f43d f515 b0bd f646 32bc 36c0 493e
000000e0: 2ef2 07bb 2f7e ba3d 1611 773d 6bcc 1dbd
000000f0: 6ea9 c1bc 9a36 f0bc 5da3 c0bd ca7f 873c
00000100: bcb0 7a3c 2112 e0bc bad1 b43d 5e7e d4bd
00000110: 7c4e 74bd 588d b7bc 72ab 00be 2347 3c3b
00000120: 83fc 683c 4342 53bd 7848 09bc 9b79 04be
00000130: 9bb4 49bc 77df ae3c 26e7 bcbc 276c 3b3c
00000140: 84c0 cd3b 1b51 5ebc 3a1e 92bd a038 283d
00000150: 7c11 853d c6cb f1bd bc21 8dbd 56b2 9e3d
00000160: 1d62 203d 5b73 8f3c 4154 0bbd 1bc8 06be
00000170: ed0c 2b3d 04a8 863b a14b 873c 9ed3 eabd
00000180: bdc7 9e3d 3216 f1bb a558 27be c2e0 91bc
00000190: a3d1 b33d 70d6 cd3b f648 0f3d e56d 4dbc
000001a0: 9a31 e1bc 4526 7f3d a5e8 813d 00f4 6ebd
000001b0: 1e59 603c 6573 5dbd 5784 8dbd 454b ab3c
000001c0: e28e ce3b 7771 7abd e48c 2fbd f820 163d
000001d0: 8154 9dbd 995e b0bd 78fc 18bd 03ca 21bd
000001e0: 8e57 cfbc b21b 9dba e8d5 82bc fced fabc
000001f0: 8173 f23c 18a0 8f3d 8e7e 263d e817 bcbd
00000200: fe4a 00be daea 66bb 20a4 77bc 9de8 a13d
00000210: a1f3 9d3d c31e 9c3d 9611 343c 0b77 823a
00000220: 9097 d13d f153 60bb 66b8 6e3c 2193 123c
00000230: 682d 8ebc 9993 31bd 23ef a2bc 1d1b 383d
00000240: e631 843d 1029 e5bd bfc5 0abe 4eb1 3fbd
00000250: 3c68 fcbc 68b4 49bc a287 72bd ed40 21bd
00000260: 5f02 87bd c886 d1bc 0d8b 5fbd 8e8c 90bd
00000270: 0ce4 c7ba 0551 b5bd 4465 e3bd 16a3 eabd
00000280: c801 2ebc 192c 07bc a076 ecbd f421 40bd
00000290: 9a11 a9bd 18c4 b5bd dc08 dbbc 646e b0bd
000002a0: 35b6 ccbd 3577 bdbd 118c 55bd e48a a6bd
000002b0: 5812 efbd 1d91 c3bd e345 a3bd bca4 6c3c
000002c0: 2b20 c33d 1889 c73d 2d03 9cbd b221 0b3d
000002d0: 3f74 b2bd e751 1e3d 4049 c53c 15cf 80bc
000002e0: 800d 74bd 29b1 0ebe ee28 163e ceb4 773e
000002f0: 4b87 3d3d 0265 b4bd a946 e3bc 8f20 d23e
00000300: d977 153f 99eb 2c3e d0d7 793d ba7c 793d
00000310: e2f3 7f3e 0319 953e 56b9 9f3d cc6a 80bd
00000320: ff91 ffbc 39f6 573d 2222 d53d 516c 5cbd
00000330: 28af b63c 180d 99bb 297f e23d cd8f a43d
00000340: 0c4c 05be 6c1c b5bb ddd7 9ebc 6f08 ab3d
00000350: 3ce0 303d e6a8 13be 92ef 36bd 135d 913d
00000360: ba5d ef3d 6ec4 f83c 0f6c 4fbe 78c8 bdbc
00000370: 6598 753d 18f7 933d 5618 f6bc 4a07 56be
00000380: 7646 d3bd 2ac1 473d a2a1 d83d 6021 59bd
00000390: 3bac 2d3d c5dd 9dbd 49dd 64bd 9cae 3f3d
000003a0: 1bfd f3bd 5126 13bd 28f3 eabd 0c69 0fbd
000003b0: 243b eb3d b626 46be bfd7 763d 48c9 28bd
000003c0: e2f5 513c cedc 0c3e 830f ccbc e695 213d
000003d0: 9981 24bd 6d5e 93bc 7695 9c3d e572 9fbd
000003e0: 8745 ebbc 5ca6 97bd 1372 a1bd 9f8b 153e
000003f0: fd00 dc3d 149a 973d 645c 823d a61c d5bd

conv2.bias f4 [32]
-0.44467607 0.21214938 0.15059184 0.14251956 -0.1056897 0.35553035 0.16202162 -0.044458445
-0.064627245 -0.25372413 -0.15080805 0.10289511 -0.17203982 -0.38588524 0.5903684 0.6180377
-0.36408868 -0.33157822 0.9791378 0.28478837 0.14369802 -0.1521227 -0.00073616253 0.051198315
-0.5990821 0.32850626 -0.47477716 0.06692183 0.5611283 -0.13936578 -0.34845823 -0.07670604
00000000: 95ac e3be b03d 593e bf34 1a3e a6f0 113e
00000010: d773 d8bd 1308 b63e ffe8 253e 0f1a 36bd
00000020: 4a5b 84bd 21e8 81be 6d6d 1abe acba d23d
00000030: 352b 30be c092 c5be 6222 173f b837 1e3f
00000040: d569 babe 9fc4 a9be c6a8 7a3f c8cf 913e
00000050: 9325 133e 0ec6 1bbe 08fb 40ba 53b5 513d
00000060: 725d 19bf f931 a83e fe15 f3be 500e 893d
00000070: 1ba6 0f3f e7b5 0ebe 1e69 b2be 0e18 9dbd

fc1.weight f4 [32, 512]
-0.08159682 0.15962072 0.07527369 -0.12258731 0.052246854 0.046196338 0.05542475 0.09484553
0.04659935 -0.039061897 0.028625796 0.03846349 0.059467576 -0.0074988524 0.0068343463 0.10398019
-0.080656774 -0.07337678 0.15911727 0.046676256 0.12035325 -0.10330868 -0.018853093 0.13705635
-0.045694944 -0.14784029 -0.0929447 -0.094799615 0.2822846 0.025234902 0.014989802 -0.027519505
-0.18450609 0.15039934 0.079463124 -0.20865509 -0.08082752 -0.09663482 0.07111125 -0.08010132
-0.12181911 0.11385831 0.07320023 0.20430166 -0.07045464 -0.07622512 0.12250531 -0.064279065
-0.3525877 0.09736458 0.0005019156 0.18394873 -0.13597772 0.19394407 -0.0073761544 0.22779758
0.21497284 0.21645617 -0.11919576 -0.14786649 0.04071147 0.4244083 -0.039837793 -0.106470965
0.11226288 -0.10460929 -0.1662228 0.23159726 0.26759276 -0.06408577 -0.20784914 -0.1867728
-0.012181193 0.10658156 -0.09955955 0.008792468 -0.02418576 0.038514923 -0.03693832 -0.051671047
0.007104607 -0.076713614 0.01208489 -0.047363777 -0.06969616 0.0076988945 0.17054534 -0.033916384
0.08472337 0.04837347 0.21039046 -0.038091686 -0.13743834 0.08115208 0.15546279 0.0957274
0.1509707 -0.061274864 0.019696709 -0.1394501 0.0025160844 0.02648581 0.13527183 0.09032814
0.005389122 0.044033628 0.1110185 -0.14220735 -0.005498161 0.12390514 0.21487722 -0.118822455
-0.16369054 -0.06442174 -0.004192537 -0.05877619 0.09636785 0.03928496 -0.06443915 -0.07375916
0.077961795 0.092978016 0.028038127 -0.018221905 0.09462142 0.06289375 0.046092127 0.027181797
0.009803697 -0.020869799 0.008530965 -0.16303176 0.009248576 -0.04999343 -0.008899093 -0.05949008
-0.05674454 -0.013587031 -0.0084471535 0.16559838 -0.038572483 0.03935703 -0.025084041 0.011171221
0.05014784 0.020599253 0.053139795 0.049613442 0.068397924 0.0060395235 0.101204 0.031095637
-0.020285023 -0.14287351 -0.031298865 -0.11422554 -0.00038191013 0.002637464 -0.0648682 -0.14667372
-0.016866978 -0.070773765 -0.2342775 -0.06638114 0.16150868 -0.0016843459 -0.02511453 -0.04463968
0.11922985 -0.09037849 0.056595303 0.21657312 0.09388645 -0.21057683 0.013820312 -0.04633557
0.10576447 0.4404705 0.17766081 -0.10852128 0.051707402 -0.06738186 -0.14037879 -0.056894284
0.076549605 -0.2726668 -0.024131972 0.034812935 -0.059574746 0.09055675 0.061379604 -0.052999433
0.40648422 0.00060008623 0.054518312 0.006672275 -0.08874672 0.06939716 -0.017915 0.046414413
0.06480379 0.020428102 0.117017895 -0.0374184 0.09139546 0.023864908 0.08369547 -0.0680284
0.07950216 0.116373084 0.04240177 0.25770655 0.1879116 -0.028350562 -0.074758925 0.031152796
-0.2915222 -0.030607888 -0.057357017 -0.19317976 -0.18594968 -0.051753774 -0.09673723 -0.016881239
-0.13516615 0.08363309 -0.26791146 0.084830396 0.088649094 -0.18159963 -0.085985646 0.0661926
0.114979126 0.013441255 -0.094819896 0.11278658 0.15865941 0.12247734 -0.17799114 -0.0074053747
0.27906805 -0.20932467 0.09945132 0.038222704 -0.016482458 0.04398012 0.007512215 0.33062407
0.030558556 -0.09999568 0.03011204 0.28029877 -0.06626725 0.09622908 -0.27337557 -0.32318184
00000000: 3c1c a7bd 9d73 233e 1829 9a3d 0e0f fbbd
00000010: cc00 563d 5f38 3d3d 1005 633d 603e c23d
00000020: f6de 3e3d 5eff 1fbd a580 ea3c e48b 1d3d
00000030: 4694 733d efb8 f5bb a7f2 df3b 91f3 d43d
00000040: 612f a5bd 9146 96bd a3ef 223e 9a2f 3f3d
00000050: c47b f63d 8093 d3bd cd71 9abc 8058 0c3e
00000060: 9f2a 3bbd 7263 17be ca59 bebd 4d26 c2bd
00000070: 9b87 903e 6db9 ce3c c997 753c 9670 e1bc
00000080: 2aef 3cbe 4902 1a3e 90bd a23d aea9 55be
00000090: e688 a5bd 7ae8 c5bd c6a2 913d 290c a4bd
000000a0: 4c7c f9bd 8c2e e93d 01ea 953d 7434 513e
000000b0: 864a 90bd ea1b 9cbd 10e4 fa3d bea4 83bd
000000c0: 6086 b4be 1567 c73d fc92 033a 0e5d 3c3e
000000d0: be3d 0bbe 4699 463e abb3 f1bb c543 693e
000000e0: d721 5c3e b0a6 5d3e e81c f4bd 506a 17be
000000f0: 12c1 263d 0b4c d93e f42c 23bd 730d dabd
00000100: 15ea e53d 653d d6bd 4f36 2abe d527 6d3e
00000110: eb01 893e 663f 83bd 68d6 54be 5e41 3fbe
00000120: a093 47bc 6f47 da3d e1e5 cbbd 490e 103c
00000130: 3721 c6bc d3c1 1d3d a34c 17bd 05a5 53bd
00000140: c3cd e83b 071c 9dbd b4ff 453c 8500 42bd
00000150: dcbc 8ebd 0247 fc3b 70a3 2e3e e8eb 0abd
00000160: 7283 ad3d 4223 463d 9970 573e 0706 1cbd
00000170: a3bc 0cbe 1033 a63d a331 1f3e ba0c c43d
00000180: 1098 1a3e 5afb 7abd fe5a a13c 02cc 0ebe
00000190: e4e4 243b c5f8 d83c b384 0a3e f6fd b83d
000001a0: 3b97 b03b 9b5c 343d ab5d e33d ce9e 11be
000001b0: eb29 b4bb fac1 fd3d c608 5c3e 3059 f3bd
000001c0: 7e9e 27be 8cef 83bd 8d61 89bb 4dbf 70bd
000001d0: 825c c53d 44e9 203d acf8 83bd 0b0f 97bd
000001e0: 6faa 9f3d 426b be3d 37b0 e53c 1b46 95bc
000001f0: e0c8 c13d 70ce 803d 19cb 3c3d 5cac de3c
00000200: af9f 203c 24f7 aabc 76c5 0b3c ccf1 26be
00000210: 5787 173c e9c5 4cbd 80cd 11bc dfab 73bd
00000220: f66c 68bd 239c 5ebc ee65 0abc 9f92 293e
00000230: 2efe 1dbd d634 213d 0c7d cdbc 7f07 373c
00000240: d267 4d3d c4bf a83c 1da9 593d 7737 4b3d
00000250: 3614 8c3d 32e7 c53b 0b44 cf3d 47bc fe3c
00000260: c72c a6bc 6f4d 12be 3d33 00bd 14ef e9bd
00000270: 1c3b c8b9 4ed9 2c3b 9ed9 84bd a331 16be
00000280: 9e2c 8abc d6f1 90bd 71e6 6fbe d6f2 87bd
00000290: 8862 253e 45c5 dcba fdbc cdbc 19d8 36bd
000002a0: c82e f43d 5c18 b9bd 7ad0 673d 58c5 5d3e
000002b0: 8a47 c03d 74a1 57be 976e 623c 5eca 3dbd
000002c0: 0b9b d83d 5985 e13e b7ec 353e 6840 debd
000002d0: 24cb 533d 80ff 89bd 75bf 0fbe fb09 69bd
000002e0: 0ac6 9c3d fc9a 8bbe 6ab0 c5bc 0298 0e3d
000002f0: a604 74bd d175 b93d 2e69 7b3d ef15 59bd
00000300: b31e d03e 1b4f 1d3a 984e 5f3d 19a3 da3b
00000310: d7c0 b5bd 1920 8e3d 7ac2 92bc 0a1d 3e3d
00000320: d9b7 843d d658 a73c 14a7 ef3d 0944 19bd
00000330: 8b2d bb3d 5780 c33c 8868 ab3d 7952 8bbd
00000340: 07d2 a23d 0355 ee3d 7aad 2d3d 1df2 833e
00000350: e66b 403e 703f e8bc 351b 99bd 2634 ff3c
00000360: 6642 95be 65bd fabc 31ef 6abd ead0 45be
00000370: 9869 3ebe c4fb 53bd 2b1e c6bd 864a 8abc
00000380: ff68 0abe d347 ab3d b12b 89be 8fbb ad3d
00000390: a88d b53d 41f5 39be 3e19 b0bd fc8f 873d
000003a0: 2d7a eb3d b638 5c3c ef30 c2bd a7fc e63d
000003b0: 9d77 223e 66d5 fa3d 4f43 36be c9a8 f2bb
000003c0: 02e2 8e3e 3559 56be 22ad cb3d 698f 1c3d
000003d0: 3806 87bc 8024 343d 0729 f63b 8f47 a93e
000003e0: f055 fa3c 89ca ccbd 86ad f63c 5283 8f3e
000003f0: 20b7 87bd c013 c53d e2f7 8bbe 1778 a5be

fc1.bias f4 [32]
0.18533625 0.037450366 0.66331726 -0.15584101 0.11857418 0.541232 0.22412519 0.11974663
-0.36707667 0.03735361 0.15667345 -0.06958048 0.36787444 -0.021317162 0.10257385 -0.2872316
0.030759875 0.06583485 0.44844285 -0.11973363 0.27419898 0.027615417 -0.12678348 0.35161263
-0.1241644 0.06741874 -0.081947766 0.18247372 0.08464598 -0.17740433 0.06293685 -0.23405012
00000000: c9c8 3d3e 8e65 193d 29cf 293f c994 1fbe
00000010: 05d7 f23d 2e8e 0a3f 1381 653e b93d f53d
00000020: 79f1 bbbe 1900 193d 016f 203e 3680 8ebd
00000030: 0a5a bc3e 54a1 aebc 3d12 d23d 0510 93be
00000040: 22fc fb3c 6cd4 863d 4d9a e53e e836 f5bd
00000050: cf63 8c3e ba39 e23c 87d3 01be 9206 b43e
00000060: e849 febd d612 8a3d 3bd4 a7bd 64da 3a3e
00000070: df5a ad3d 7ba9 35be 09e5 803d d6aa 6fbe

out.weight f4 [10, 32]
0.36519438 0.18202548 0.7859375 -0.6530106 -0.36660674 0.21899098 0.036498334 -0.025008738
0.2812904 -0.43853393 0.34777266 -0.0028845794 -0.4550433 -0.019120954 0.1313146 -0.021456348
-0.4766314 0.562016 0.034888893 -0.5106919 0.33229637 -0.15999259 0.4782048 -0.019683702
0.2941371 -0.3318305 -0.2766704 0.36200055 -0.07113567 0.05636738 -0.2991884 0.14350963
0.056907 0.5964543 -0.3496604 -0.29015556 -0.2654963 -0.100990914 -0.24873725 -0.13402227
0.21763238 -0.36385098 -0.92039996 0.5497838 -0.12800154 -0.37927714 0.31400934 -0.23110773
0.57110643 -0.24585469 0.574853 0.16389196 0.48840344 -0.3905166 -0.23400852 -0.57704574
0.53384507 -0.59530187 -0.20383912 0.4161639 -0.08941707 -0.120504715 0.13751794 -0.5757335
0.34315228 -0.54437345 0.61178595 0.12069632 -0.23053403 0.04375506 0.58977705 -0.035742827
0.059367884 -0.19025458 0.011371235 0.3479727 -0.8365811 -0.32437262 -0.38045397 -0.18760626
-0.204787 -0.038476843 -0.2550182 -0.044195864 -0.379747 0.82059276 0.09822862 0.53421
0.017911691 -0.44100523 -0.1537945 0.56048715 -0.4184506 0.4133958 0.43306345 0.07043309
0.053243846 -0.23463736 0.4338767 0.46485567 -0.16329211 -0.36297125 0.50934136 0.06389588
-0.51436913 0.31549057 0.0844486 -0.19064206 0.41701895 -0.15178953 -0.10688471 -0.46070808
-0.036777444 0.13825624 -0.33763537 0.30582485 0.79321307 0.20156102 -0.5596187 -0.016431099
0.39591187 -0.47541225 -0.22383901 0.09902394 -0.56239825 0.024533736 -0.49854815 0.19988506
-0.24922916 0.17444396 0.16252932 0.61516255 -0.075700276 -0.071528435 0.037986055 0.0483679
0.6953778 0.22718573 -0.4317454 -0.1071705 -0.85365695 0.37079495 -0.09350404 0.44655585
0.011887825 -0.5105114 -0.022298668 0.11927557 0.27438298 1.0000101 0.16681531 0.53593105
0.53921956 -0.42109558 -0.54422516 -0.26518783 -0.32003978 0.41601482 -0.29666054 0.5463224
-0.18812649 0.0076603126 -0.27736706 -0.014880327 -0.3912744 -0.3555472 -0.25903088 0.0059853373
0.050796658 0.087389275 0.35763976 0.57234085 0.64508235 0.2483579 0.12515551 0.42080927
-0.3224346 -0.10527728 -0.4889873 0.03643293 -0.28633532 -0.7762055 0.23499486 -0.2313215
-0.76952165 1.007836 0.67631894 -0.023087202 0.24556193 -0.106825896 -0.33239162 0.08476239
-0.33810785 -0.07572602 0.7290343 0.10572576 0.018114198 -0.22879846 0.05027084 0.69640994
0.04528898 0.91106737 0.11645733 0.24176408 -0.5873614 0.46398783 0.5884764 -0.41444466
0.005160764 0.6511004 -0.13836218 -0.0352515 0.21594165 0.49433714 -0.082583636 0.6878925
0.5591565 -0.5684483 -0.1562651 -0.117075436 0.037503522 -0.36825347 -0.13857113 -0.08171674
-0.124533854 0.15406069 -0.98536694 -0.26811826 0.57301086 -0.08600101 -0.04934947 0.02687598
-0.30541474 -0.30743316 0.37085912 -0.23309225 0.46880797 -0.3695647 -0.4777479 -0.027900957
0.47537303 0.27260858 -0.50604564 -0.40248147 -0.70954084 -0.43281266 0.08175313 -0.38580453
-0.67128134 1.3891484 -0.24706458 -0.08814689 0.82153034 -0.21700972 0.42620903 -0.09124943
00000000: c2fa ba3e e364 3a3e 3333 493f b42b 27bf
00000010: e1b3 bbbe 2c3f 603e 477f 153d 20df ccbc
00000020: 4c05 903e 8587 e0be 420f b23e 360b 3dbb
00000030: 6ffb e8be 8ca3 9cbc 5677 063e 39c5 afbc
00000040: 0809 f4be 48e0 0f3f a8e7 0e3d b4bc 02bf
00000050: c022 aa3e 19d5 23be 42d7 f43e b73f a1bc
00000060: 2399 963e b0e5 a9be bea7 8dbe 2358 b93e
00000070: 94af 91bd 7be1 663d 392f 99be 30f4 123e
00000080: 5017 693d 3bb1 183f b006 b3be 458f 94be
00000090: 22ef 87be 53d4 cebd fab4 7ebe 223d 09be
000000a0: 06db 5e3e ad4a babe 559f 6bbf a2be 0c3f
000000b0: d612 03be 9d30 c2be d5c5 a03e 81a7 6cbe
000000c0: 0834 123f 55c1 7bbe 9129 133f 4bd3 273e
000000d0: 0410 fa3e cbf1 c7be ee9f 6fbe 45b9 13bf
000000e0: 12aa 083f b465 18bf 34bb 50be 6f13 d53e
000000f0: 4c20 b7bd 2dcb f6bd 81d1 0c3e 4563 13bf
00000100: a8b1 af3e 0f5c 0bbf 019e 1c3f a22f f73d
00000110: 1d11 6cbe 8138 333d a1fb 163f 1267 12bd
00000120: bd2b 733d 19d2 42be 6b4e 3a3c 7a29 b23e
00000130: 2e2a 56bf 2b14 a6be ddca c2be db1b 40be
00000140: afb3 51be e599 1dbd bf91 82be b906 35bd
00000150: 336e c2be 5e12 523f 162c c93d fdc1 083f
00000160: 8abb 923c 70cb e1be 4e7c 1dbe 167c 0f3f
00000170: 283f d6be 9da8 d33e 7eba dd3e 393f 903d
00000180: 3816 5a3d c744 70be 1625 de3e 9001 ee3e
00000190: 0c36 27be 5ed7 b9be 3264 023f d8db 823d
000001a0: b2ad 03bf fb87 a13e 63f3 ac3d ac37 43be
000001b0: 8283 d53e b76e 1bbe 5fe6 dabd eee1 ebbe
000001c0: f2a3 16bd 0b93 0d3e 8bde acbe 1395 9c3e
000001d0: 0310 4b3f 0366 4e3e 2c43 0fbf 839a 86bc
000001e0: f6b4 ca3e 3c69 f3be 0e36 65be 10cd ca3d
000001f0: 55f9 0fbf f9fa c83c b441 ffbe abae 4c3e
00000200: ee35 7fbe 70a1 323e 166e 263e 4b7b 1d3f
00000210: bf08 9bbd 807d 92bd 4497 1b3d 6b1d 463d
00000220: 4804 323f 60a3 683e bc0d ddbe 357c dbbd
00000230: 4389 5abf d6d8 bd3e 0c7f bfbd f8a2 e43e
00000240: 27c5 423c e0b0 02bf b2ab b6bc c046 f43d
00000250: ed7b 8c3e 5500 803f a2d1 2a3e c732 093f
00000260: 4b0a 0a3f d799 d7be 5752 0bbf b3c6 87be
00000270: 41dc a3be e5ff d43e e4e3 97be c9db 0b3f
00000280: 3ba4 40be 5c03 fb3b 0e03 8ebe 9dcc 73bc
00000290: 1e55 c8be 480a b6be b29f 84be a620 c43b
000002a0: 2810 503d 26f9 b23d 8f1c b73e ee84 123f
000002b0: 1e24 253f 8951 7e3e c428 003e 5074 d73e
000002c0: 2616 a5be 9d9b d7bd 8b5c fabe b23a 153d
000002d0: 8b9a 92be 67b5 46bf 7ea2 703e 8bdf 6cbe
000002e0: 5fff 44bf c500 813f 3d23 2d3f 5f21 bdbc
000002f0: 9674 7b3e 89c7 dabd 3c2f aabe e797 ad3d
00000300: 791c adbe 3e16 9bbd fea1 3a3f bf86 d83d
00000310: 3a64 943c 254a 6abe cce8 4d3d ec47 323f
00000320: f080 393d b63b 693f 2e81 ee3d 0191 773e
00000330: 515d 16bf d08f ed3e 64a6 163f 1732 d4be
00000340: a01b a93b 84ae 263f d1ae 0dbe e063 10bd
00000350: cf1f 5d3e c219 fd3e 9c21 a9bd b919 303f
00000360: e124 0f3f d485 11bf f503 20be 3fc5 efbd
00000370: 4b9d 193d b88b bcbe 97e5 0dbe 1b5b a7bd
00000380: 9b0b ffbd 16c2 1d3e 0241 7cbf cc46 89be
00000390: d7b0 123f 4c21 b0bd ab22 4abd 042b dc3c
000003a0: 525f 9cbe e167 9dbe 3fe1 bd3e bcaf 6ebe
000003b0: 9907 f03e 9637 bdbe 5f9b f4be 8c90 e4bc
000003c0: 1864 f33e 5a93 8b3e 358c 01bf 0d12 cebe
000003d0: 78a4 35bf 9f99 ddbe 2f6e a73d 2c88 c5be
000003e0: 18d9 2bbf 9dcf b13f 7ffe 7cbe 5b86 b4bd
000003f0: d04f 523f cc37 5ebe 1238 da3e fbe0 babd

out.bias f4 [10]
0.03821913 -0.15772484 0.6433552 0.3218577 -0.8634865 -0.44026312 0.90272653 -0.08218756
0.37927195 -0.59615964
00000000: aa8b 1c3d 9f82 21be edb2 243f 88ca a43e
00000010: 740d 5dbf 2b6a e1be 1619 673f f451 a8bd
00000020: ef2f c23e eb9d 18bf
