Lab_4/logs_task_1b/epoch=0-step=600-v1.ckpt (torch, 125259 bytes, 8 tensors)

conv1.weight f4 [16, 1, 5, 5]
000000 d8 ac 04 bd 86 a6 57 3d a4 b7 cf bd 07 36 6e be
       -0.0323914 0.052649044 -0.101424485 -0.23262797
000010 5b f4 34 be bc f9 c0 bd 62 6f 59 3e 90 bf 20 be
       -0.17671339 -0.09422633 0.21233895 -0.15698075
000020 d0 79 bc 3d 3a 47 65 be e7 01 5a 3e 95 d9 b9 bd
       0.092029214 -0.22390452 0.21289788 -0.090747036
000030 f6 f2 47 3e 0f e4 22 be b8 2b 4e be 2b 98 81 3e
       0.19526276 -0.1590731 -0.20133865 0.25311407
000040 76 f9 8b 3e 65 32 c4 bd 94 01 2d 3e ab 74 ac 3d
       0.2733876 -0.095799245 0.16895133 0.0842069
000050 7e 2c d0 bd 07 7d 60 3d f2 ea d6 bd 75 27 1e be
       -0.10164736 0.054806735 -0.10494031 -0.15444739
000060 38 ba 28 3d 07 3e 94 bd bc 6d 17 be 4e 39 07 be
       0.041193217 -0.07238393 -0.14787954 -0.13205454
000070 94 33 ff bd ee 8b 74 bd 44 ca 23 be 5e 1a c4 3d
       -0.124610096 -0.05970376 -0.15995127 0.09575342
000080 2e e5 4b 3d cf 07 13 3e e8 89 c1 bc d6 c0 67 3c
       0.04977911 0.14358447 -0.02362533 0.014145097
000090 2c 6c 39 be 7a 91 38 3d 50 96 3a be 93 68 12 3e
       -0.1810767 0.045060612 -0.18221402 0.14297704
0000a0 fc 04 9e bd 04 29 01 be 3f c4 6f bd 4b d0 58 bd
       -0.077157944 -0.12613302 -0.058536764 -0.05293302
0000b0 10 6b 30 be 00 ae 2d 3d dc 6a 39 3e e8 71 05 be
       -0.17228341 0.042402267 0.1810717 -0.13031733
0000c0 30 65 9f bd 9b fa 1b 3e b0 f0 88 bc 1c 73 94 bb
       -0.07782972 0.15232317 -0.016716331 -0.0045303237
0000d0 6e 84 4d bd 9e ef 9b be 9a cc 53 bc 91 bd 2b 3e
       -0.050175123 -0.3045625 -0.012927199 0.16771533
0000e0 6b ed 41 be 9a c5 f6 bd 6b f2 90 be 16 26 6a be
       -0.18938224 -0.12049408 -0.2830995 -0.22866091
0000f0 6c 49 cd bd 22 de b4 3d ea 4b 3a 3e 42 2d 86 be
       -0.1002377 0.08831431 0.18193021 -0.26206404
000100 ca 19 da bc 07 e5 96 bd 06 67 21 3e c7 90 ea 3d
       -0.026623625 -0.07367902 0.15761957 0.11453395
000110 9c 77 c9 bc d5 58 41 be 27 a6 c2 3d f0 8a 09 be
       -0.024593167 -0.18881543 0.09504347 -0.13431907
000120 85 53 22 be 4c cd a0 3d 64 c1 29 3e 0c 24 6a 3e
       -0.15852173 0.07851657 0.16577679 0.22865313
000130 9d 2c fe 3d 32 9a 72 3d da 3e 1b 3e d2 01 63 3e
       0.12410853 0.059229083 0.15160695 0.22168663
000140 c3 f7 9a 3e e5 2a 6a 3e c6 b2 06 3e 5f 4e 97 bd
       0.30267152 0.22867925 0.13154134 -0.07387995
000150 38 64 48 3e 53 6d 88 3e b1 fd 4d 3b 44 83 4a 3d
       0.1956948 0.26645908 0.003143173 0.04944159
000160 2f 8e 6d 3e 81 0b 86 bd c1 e4 82 3e bd cd 50 bd
       0.2319877 -0.06545163 0.2556515 -0.050977457
000170 12 c6 70 3c f2 bf 44 3e ee 89 86 bc ff 72 89 3d
       0.014695661 0.19213846 -0.016423192 0.06711387
000180 5a 3a 40 be ca 7b 52 be 37 92 8c 3d c0 90 38 3d
       -0.1877226 -0.20555034 0.06863826 0.04505992
000190 12 db 4a 3e 1c f5 5e 3e 3d d3 38 be 34 5e 52 bc
       0.19810131 0.2177319 -0.18049331 -0.012839843
0001a0 0c 0b c5 bd 4a 43 41 3d ae b6 21 3e d6 02 78 be
       -0.09621248 0.047183312 0.15792343 -0.24219832
0001b0 07 b9 3b be 32 23 f0 3d 90 46 77 bd da 5d 35 be
       -0.18332301 0.11725463 -0.060370028 -0.17711583
0001c0 d6 cb 88 be 0e 2f 51 bd 0e c9 3a 3d f0 4f 92 bd
       -0.26718014 -0.051070265 0.045601897 -0.07144153
0001d0 39 89 cd bd 02 d1 64 3d 92 ea ea 3d 66 9e 08 3e
       -0.10035939 0.055863388 0.11470522 0.13341674
0001e0 8c 3a 85 3d e7 dc 20 be 20 50 88 bd 4b 4e 80 bd
       0.065053076 -0.15709268 -0.06655908 -0.06264933
0001f0 6e 68 68 3e 71 7e 2b 3e 66 a7 8c 3e 75 1c b9 3c
       0.22696087 0.16747452 0.27471465 0.022596577
000200 57 1e 4f 3e 1b 4d 9a 3d 52 cc 51 bc e5 bc 1a bd
       0.20226417 0.07534238 -0.012805061 -0.0377778
000210 de be 4f 3e 54 f6 79 3e 5c 6f 12 3e e5 a2 c4 bc
       0.20287654 0.24410373 0.14300293 -0.024003455
000220 28 12 07 3e ae 88 c1 3e b6 be 77 3e f0 ad 1c 3e
       0.1319052 0.3779959 0.24193844 0.15300727
000230 1b 31 72 3e be f6 9e 3e 89 90 4e 3d de 0a 13 3e
       0.23651545 0.31047624 0.05043081 0.14359614
000240 d7 96 05 3e 08 01 42 3e e8 cf 82 3e d0 63 12 3e
       0.13045822 0.18945706 0.25549245 0.14295888
000250 e8 0d cb bc 2a 26 34 3e 5b c7 d0 bd 77 24 e7 bd
       -0.024786904 0.17592683 -0.10194274 -0.11286252
000260 a3 22 53 3d 0e 04 4f 3d 7b dd 4a be 82 17 45 3e
       0.051546704 0.050540976 -0.1981105 0.19247249
000270 f2 8e 70 3e a3 87 6c 3d 4e 0b ff 3c 07 13 24 be
       0.2349203 0.05774654 0.03113332 -0.16022883
000280 3b ed 01 3c 12 c3 a4 3c 11 25 21 bc 69 9d a0 3d
       0.007930095 0.020112548 -0.0098354975 0.078425236
000290 d0 ee 08 be 2a 6f 52 3e e6 a9 4c 3e 2a 65 44 3e
       -0.1337235 0.20550218 0.19986686 0.19179216
0002a0 2f fe be 3d d7 73 09 be 23 89 32 3e 46 d9 1c 3e
       0.093258254 -0.13423096 0.17435126 0.15317258
0002b0 01 a3 81 3d 09 91 21 3e b3 44 7a bd d7 e5 a8 3d
       0.06329919 0.15777983 -0.061100673 0.082469635
0002c0 2f e9 70 3d 60 9f e9 bd b1 98 cc bd f2 e3 aa bd
       0.05881613 -0.114073515 -0.09990061 -0.08344258
0002d0 ba a8 2a 3c 7e 2c de bb ff e1 04 3e f3 c4 78 3d
       0.010416204 -0.006780206 0.12976836 0.0607347
0002e0 41 83 5a be b1 25 37 be ac be de bb 86 90 43 3e
       -0.21339132 -0.17885472 -0.006797632 0.190981
0002f0 5f af 90 3e 62 90 a2 3d 40 6b a6 bb cd af fa 3d
       0.28258798 0.07937695 -0.005078703 0.122405626
000300 97 b5 ae bd 42 34 8a 3e 90 99 d4 3b 3f 65 36 3e
       -0.08530729 0.26992995 0.0064880326 0.1781206
000310 8a 88 c4 3d 56 78 80 3e d7 ae 85 3e eb 01 cd bd
       0.09596355 0.2509181 0.26109955 -0.100101314
000320 6d 77 1f 3d 55 72 94 bc 60 44 cd 3d 37 da 9e 3e
       0.038932253 -0.018120924 0.10022807 0.3102586
000330 01 a6 83 3e 4d 48 60 be e7 db 9d 3c c3 4a e6 bc
       0.25712588 -0.2190258 0.019269897 -0.028111821
000340 ef 5e a8 3c 4f 5d 1f 3e 0a 9f 6b be fc 72 e2 3d
       0.02055308 0.15562938 -0.23009887 0.11057088
000350 7d 5f 39 3e 67 e1 9c 3e ef a4 11 3e 11 db 5d be
       0.18102832 0.30640718 0.14223073 -0.21665598
000360 ef 78 1a 3d c7 ba ba 3d 2b d6 84 3e 8c 0a 65 3e
       0.037712988 0.09117656 0.25944647 0.22367305
000370 81 47 46 bd bf 9a 0c 3e b8 05 5a 3d f2 1c 5d bb
       -0.048408035 0.13730906 0.05322811 -0.0033739177
000380 01 7b ea 3c 1e a9 d0 3b b6 8c f5 bd df f1 cb bc
       0.028623106 0.0063678166 -0.11989729 -0.024895607
000390 40 4d f8 bd 96 e9 4e bc 4b 1a 2a bd 7d 1e 4e 3d
       -0.12124109 -0.012628933 -0.04152898 0.050322045
0003a0 44 59 1b 3e a7 17 df 3d 2c 1a 6d 3e ed b9 46 3e
       0.15170771 0.10893183 0.23154515 0.19406863
0003b0 85 9e 77 3e bb 8c 25 3e 0f 43 8a 3e 5d 5d 1e be
       0.24181564 0.16166966 0.27004287 -0.15465303
0003c0 f6 81 41 be ca b8 e3 3d 91 e5 d8 3d 57 15 0f bd
       -0.18897232 0.1111923 0.10590661 -0.03493246
0003d0 e9 83 e1 3d 92 ae 0f be 22 94 e0 3d 44 fa 7d bd
       0.11011488 -0.14031437 0.10965754 -0.06200625
0003e0 a5 ee a6 3c e0 5d 2a 3e 07 38 c0 bd ed 79 28 be
       0.020377466 0.16637373 -0.09385686 -0.16452761
0003f0 96 8b 25 be e4 ca 4a be c7 7a e5 bd 49 08 e7 3d
       -0.16166529 -0.19803959 -0.112050585 0.11280877

conv1.bias f4 [16]
000000 3e 16 ed 3d c2 25 9e bd 5a 40 9a 3e b8 0e 36 bd
       0.11576508 -0.077220455 0.3012722 -0.04444763
000010 50 d2 31 3e 6d 3f d8 bd f8 e1 dd ba bd ea 81 bc
       0.17365384 -0.105589725 -0.0016928306 -0.015859002
000020 cd 47 16 bb af ab af bb 98 8e 9f bc c3 6d 2d 3e
       -0.002293098 -0.0053610425 -0.019477174 0.16936402
000030 72 c4 45 be b9 b4 49 bc fb 61 b6 3d 61 46 0e 3e
       -0.19313219 -0.012311154 0.08905407 0.13894035

conv2.weight f4 [32, 16, 5, 5]
000000 0d d3 f5 bb 81 36 10 3d 79 f2 97 3c a2 45 a6 bc
       -0.007501966 0.03520823 0.018548237 -0.020296875
000010 58 ee 06 3d 8b 52 8a bc 61 64 11 3d e4 c3 f0 bc
       0.032942146 -0.016885063 0.03549612 -0.029390283
000020 63 9b ff 3c 87 0b ec bc 3a 9e 32 3c b3 4c 08 3c
       0.031202024 -0.02881409 0.010901982 0.008319068
000030 96 f9 a1 3c 9c 92 20 bc b7 b1 8a bd f4 62 eb 3c
       0.019772332 -0.009800579 -0.06772178 0.028733708
000040 81 b7 73 bc 65 af 4d 3d a3 87 1b 3d 45 62 c5 bc
       -0.014875294 0.050216097 0.03797115 -0.02409471
000050 52 ae 35 bd 6c 24 b8 bc 00 ea 02 3c e4 80 59 bd
       -0.044355698 -0.022478305 0.00799036 -0.053101435
000060 ec ec 05 3d bd b9 ac 3c 8b 4e 13 bd 51 0e d0 bb
       0.03269665 0.02108466 -0.035963576 -0.006349363
000070 64 5e f5 bc 05 c3 80 3c c5 46 07 3d 86 8a 2d 3d
       -0.029952236 0.015717993 0.033026475 0.042368434
000080 b5 23 c6 bc 60 12 be 3c cc 57 a3 3b 62 79 93 bb
       -0.024186948 0.023202121 0.0049848314 -0.004500554
000090 9f 5c 34 3d be 3a b4 bc d0 64 f6 3b 46 5d ea 3c
       0.044033643 -0.022000667 0.007519342 0.02860893
0000a0 42 40 17 bc 7d 3e 7e 3c e2 9c 00 3d 1e e0 95 bc
       -0.009231629 0.015517828 0.031399615 -0.018295344
0000b0 98 02 05 bd 2c d9 40 3b 51 26 96 bb 0b 23 33 bd
       -0.032473177 0.002942632 -0.0045822044 -0.04373459
0000c0 bf 91 78 bc ec cd 93 bc 13 9d 3b bc 54 d8 67 bd
       -0.015171467 -0.018042527 -0.011451024 -0.05660279
0000d0 3a 70 85 bd 43 9a 89 bd 2a dc 2a bd bc e7 1c bd
       -0.06515546 -0.06718876 -0.04171387 -0.038306937
0000e0 c5 0f f5 bb 2f 53 68 bd e6 76 8c 3c 33 63 b5 bc
       -0.0074786865 -0.056719955 0.017146539 -0.022142028
0000f0 12 e3 7e bd 09 a4 fd bc be 16 08 bd 4e 3c df bb
       -0.06222827 -0.030962007 -0.033224814 -0.006812609
000100 ff 74 85 bd 39 34 85 bd 1e e1 52 bd 3c 96 04 bd
       -0.06516456 -0.06504101 -0.05148422 -0.032369837
000110 6d 4f d0 3b 98 34 37 bc c4 14 8f 3c d5 35 1a bd
       0.0063571245 -0.011181973 0.017465957 -0.037648994
000120 54 41 91 bb be ae 00 bd eb 16 86 bd e4 87 5b bd
       -0.0044328365 -0.031416647 -0.0654734 -0.053596392
000130 5a cd 01 3e bc 2c 05 3e 6b f4 09 3e 4d 19 f3 3d
       0.12675992 0.13005346 0.13472144 0.1187006
000140 b3 73 7c bc 72 f1 0e 3d 63 9b 76 3d 4e e1 a1 3c
       -0.015408444 0.03489823 0.060206782 0.019760754
000150 66 07 85 3d 77 b8 af 3c 53 fa 88 3b e7 b8 5b 3d
       0.06495552 0.021450264 0.0041802316 0.053643133
000160 33 0d 3b bd fa 1f 76 bd 1a 8f a8 3c ca 88 6e 3d
       -0.045666885 -0.06008909 0.020576049 0.05823592
000170 07 e5 ac bb 25 b1 b1 bc 7f d9 89 bd 5d 1b 92 3c
       -0.0052763256 -0.021690914 -0.06730937 0.017835313
000180 61 f4 13 bc 30 ac 1c bd 02 75 c9 bc 10 39 8f bd
       -0.009030432 -0.03825015 -0.024591926 -0.06993306
000190 96 31 0d 3d dc 81 2f bc 8b 7c b2 bc f3 69 0d bd
       0.034471117 -0.010712113 -0.021787902 -0.03452487
0001a0 e9 a0 54 3c 20 00 7e 3b 62 66 75 bc ca e6 92 3c
       0.012977817 0.0038757399 -0.014978023 0.017932314
0001b0 7f 45 ce 3c 69 8f c8 bb ea 24 17 3c 7a d1 12 bd
       0.025179623 -0.0061206114 0.00922511 -0.035844304
0001c0 fe 16 1b bc 50 2f 1d bd 96 49 31 3c af a0 d3 3b
       -0.009465931 -0.0383752 0.010820767 0.006458364
0001d0 c0 0b 31 bd 15 cf 00 3d 6e 5f e0 ba 00 7d dd bb
       -0.043224096 0.03144749 -0.0017118284 -0.006759286
0001e0 71 35 e6 bc 47 ab 9a bb 3a 05 b5 bc 9b 13 2d 3d
       -0.028101655 -0.004720125 -0.022097219 0.042255025
0001f0 35 ab 02 bd 7e 4c 7b 3d c7 b2 6c 3d 15 24 ac 3d
       -0.031901557 0.061352246 0.057787683 0.084053196
000200 4d 10 e2 3d e1 1d c0 3d 61 4a 06 3b 5c 07 41 bb
       0.110382654 0.09380699 0.002049111 -0.002945385
000210 34 bf b8 bc c5 02 f4 bc 76 22 ec bc 8b 7c a1 3d
       -0.02255211 -0.029786477 -0.028825026 0.07885083
000220 37 e2 28 bc 8b 9a 8e bc fe 03 93 bd d1 69 46 bc
       -0.01030784 -0.017407676 -0.07178496 -0.01211019
000230 11 46 67 3d 9c 95 98 3b 0e e8 00 be b1 d4 c1 bd
       0.056463305 0.0046565067 -0.12588522 -0.09464396
000240 3b 42 aa bb db b8 10 bd 7d 7c 82 bd 17 4a e3 bd
       -0.0051958836 -0.035332542 -0.063714005 -0.11098116
000250 2a 96 ed bd ce 9f fa bd 1e 65 9f 3b c7 d5 85 bb
       -0.11600907 -0.122375116 0.004864349 -0.004084322
000260 83 20 64 3c ad b3 ff bc 9d 14 a9 3d 65 c8 ed 3c
       0.013923767 -0.031213606 0.08255885 0.02902622
000270 ba a6 13 bc e6 d1 87 bd f8 be 7a bc ea e0 c4 bb
       -0.009011919 -0.06631832 -0.01530432 -0.006008257
000280 a4 98 8f 3c 0e 19 1a 3d 7b 77 f0 bb 67 72 12 bd
       0.01752884 0.03762155 -0.007338462 -0.035753634
000290 12 44 af 3c 5e 18 62 3c 4b 11 58 3d 22 02 05 bd
       0.021394763 0.013799755 0.052750867 -0.032472737
0002a0 80 da cc bd c2 de 9c bc 15 b6 01 3d a3 be 59 bc
       -0.10002613 -0.019149188 0.031667788 -0.01329008
0002b0 e8 80 65 bc 81 03 3a bd 6b bb db bc e7 66 ba 3b
       -0.014007784 -0.045413498 -0.026822766 0.0056885364
0002c0 eb e7 c5 bc 8d e3 13 bd 89 56 00 3d f6 e9 8c 3d
       -0.024158439 -0.03610568 0.031332526 0.06880562
0002d0 58 95 33 3d cc c8 b5 bc 80 05 eb bc 07 6b 03 3c
       0.043843597 -0.022190474 -0.028689146 0.008021123
0002e0 c7 0a 4a 3c 06 d7 7d bc cf 86 04 3d ea b8 a5 3c
       0.012331671 -0.01549316 0.032355126 0.020229775
0002f0 55 93 57 bd c3 58 ae bc 5a 15 cb 3c b8 4a b0 3b
       -0.05263074 -0.02128256 0.024790455 0.005380001
000300 18 c6 8d bd 1f 4e d2 bd 2b 4a aa 3c 89 59 c7 3c
       -0.06922549 -0.10268807 0.02078732 0.024334686
000310 64 7e 08 bd 4b 83 8b bd 45 a4 d1 bd 81 97 5e 3b
       -0.03332366 -0.068121515 -0.1023641 0.0033964815
000320 b2 dc ad 3d e9 e1 95 3d b5 ce ca 3d 38 8d 8b 3d
       0.0848936 0.073184796 0.099027075 0.06814045
000330 85 7f f5 3b 89 4d 5d 3c 50 27 91 bc 41 7d 32 bb
       0.007492008 0.013507255 -0.017718941 -0.0027235302
000340 83 aa 57 3d b2 20 89 3c 19 9f 64 3d d7 0f de 3c
       0.052652847 0.016739223 0.05581579 0.027107162
000350 4e f2 4a bc 59 fe 3c bd 14 4f 08 3d 87 0d 18 3c
       -0.0123868715 -0.046141002 0.03327854 0.009280569
000360 22 e3 83 bc 4d f2 33 bd 9f 70 32 bd 3c e5 bd bc
       -0.016099516 -0.043932248 -0.043564435 -0.023180597
000370 90 81 9e 3d d1 3e fd bc 26 fc 55 bd 26 75 3d 3c
       0.07739556 -0.030913742 -0.05224242 0.011563575
000380 99 75 bf 3c 13 ff 92 3d 4e 80 00 3d 1a 11 8d 3d
       0.023371505 0.07177558 0.03137236 0.068880275
000390 53 c0 b7 3d b5 eb 9e 3d bf f8 99 3c 4e fd 9f 3c
       0.0897223 0.07759801 0.01879537 0.019529965
0003a0 e7 54 14 bd 1d 56 84 3c 24 d2 a9 bb 57 f7 88 3d
       -0.03621378 0.016154343 -0.0051825214 0.06687801
0003b0 56 34 4d bd 09 38 27 3c 6e c5 c6 bc 68 4b 3b bd
       -0.05009874 0.010206231 -0.024264064 -0.04572621
0003c0 a8 9b 9a 3d 9f 0a de b9 c3 d1 42 bd 30 00 72 3c
       0.0754922 -0.00042351053 -0.047563326 0.0147705525
0003d0 97 30 2f 3d bf 20 12 bc ef 9f 30 bd 5c 5d b9 bd
       0.04277095 -0.00891894 -0.043121275 -0.0905101
0003e0 8c cd 21 bd 62 de 41 bd 54 0d 21 bd 58 ac 44 3c
       -0.039502665 -0.04733122 -0.03931935 0.012003981
0003f0 2d ee 0f bd ec 1e 42 bc 0a f7 1c 3b fa ad 4e bd
       -0.03513925 -0.011848193 0.0023950958 -0.050458886

conv2.bias f4 [32]
000000 21 de 6b bd 5a 0a ad 3d 51 03 5c 3c 9c 02 0d bd
       -0.057584886 0.0844924 0.013428525 -0.034426317
000010 0d 87 cb bb d4 0f e6 bc f5 37 f3 b9 c6 c9 90 3d
       -0.0062111677 -0.02808372 -0.00046390263 0.07069735
000020 68 8d 21 3c 26 00 07 3d 73 41 94 3d 17 65 03 3e
       0.009860374 0.032959126 0.07239046 0.12831531
000030 f0 45 21 bc 7f da 29 bd 1f 50 40 3d 5f a2 4a 3d
       -0.009843335 -0.04146814 0.04695141 0.049471255
000040 69 a3 50 bd d6 dc 96 3d 89 ec 47 3c a4 8b b3 3d
       -0.05093709 0.0736634 0.0122023905 0.08766869
000050 ec d8 0f 3e ef 97 45 bd 7c 58 84 3d e5 e4 46 bc
       0.14047593 -0.0482406 0.064621896 -0.012139534
000060 14 46 cc 3c a0 f3 83 bd ec a0 48 bc 55 8c 29 3b
       0.02493576 -0.06442952 -0.012245398 0.0025870998
000070 d3 20 ea 3d 03 61 91 bd e1 6f a4 3d d0 43 69 3d
       0.11432042 -0.07098582 0.08029152 0.056949437

fc1.weight f4 [32, 512]
000000 54 c2 9b 3c c4 da 94 bd 70 d9 8a bb 64 7c 6d bc
       0.019013561 -0.07268289 -0.0042373464 -0.014494989
000010 29 eb 30 bd 53 c9 94 bc 20 c0 85 bd ee 93 cc bd
       -0.043193016 -0.018162405 -0.065307856 -0.09989153
000020 ca 18 9f 3d 2e 04 74 bd ae 0d 5f 3b 82 09 70 bc
       0.077684 -0.0595743 0.0034035253 -0.014650704
000030 40 9a c2 3d aa 78 bd bc ac 85 1d 3d 66 fe a6 bd
       0.09502077 -0.023128826 0.038457558 -0.081539914
000040 30 3a 94 bc 3f d4 b4 3b 65 72 b7 bc 32 18 62 3d
       -0.018094152 0.005518466 -0.022393415 0.055198856
000050 18 a7 56 3d 12 11 9b bc 2c f0 fe bc e5 e6 e7 3d
       0.052405447 -0.018929038 -0.031120382 0.113233365
000060 e1 92 cb ba 0a 82 d6 3c a2 80 cf 3b c6 5a 93 3d
       -0.0015531444 0.026185054 0.006332473 0.07195048
000070 69 b2 44 bd 86 3e 8b bc 7a ce df bb 58 a5 3e bc
       -0.048021708 -0.016997587 -0.006830034 -0.011636101
000080 b8 5e ea 3a c3 59 ad bc 01 f0 10 bd 6c 0c 8a bd
       0.0017881012 -0.021160966 -0.035385136 -0.067406505
000090 20 20 66 3d 1f 1b 0d 3d ab c2 20 3d 5a 00 8e 3c
       0.05618298 0.034449693 0.03924815 0.017334152
0000a0 2e b2 b7 3c e7 13 e4 3c 9c 38 65 3d 79 8f 24 3d
       0.02242383 0.027841521 0.05596219 0.04017589
0000b0 a7 1f 12 3d b3 d8 9b bd c5 e2 c8 3b 22 e6 46 bd
       0.035674717 -0.076096915 0.0061305487 -0.048559316
0000c0 96 ad c3 bb 63 9b 45 bc 25 f6 83 3c d7 b1 0b 3d
       -0.005971621 -0.012060973 0.016108582 0.03410515
0000d0 d9 34 97 3c 2b 79 ca bc 3f 61 c3 3a e1 5f 5b 3b
       0.018457817 -0.02471598 0.0014906301 0.0033473896
0000e0 7e f2 b7 3c 88 87 89 bb 0b 65 16 bd 5b db 09 3c
       0.022454496 -0.004197065 -0.036717456 0.008414115
0000f0 cc d3 c6 bc ab de c0 3b d5 a1 19 3d c5 7e a5 3c
       -0.024270914 0.005885919 0.03750785 0.02020205
000100 f2 7e 78 3d ec 5e f3 bc d0 f6 ec 3b 94 15 1a 3b
       0.06066794 -0.029708348 0.007231571 0.0023511397
000110 86 ec b5 3d 96 ce 82 bc 62 3e 54 bb 26 50 a6 3d
       0.08883004 -0.015967648 -0.0032385816 0.08120756
000120 ed 16 de 3d 65 1d 9e bd 6d 66 7b 3a 64 da 36 3c
       0.108442165 -0.0772045 0.0009590153 0.011160467
000130 7e 88 97 3d 2a 67 3a bd d0 41 96 bc 28 62 01 3c
       0.07399081 -0.04550854 -0.018341929 0.007896937
000140 29 81 02 bd b1 04 0b 3d 81 b8 9e 3b b1 c5 2e bd
       -0.031861458 0.03394002 0.004843772 -0.042669002
000150 07 bc 01 3d 91 de 01 3d 68 8c 01 3c f2 82 f6 3a
       0.031673457 0.031706396 0.007907011 0.0018807335
000160 83 5b 44 3d 48 f7 15 3d d5 f1 84 bc bf 16 e5 bc
       0.047938835 0.03661278 -0.016228596 -0.027964948
000170 a2 9d 6d ba 9c 87 ac 3c a6 60 03 bd 28 7c 81 bc
       -0.00090643216 0.021060757 -0.032074593 -0.015806273
000180 3b 6d 07 bd 07 3b 1a bd 1a bd ac bd cd cd 61 bd
       -0.033063155 -0.03765395 -0.08434506 -0.055127908
000190 32 2e 04 3d 19 b6 27 bd 8b c1 92 3c dc a1 c6 bc
       0.032270618 -0.040945146 0.017914554 -0.024247102
0001a0 fc 41 ee 3c 83 aa 92 3c bf 7b 96 3c 70 b0 e1 bb
       0.029084198 0.017903572 0.018369554 -0.006887488
0001b0 a8 0b 30 3c dd d9 70 3d 6e ff a7 3d f6 2a c3 bd
       0.010744967 0.05880152 0.08203016 -0.095296785
0001c0 fa f8 5a 3d 76 bb e8 3b 92 64 3e 3b 78 d6 8f 3d
       0.0534601 0.007102425 0.0029051644 0.070233285
0001d0 2d d1 4a bd 4e 7f 5e 3c 5c 9b 43 3d c1 84 a4 3d
       -0.04951589 0.0135801565 0.047755584 0.08033133
0001e0 e5 7a 19 3d 77 05 4f 3d 4e d5 0d bd 40 22 0e bc
       0.037470717 0.05054232 -0.03462725 -0.008675158
0001f0 79 f1 c0 bb 7f 9d 65 bc 4c cb 7a 3b aa 24 d3 3d
       -0.005888161 -0.014014601 0.0038268147 0.103097275
000200 ae 36 68 3d df 81 8e bd 74 3c 96 3d 9c 5f cd bd
       0.05669277 -0.06958365 0.07335749 -0.10028002
000210 18 c8 2c 3d 13 74 cd 3c 3e f1 b5 3d a3 fe 86 bd
       0.04218301 0.025079763 0.08883904 -0.06591537
000220 44 7e 0b bb 48 aa a6 3c 5f 8d 26 3d 23 55 40 bd
       -0.0021284977 0.020344868 0.040662166 -0.046956193
000230 d1 d0 31 bd 43 74 41 bd cc 46 47 3d e2 03 32 bd
       -0.043412033 -0.047230016 0.0486515 -0.043460734
000240 7e c6 f2 3b 58 2e 5b 3d fb a4 66 bd a3 8c bf 3c
       0.007408916 0.053510994 -0.05630968 0.02338249
000250 94 df 67 3c b4 ad 97 bc 17 1a 78 bc df 4d 12 3d
       0.014152426 -0.018515445 -0.015142939 0.035718795
000260 af c6 4f 3d 29 c7 66 bc 90 d2 4a 3a 7c e7 76 3d
       0.05072659 -0.014085569 0.0007737065 0.060279354
000270 3f 2a 61 3c 75 51 84 3b 18 37 e0 3c 8c 14 82 3d
       0.013742982 0.0040380307 0.02737002 0.06351575
000280 72 a4 16 bb 12 55 b4 bd 5f f3 77 3d 20 47 b9 b8
       -0.00229862 -0.088052884 0.06053483 -8.8347355e-05
000290 70 dc 94 3d 34 26 1c be b8 7f e2 3a 63 84 90 bb
       0.072686076 -0.15248948 0.0017280495 -0.004410313
0002a0 ae 90 86 3d 64 8b 35 bd cd 2c f8 3d 4f e2 11 3d
       0.06570564 -0.044322386 0.1211792 0.035616215
0002b0 36 2e 62 3d 0e 52 78 3d 37 2a bd 3c 75 1d 94 bb
       0.05521985 0.06062513 0.023091419 -0.004520113
0002c0 0d 57 7a 3c d3 84 81 3b 2a a9 84 3d 76 d6 c3 3c
       0.015279544 0.0039526015 0.06477578 0.023905974
0002d0 c9 ec cd 3d d9 ce c6 3d c5 bf 74 3d df 41 05 3c
       0.10054929 0.09707422 0.0597532 0.008133381
0002e0 a1 a5 9d 3d c0 40 de 3c 5c ac 39 3d cc d9 50 3c
       0.07697607 0.027130485 0.04533039 0.012747239
0002f0 24 18 99 3c ca 61 df bc cc 8f 02 3d b1 7a 53 3d
       0.018688269 -0.02726831 0.031875417 0.05163068
000300 0e 49 4f bc 6e 0b f2 bb 1d e9 2c 3d 64 1b a2 bd
       -0.012651695 -0.0073866164 0.0422145 -0.079153806
000310 aa fb 9d bc 24 dd 1e 3d 55 74 69 3d 7f b1 b3 bd
       -0.019285042 0.038785115 0.05699571 -0.08774089
000320 ea 98 1a bd 3f 8c 81 3d 5e 25 d1 3c 9a 40 23 3d
       -0.037743486 0.06325578 0.025530513 0.03985653
000330 8e 3e 59 bd 16 40 c5 3b ab 83 fd bb b3 e6 c2 3c
       -0.053038172 0.0060196025 -0.0077366433 0.023791647
000340 fa d6 9f bc 07 de f7 3b ef b5 09 bd 6c f1 b8 3b
       -0.019511689 0.0075643095 -0.03362077 0.005644014
000350 9d 65 5a bd 4d 26 b5 3c e2 ff 53 bc 26 ee 7a 3c
       -0.053319562 0.02211299 -0.012939425 0.015315568
000360 2d e2 a7 3c 29 0e 1d 3d 1d c5 f4 bc 90 0e cc 3c
       0.020493591 0.038343582 -0.029879147 0.024909288
000370 cd f2 5a 3d 40 ae ce bc 69 90 b9 bd 8e 94 4d 3d
       0.05345421 -0.025229573 -0.09060747 0.0501905
000380 5c 01 1d 3c 42 60 5d bc 2e 48 db bb 77 82 17 be
       0.009582844 -0.013511719 -0.006691954 -0.14795862
000390 8d 36 af 3d ea f2 ca bc 2c 04 27 3d 84 5c 00 be
       0.085553266 -0.024774034 0.040775463 -0.12535292
0003a0 0e 51 12 3e 7f 11 a2 3c ac 3d ce 3d d7 0b c8 bd
       0.14288732 0.019783733 0.10070357 -0.09767883
0003b0 31 92 4a 3c e0 89 08 3d 35 4b c5 3d 7f 10 2d be
       0.012363956 0.033334613 0.09633485 -0.16900824
0003c0 fe cc 93 3c 4b 20 f3 bc 70 64 87 bc 6b e5 dd bc
       0.018042084 -0.029678484 -0.016527385 -0.027086934
0003d0 dc 38 32 bd 28 b1 0e bc 14 dc 18 bd 83 87 a8 3c
       -0.043511257 -0.0087092295 -0.037319258 0.02057243
0003e0 65 e2 c4 bc ba 93 c1 3c cf b0 d5 3c cf 80 c3 bc
       -0.024033735 0.023630012 0.026085285 -0.023865132
0003f0 4e 38 14 3d f3 63 4c bc c3 4c 26 3d a2 80 01 bd
       0.03618651 -0.012475002 0.04060055 -0.031616814

fc1.bias f4 [32]
000000 b5 f9 d1 3d 29 62 ec bc ce 2b c5 bc 1f 79 fe bc
       0.10252706 -0.0288554 -0.02406874 -0.031063614
000010 fd 82 31 3d ad e8 05 bd a0 da bf 3c 48 14 17 bc
       0.04333781 -0.0326926 0.023419678 -0.009221144
000020 1f 43 93 3c 37 10 0f bd e5 ab 9b bd b3 82 a9 ba
       0.017976342 -0.034927573 -0.07601146 -0.0012932628
000030 93 1d 41 3d 5a 27 30 bd 29 de 51 3c f2 cc 40 bd
       0.047147345 -0.04300628 0.012809315 -0.04707045
000040 36 4c cd 3c 4f ba 0f 3e d5 24 e2 3c 32 2d 30 3d
       0.025060754 0.14035915 0.027605454 0.04301185
000050 53 60 05 3d 1d a9 c1 3b 6a ab 05 bd bd 97 bd 3c
       0.032562565 0.0059100525 -0.032634176 0.023143644
000060 31 ba 21 3d 92 c8 a6 bb 89 4b 05 3d 16 81 2d 3e
       0.039484207 -0.005089828 0.03254274 0.16943774
000070 b3 ee 13 bd a1 78 e3 3c 29 c3 7a 3d bd 90 95 3d
       -0.036116313 0.027767481 0.061221275 0.07302997

out.weight f4 [10, 32]
000000 50 50 f2 3b dc 0f ee 3d 06 9f db bb 1f d4 a3 bd
       0.007394828 0.11624119 -0.0067023067 -0.07999443
000010 38 ef 42 be 04 21 c8 3c 79 6e 25 bd d0 8c 37 3c
       -0.19036567 0.024429806 -0.040388558 0.011203006
000020 a2 72 2f 3e 7f 3e 0b bd 33 15 83 be 61 44 a0 be
       0.17133573 -0.033995148 -0.2560211 -0.3130217
000030 5c 80 ed be 06 58 29 3e e5 b1 ed bc 37 79 fc 3d
       -0.46386993 0.16537485 -0.02901549 0.123278074
000040 61 d3 6a 3d c8 ed 96 3e ce af b7 3d 0a f3 06 3e
       0.057330493 0.29478288 0.08969079 0.1317865
000050 c9 7b 4d 3e eb 78 5d be ad ad df 3c d5 fe 8e bd
       0.20066752 -0.21628158 0.027304495 -0.06982199
000060 a4 d0 fc bd b9 ab 13 bd 49 07 5b 3e f7 99 92 3e
       -0.123444825 -0.03605244 0.21389498 0.2863309
000070 77 86 d4 ba 6f 66 b5 bd 01 5d 0a 3f ef 96 4d bd
       -0.001621439 -0.08857428 0.5404816 -0.05019277
000080 bd 4b 02 bf d8 e5 54 bd 02 43 07 be f4 af 8e bd
       -0.5089682 -0.05197701 -0.13209155 -0.06967154
000090 f2 75 a4 3d 37 b4 d7 bd 8a 31 08 3e 74 95 35 3d
       0.08030309 -0.1053242 0.13300148 0.044331983
0000a0 a4 0e 96 3c 93 7b e3 3e 1f bd cf 3e ea 1f a9 be
       0.018317528 0.44430217 0.40573975 -0.3303216
0000b0 74 f9 95 be 3a 6d 53 3d bb 10 06 be dd 8e 1e 3d
       -0.2929188 0.05161784 -0.1309232 0.038710464
0000c0 2a 95 9f 3d 69 e3 e1 be 1e 35 52 be 90 67 09 be
       0.07792123 -0.44118813 -0.20528075 -0.13418412
0000d0 bc 0f 06 3e 92 ef ec 3e 50 cb f3 ba e5 b4 28 3e
       0.1309194 0.46276528 -0.001860002 0.16475256
0000e0 ae c1 6d 3d 3b 54 e2 bd f7 e8 e1 3d 79 b3 c6 3d
       0.058046035 -0.11051222 0.11030763 0.097022004
0000f0 b9 3b 44 3e f7 d5 22 be 2c 23 ab 3e 79 da a0 be
       0.19163407 -0.15901934 0.33425272 -0.3141668
000100 97 1f 8d 3e 33 83 4e bc 3a 64 20 bd 99 c2 4e bd
       0.27563164 -0.0126045225 -0.039158083 -0.05047855
000110 8d 69 b8 be d9 90 15 3e ba 9a cb bd 54 de 5b be
       -0.3601803 0.14606036 -0.09941621 -0.2147153
000120 2f 39 ce bd 53 54 41 be 47 31 8c be db bc 97 be
       -0.10069501 -0.18879823 -0.27381346 -0.29636273
000130 ee 5d c4 bb 9a c5 31 3e 1c 89 ba bd d4 82 20 bd
       -0.0059926426 0.17360535 -0.09108183 -0.039187267
000140 98 4e 11 3e cc 6b 69 3d e6 79 43 3d 68 a4 6d bd
       0.14190137 0.05698757 0.047723673 -0.05801812
000150 c8 af d2 3e c5 0b 8a 3d 5e 95 af bd 9f 2a 18 be
       0.41149735 0.06740526 -0.085734114 -0.14860009
000160 de 60 1c be 85 8a 0f 3e 84 d4 9e bd 85 30 f6 3e
       -0.15271327 0.14017685 -0.07755378 0.48083892
000170 77 c0 9b bd 53 71 be 3d 3d 54 da be 46 23 fe bd
       -0.07605069 0.09298959 -0.42642394 -0.124090716
000180 91 28 73 3e 34 80 13 be 24 75 04 bd e9 20 d5 3d
       0.23745944 -0.14404374 -0.032338277 0.10406668
000190 a8 91 9c 3e 05 19 b4 3d aa 08 a1 3d 2f 83 c8 3e
       0.30579877 0.087938346 0.07862981 0.39162585
0001a0 08 26 fa 3d 47 61 76 3e 07 39 8d bd 60 5b a1 be
       0.12214285 0.24060546 -0.06895643 -0.31515026
0001b0 93 f2 90 be 41 3c 03 3e 40 4b ef bc f3 35 95 bc
       -0.2831007 0.12815954 -0.029210687 -0.018214202
0001c0 ff a1 05 3d 24 04 88 3e bc 98 1a be a8 69 1c be
       0.032625195 0.2656566 -0.15097326 -0.1527468
0001d0 47 1d 69 3e 3c a5 9e 3d 56 bb 3e bd 4f 3f 73 3d
       0.22765075 0.0774636 -0.046565376 0.059386548
0001e0 3b 3c 0c be 0c a3 b0 3d fe 7d 9f bd 40 95 3d be
       -0.13694851 0.08624849 -0.07787703 -0.18513966
0001f0 b7 34 27 3e b7 3b 8a bd 71 8d 30 bd 18 56 b9 be
       0.16328703 -0.06749671 -0.04310364 -0.36198497
000200 4b 0b 27 3e f9 62 e5 bd 5a 1e 97 bd 43 2e 38 3d
       0.16312902 -0.11200518 -0.07378836 0.044965994
000210 3e 3c 1d 3d 22 f7 12 bb ce 18 88 bd 1f c4 1d be
       0.03838753 -0.0022425135 -0.06645356 -0.15406846
000220 f2 bc 20 3e 35 55 ef 3d c8 35 ad 3e ff da b0 be
       0.15697077 0.11686174 0.33830094 -0.3454208
000230 77 6c cf 3e 43 31 ab 3d b7 60 20 be fa cd 13 be
       0.4051244 0.08359005 -0.15661894 -0.14434043
000240 7c 90 4d bb fb fe 1a 3d 13 98 fd bd c1 a7 07 bc
       -0.0031366637 0.037840825 -0.123825215 -0.008279742
000250 31 2b db 3e 7f 5e 70 3d c8 00 91 bd ff 42 fd bc
       0.4280639 0.05868387 -0.07080227 -0.030915735
000260 d6 5d fe 3d b1 04 93 bc 9a c1 c5 bd eb 58 38 3e
       0.124202415 -0.017946573 -0.09656067 0.1800267
000270 68 da 8f bd 10 8a 2f 3e 9e bc 8c be 35 2d d1 be
       -0.070240796 0.1714251 -0.27487653 -0.40854803
000280 62 17 09 3e da 92 23 be 26 b7 6f be 7b 5a 17 be
       0.13387826 -0.15973988 -0.2340971 -0.1478061
000290 66 65 ca be 4a 29 aa 3c 53 14 12 be 4a c8 f5 3c
       -0.39530486 0.020771641 -0.14265566 0.030002732
0002a0 3a c0 8f 3e 76 05 b6 bb b1 1a 00 bd 03 a7 0e 3f
       0.28076345 -0.00555485 -0.031275455 0.5572359
0002b0 f5 9d 9a bd 53 51 00 bd 5a 22 77 3e f7 13 f6 bd
       -0.07549659 -0.031327557 0.24134198 -0.12015527
0002c0 89 2b 61 3e e5 54 b6 be 18 a2 e7 bd a8 65 0e 3e
       0.21989264 -0.35611644 -0.11310214 0.13905966
0002d0 a5 a1 f5 be b1 05 00 3e 83 c1 25 be 40 f1 f5 bd
       -0.47974887 0.12502171 -0.161871 -0.120089054
0002e0 6c f9 d6 bd 55 fe 12 be ec ff c5 3c e3 6d ae be
       -0.10496792 -0.14354832 0.024169885 -0.34068212
0002f0 9a 8b f3 3b a6 67 92 bb ed e2 37 be c6 bf 95 3e
       0.0074324133 -0.0044679223 -0.17957659 0.29247874
000300 46 e8 5a 3e 4b 36 0a 3e 61 1a eb bc a3 2a 78 bd
       0.21377668 0.13497274 -0.028699102 -0.060587537
000310 ca 72 42 be ba 39 f4 bd f1 3f 1f 3d f5 74 8a bd
       -0.18989101 -0.11925073 0.03887934 -0.06760589
000320 bc 5a 69 bc 31 86 02 3d db fb fb bd 04 d6 aa be
       -0.014242824 0.031866256 -0.12303897 -0.33366406
000330 ac f0 01 3e e9 c8 9c bc a1 11 ee bc 95 82 8b bc
       0.12689465 -0.01913877 -0.02906114 -0.01703004
000340 40 65 0b be 5e 47 db 3d 35 a8 d4 bc c7 a0 2b 3c
       -0.13612843 0.107069716 -0.025959114 0.010475344
000350 39 bb a1 3e f1 bf b0 bd 19 6c 09 bd 5b 43 62 3d
       0.31588152 -0.0863036 -0.033550356 0.055240016
000360 65 b4 60 bd 94 e3 dd 3d 2b 87 49 3d 5f fe bb 3e
       -0.054859538 0.10834423 0.04920117 0.36717507
000370 44 9b 4b bc 6b 9a 7b bd 1b d2 9e 3e a3 f5 29 be
       -0.012427155 -0.06142656 0.31019673 -0.16597609
000380 27 d8 0c bf 97 66 31 3e 24 07 dc bd f2 1a d8 bc
       -0.5501732 0.17324291 -0.107435495 -0.026380036
000390 3e 86 e7 3e e1 f4 c5 3d 3c 78 ae bd f2 ee 7e be
       0.45219606 0.096658476 -0.08519027 -0.24895838
0003a0 c2 6b 20 3e dc 14 62 be 29 59 2d 3e 73 ff c5 3e
       0.15666106 -0.2207827 0.16928543 0.38671455
0003b0 6a 73 4f bd 74 86 28 3e 22 ba d9 3d d8 7e 49 bd
       -0.050647177 0.1645754 0.10631205 -0.049193233
0003c0 28 7a 32 be cf ad 38 be 4e 25 95 3c d3 4d 33 bd
       -0.17429411 -0.18035053 0.018206265 -0.04377539
0003d0 f9 80 10 bf 0e 06 8a bd 99 52 ea bd 8a 98 b6 bd
       -0.56446797 -0.06739436 -0.114415355 -0.08915813
0003e0 1a 46 a1 3d 16 26 0f 3e f2 99 0d be a5 19 f1 be
       0.07874699 0.13979372 -0.13828257 -0.47089878
0003f0 c9 4a 96 bd ff f2 2c be d3 1e a2 bd 4f 37 11 3f
       -0.07338483 -0.1688957 -0.079160355 0.5672502

out.bias f4 [10]
000000 7d 2b 0b 3e b4 47 21 be 57 c6 8f 3d 5c cf 65 be
       0.13590808 -0.15750009 0.07020252 -0.22442383
000010 ca fb 90 be 6d a3 05 3e eb b3 ee 3d 7c c0 04 be
       -0.283171 0.13050623 0.116554104 -0.12964052
000020 98 da 89 3c 1f 85 55 be
       0.016827866 -0.20851563
