lab_3/logs_task_3a/epoch=80-step=6480.ckpt (torch, 449867 bytes, 8 tensors)

linear1.weight f4 [128, 784]
00000000: 2913 dcbc eebc 033c b159 13bc fae4 cd3c
00000010: 3278 3ebc b96a 5b3b d532 69bd 322b 30bd
00000020: db65 86bd 87a2 2abd ebb6 debc 7609 d9bd
00000030: 0b0b 8c3d 378e 023d 938f 44ba 9cdd 4fbc
00000040: a3bb a23d 6a05 bfbd d47a 8cbd 1f11 d8b9
00000050: 991d 1cbd 6206 0dbd 5dc4 803c 9548 b23c
00000060: 76fb b2bc 4e8b 80bc 7253 acbc b72b e2ba
00000070: e4ec fbbc 66ae 47bb c84f 6e3d eea7 a33b
00000080: 07c5 c23a bf8d 85bc ea2f c7bc d598 d13c
00000090: f421 17be 885d aabe 4786 59be c4f0 43be
000000a0: 1cfa eabc d954 11bd 7f7f c3bd 2a73 b23d
000000b0: e046 9dbd 0c30 8bbe 0996 96be 85aa 30be
000000c0: 9063 f1bd 86cf 8cbc 4d07 2ebc ad48 963c
000000d0: 05b2 723d 6799 0b3d a550 e1ba 867d a13b
000000e0: 8ebc 91bb 96d4 dd3c d7f3 083d 099f c03c
000000f0: 3f90 ec3c baa0 073d 4cdf ea3d f2c1 943d
00000100: 95d1 fdbd dbb3 1abe b769 453d 3144 48bd
00000110: d066 9ebd a72f 303c cf82 38bd 88c2 033d
00000120: f411 0dbd a09c a4bd 920e 9fbd 9d51 c0bd
00000130: 5562 d63c 1baa 9e3d 1627 203c 58c6 1b39
00000140: 8416 303d 1ca3 923d eea7 f83b 37c9 263c
00000150: 5790 52bb f0dc 15bd 846b 55ba 3059 8f3c
00000160: 1dd6 943d 828a 8b3d cf1a df3d e1f3 103e
00000170: 13d7 fe3d a12a 0c3d ebdb 7d3d d5de ecbc
00000180: 52a6 203b 9259 60bc 6763 21bd 0eeb 0b3e
00000190: fd30 043d 4ccf dabc e5b0 7a3d a412 8d3d
000001a0: 4b5a 353e 63ed 263e dfbd 6b3d 561f b43c
000001b0: be11 703d 20e4 893a d23f 563c 8818 6d3c
000001c0: cbed 833b 9ae0 b73c d747 cd3c 6708 9d3d
000001d0: df99 7f3d 087c b53d 3837 893e 364f f93d
000001e0: 137d f4ba f587 b53c 5223 94bd b8bf 39bd
000001f0: cc43 833c cd3d 3ebd 48a7 03be 9ee3 08bd
00000200: 0973 6fbc 0807 02bd 4d39 6e3b 03c3 e2ba
00000210: 8ccb cb3d 6c36 2d3e 2fe0 673e b7bf 993d
00000220: 2631 a63d 260d 5e3d df93 043d e7cb fd3b
00000230: 4390 c2bc c262 733c 5bd8 e23b e2be 873d
00000240: e1b7 2ebb 5527 163e 0553 523e 10cb 9f3c
00000250: e795 45bc d54b 42bd edb7 d5ba 3a2f b93a
00000260: c342 893c 019f 0d3c 4229 febd 9859 fcbb
00000270: 4420 c33c 36dd 7b3d b942 b1bd c09d 5dbd
00000280: 3090 313d 486b 623d 2655 533e 897b 103e
00000290: 4d30 2f3d 66f5 693d fd8f fbbb 9545 b7bc
000002a0: d620 38bc 17a5 95bc 3671 acbc 6a29 683c
000002b0: 7531 a43c 58cd 373e 204e cc3d 176c 953c
000002c0: cda3 9fbd d1be 22bd b955 54bc 18c1 d43c
000002d0: 8aaf 803d 725f 983d e45e 99bd 1cf7 583d
000002e0: 996e fdbc 6781 d33c e6fe c8bd 0d6c babd
000002f0: 03ce 3bbc 5a81 483c 0503 433d 3d92 313e
00000300: ba8d 813d ec4b be3c e9ff abbc 4350 2a3d
00000310: cda7 48bd 72ff e5bc eafb 1c3d d9d5 cc3c
00000320: ee32 de3d 78c9 b83d 88cf d83d a699 493d
00000330: b027 17bc 8b88 743d 1bed 293d 57ae 623d
00000340: 217e 1f3d 098e cc3d 46e9 a13d dc12 333d
00000350: 8031 28bd feaf 1fbd 4a18 e33b 4e06 d0bd
00000360: 0a6d e73a dc25 193e c7ab b93c ab9d c83d
00000370: 8e6e 863d 64b5 873d b907 7c3d 3c6c 7e3c
00000380: d5ac d3bb 045c 1a3d 9577 643d fc41 b53d
00000390: aa91 3a3c 354c cebb b74d a83d f5f1 9e3d
000003a0: 1699 8fbc 283a 32bd f05b 323a 7134 2e3c
000003b0: 31b2 1bbd dbcd 7b3c b37a ddbc 24fb 6d3c
000003c0: e680 aabd d8ac 203d 20f3 53bc 4210 75bd
000003d0: 3e03 0a3c 5d38 afbc 7026 f63c d6a7 8c3d
000003e0: fd9e d43c b4d1 9c3d d5e3 153d e800 b4bb
000003f0: 4bed f5bc d791 2ebb b4ce 4e3d 7857 7b3d
-0.026864605 0.00804065 -0.008993552 0.025133599 -0.0116253365 0.003348036 -0.056933243 -0.043009944
-0.06562396 -0.041658904 -0.027186831 -0.10597508 0.06838044 0.031873908 -0.0007498201 -0.012687113
0.07945945 -0.093272045 -0.06859365 -0.00041211487 -0.038114164 -0.034429915 0.015718633 0.021763125
-0.021848422 -0.015691426 -0.021035884 -0.001725546 -0.030752607 -0.003046894 0.058181554 0.004994384
0.0014859744 -0.016302941 -0.02431484 0.025585571 -0.14759046 -0.33274484 -0.21242629 -0.19134814
-0.028683715 -0.035481308 -0.09545802 0.08713372 -0.07679534 -0.27185094 -0.29411343 -0.17252548
-0.11786568 -0.017188799 -0.010621858 0.018345201 0.059251804 0.034081843 -0.0017190172 0.0049282936
-0.0044475263 0.027078908 0.03343567 0.023513334 0.028877376 0.033112265 0.11468372 0.07263555
-0.1239349 -0.15107672 0.04819652 -0.048893157 -0.07734454 0.010753549 -0.045046624 0.03216794
-0.03444095 -0.08037686 -0.07766451 -0.093905665 0.026169935 0.07747289 0.009774944 0.0001485584
0.042990223 0.07160017 0.007588378 0.010179809 -0.003212949 -0.036587656 -0.0008141326 0.017498583
0.07267401 0.06813528 0.10893785 0.14155532 0.12443366 0.03422034 0.06197731 -0.028914848
0.0024513197 -0.01369323 -0.039401438 0.13663885 0.03227328 -0.026710175 0.061203856 0.06888321
0.17710225 0.16301493 0.057554122 0.021987598 0.05861067 0.0010520257 0.013076739 0.014471181
0.00402615 0.022445966 0.02505867 0.07667618 0.062402602 0.08861548 0.2679994 0.121733114
-0.0018652998 0.022159556 -0.07233299 -0.045348853 0.016023539 -0.046445657 -0.12856781 -0.033420198
-0.014614829 -0.031744987 0.0036350072 -0.001730055 0.09950933 0.16915292 0.22644113 0.0750727
0.08114843 0.054211758 0.032367583 0.0077452543 -0.02375043 0.014855089 0.0069227642 0.06628205
-0.0026659893 0.14663441 0.20539482 0.019506007 -0.012059665 -0.0474356 -0.0016305425 0.0014128454
0.016755467 0.0086438665 -0.12410213 -0.00770111 0.023819096 0.06149026 -0.086553045 -0.05410552
0.0433504 0.055278093 0.2063795 0.14109625 0.042770673 0.057118796 -0.007677077 -0.022372046
-0.011238297 -0.018267198 -0.021050077 0.01417003 0.020043114 0.17949426 0.09975839 0.018240018
-0.077949144 -0.039732758 -0.012959891 0.02597098 0.062834814 0.0744008 -0.07488802 0.052970037
-0.030936526 0.02581854 -0.09814243 -0.0910264 -0.011462691 0.012237871 0.0476103 0.17340942
0.0632586 0.023229562 -0.02099605 0.04158045 -0.048988152 -0.028075907 0.03832618 0.025004314
0.10849558 0.09022802 0.105864584 0.049218796 -0.009225771 0.05970053 0.041485887 0.055342045
0.038938645 0.099880286 0.079058215 0.043719158 -0.041062832 -0.0389862 0.0069303857 -0.101574525
0.0017656398 0.14955848 0.022664918 0.09795698 0.065640554 0.066263944 0.061530802 0.015528735
-0.006459812 0.03768541 0.055778105 0.08850476 0.011387268 -0.0062957057 0.08217948 0.077609934
-0.017529052 -0.043512493 0.0006803861 0.01063262 -0.038011733 0.015368904 -0.027036047 0.014525209
-0.08325367 0.039227337 -0.0129363835 -0.059829958 0.008423625 -0.02138918 0.030047625 0.0686795
0.025954718 0.07657185 0.03659423 -0.005493272 -0.030020377 -0.002663722 0.050490096 0.061362714

linear1.bias f4 [128]
00000000: b753 72bb ea87 45bc aed8 543c 31a8 f03c
00000010: 641f 25bd af02 89bd 71c2 22bb 3caf a53c
00000020: 7a0f ea3d d43f 823d 8d04 8fbd d1e9 88bd
00000030: b497 9c3d e96e 373d 61a7 0f3c b7ef 123e
00000040: 4795 233c d8f2 b7bc a7ed 14be b164 1e3d
00000050: 08e1 283d a033 30bd 81cc df3d 34ab 6b3d
00000060: 9ec0 f6bc 9c79 ba3b ea06 90bd e8ef 87bd
00000070: 9630 43be 130e 0a3e 648f ddbd d7e2 113d
00000080: 3b2c e0bc 37d6 b63c 17df 03bd 6b34 3e3e
00000090: 8124 163e c19e bcbc 9952 9f3c 1015 fd3d
000000a0: 3fe2 05bd 1809 9e3d b226 6cbc a455 5fbc
000000b0: bbfd 83bd 3a7d 0f3d 7888 843d ac60 b63d
000000c0: e995 d93d cb10 8e3d 4a41 e03b 4b98 91bd
000000d0: c1a8 363d 1bef c63b e6d2 943d aafd 693c
000000e0: 9547 723b d011 da3c c044 843c 1dc8 d33b
000000f0: bb87 4dbe fd55 c5bd 8fbf 5a3b 2ec2 bf3d
00000100: 3b46 193d 77df ac3d 6174 38bd e010 a73d
00000110: 345c 723d 84bd 4fbd ec00 9ebb 883a ae3c
00000120: 1c7e 013d 4e64 ca3a 286d 1cbe ec04 ca3d
00000130: b0ae 8abc 721a 89bc 6107 aebd 689c bc3d
00000140: de4f 8cbd 053e 8f3d 72bd a13c 8672 11be
00000150: 228d 033e 7c2e 6bbe 257c edbc 3c3b 413b
00000160: b97b 973b c000 2dbd 263b 33bd f864 4abb
00000170: 7e71 bbba a3be d3bc 375f be3b 3cfb c6bc
00000180: 153b a0bd 5e28 76bc 700a 1f3c 5ec2 0ebe
00000190: 0dd0 ed3d f37a 403d 12ed 37be 152f c0bd
000001a0: f7c4 d1bd 0889 74bd 34a0 f9bd c87a 1d3d
000001b0: efa3 593d ff85 8abc 9740 a3bd e06d c4bc
000001c0: a471 b8bd d389 823d b785 aabd e9aa 473d
000001d0: 5198 e03c 0b9c 48be 7a7d 283e c5d5 2a3d
000001e0: 629f b23d 750e 823d 0b9a 993d 384d a23d
000001f0: 94cd 6bbc 9e04 e0bb becb e7bc efc9 2e3d
-0.0036976167 -0.01205633 0.012991114 0.029377075 -0.04031314 -0.06689965 -0.0024835134 0.02022516
0.11428733 0.063598305 -0.0698329 -0.06685222 0.076461226 0.044783507 0.008767934 0.14349256
0.009984321 -0.022454664 -0.14543782 0.038670246 0.04123023 -0.043017983 0.10927678 0.05753632
-0.030121144 0.0056907665 -0.07032569 -0.06637555 -0.19061503 0.13481931 -0.10818365 0.035616722
-0.02736484 0.022318942 -0.032195177 0.18574683 0.14662363 -0.023024919 0.019448565 0.12357533
-0.03268647 0.07716578 -0.014413523 -0.013631258 -0.064448796 0.035031535 0.06471342 0.089051574
0.10624296 0.06936797 0.0068437206 -0.07109126 0.04459453 0.006070984 0.07266788 0.01428167
0.0036968936 0.026619822 0.016146064 0.0064630643 -0.20071308 -0.096355416 0.0033378338 0.09363209
0.037420493 0.0844106 -0.045032863 0.081575155 0.059169963 -0.050717846 -0.0048218872 0.021268144
0.031614408 0.001544127 -0.15276015 0.0986422 -0.016929 -0.016736243 -0.08497501 0.092095196
-0.06851171 0.06994251 0.019743655 -0.14203843 0.12846807 -0.22966951 -0.02898986 0.002948477
0.004622903 -0.042237043 -0.04375758 -0.0030882936 -0.0014300791 -0.025847739 0.0058096903 -0.02428972
-0.07823769 -0.015024273 0.009707078 -0.13941333 0.11611948 0.046992254 -0.17961529 -0.0938398
-0.10242646 -0.059700996 -0.121887594 0.03844717 0.053134855 -0.016909597 -0.07971304 -0.023978174
-0.0900605 0.06373944 -0.08326285 0.048746977 0.02741638 -0.19590776 0.16454116 0.041707773
0.08721806 0.06350414 0.075000845 0.079248846 -0.014392275 -0.006836488 -0.028295394 0.042673048

linear2.weight f4 [64, 128]
00000000: c830 b4bd 1d0c 883d c98e f2bc 9694 87bd
00000010: 42d8 3d3d 8917 dabc 9a2e 1e3c cde2 cdbb
00000020: cd90 b33c e706 2a3d dfef 0d3e 387a b03d
00000030: e524 67bd 8c7f c9bd f489 b8bd de5a 5b3d
00000040: 8a74 3f3e 5324 96bd 3ed3 583e 6e99 9bbd
00000050: 1ae4 023d 96a3 21bd b61f cc3c d0b4 3b3d
00000060: 78d2 ae3b 68a6 6abc 74cc bc3d b43a 22bb
00000070: 88f7 0f3e b8e7 17bd c8bb 3a3d ca5c a33d
00000080: fa2b 3a3e 1942 25be 5d53 9abc fcab 803d
00000090: 92cf 07be c92b 25be a3de 363d 20d0 68bd
000000a0: 2030 253e 800e 0dbe e79a a13d 182b 2cbb
000000b0: 7176 5bbc 2f6a 843b aa95 c13c e569 92bd
000000c0: ea0e 0a3d 0626 213e ba18 003e d4a2 673e
000000d0: 786a 92bd 4171 c63d 2a30 99bd b2a5 b63d
000000e0: 65c7 6c3b 7373 e4bd e5b1 83bd 587a 0a3e
000000f0: f5cf a93d 7ced d0bd f6f5 033e dad9 53bd
00000100: 762e 013d 3d65 f13d 0f9b b2bd fd7f 74bd
00000110: 1add 4ebe 4263 f6bd 8b12 133e 713f d03c
00000120: afb3 0c3e 9e09 1bbd 2c72 913d b1be e8bc
00000130: 6cef cebb 8613 d8bd a1d1 54bc 954e d2bb
00000140: 0eb0 ef3d 5482 ea3d 5186 c53d e2a4 8e3d
00000150: 910f f4bd 1162 cfbb c5f9 d3bd 34c9 20be
00000160: df66 43be fd9d aebd d0a7 0a3e 69e9 05bd
00000170: a73d b13d 54d4 c9bd da0f c0bb 9342 063d
00000180: 75c8 3fbd 81b1 f03c 9bec bcbd 8038 ee3c
00000190: 1717 c2bd 6378 44bd e123 693e 3417 94bd
000001a0: 27a5 f03d 7885 00bd 8676 b4bc 4b28 303c
000001b0: 60bd 46be 294c 023e 543f 013d 1a2f 2a3e
000001c0: 246a f83d b65f 00be fb28 c7bd 1536 1ebd
000001d0: 7b06 36bd 2325 8a3d 40bd 54be 2913 f23c
000001e0: ccd5 573d acfb 563d fcf0 29be 4942 41bd
000001f0: 7fd7 f53d a364 bebd 18bd a1bd d436 d23d
00000200: d8ae ed3d 031a aebd 80b1 e83d 3ebd c73d
00000210: c4aa 673d 6d12 5dbd 97bc 2fbe f7ac 323d
00000220: 5852 ba3d 508b 773d 2846 c33d 33c6 11be
00000230: 8dcb 2e3d 71ed afbb 42ea bc3d 9389 ad3c
00000240: e011 673d 2c9d 973c 78d4 053e f8c9 a23d
00000250: 7949 193e fe84 233e 7d1d d4bd ad41 acba
00000260: 8eb7 843d a18b a53d f8f8 03bd 78a6 99bc
00000270: cf92 71bd ea47 b53d e4fd aabd 4ee1 ae3b
00000280: cf75 df3d 9072 c43c 4434 39be 3864 013d
00000290: f7ed 19be 9831 f9bb c04c 8ebd a3d0 0a3e
000002a0: 75fa 973c d961 97bc c679 783d 39e6 2e3d
000002b0: 1f92 203d aa1c de3b 8432 033d 8c47 9abc
000002c0: 1ad8 0e3e 9725 1f3d b442 b6bd 312b c73d
000002d0: 8cff 28be 61f3 803d a541 71bd 1fd1 023d
000002e0: d741 663c b5b7 32bd 61cf 84bd 6c64 b63c
000002f0: 8241 9abd 1433 71bd 1ab9 a43d aee9 7cbd
00000300: 6ac1 123d 49a1 703d 0c36 5abd bb24 c1bd
00000310: 2b25 3cbe 1b3f 8dbc cf32 8b3d 76f5 b33d
00000320: 6057 da3d ef8d e6bd bd5a 073d ea67 8bbd
00000330: 00c3 fe3c ecc1 5bbd 2317 ffbd d93e 0c3e
00000340: 0e90 0b3d 7e49 663d 633d de3c 853d c43d
00000350: 5d99 223d c184 1abe d32d f9bd 453d 523d
00000360: d280 e5bd f35f 0cbd 2837 74bd d61f a3bd
00000370: 9fda 643d acf9 bdbd 30db 173e 8e36 cabd
00000380: a58a 92bd 7785 70bd 7db9 903d 2c1b a43d
00000390: 983b 8abd 8dc1 6b3d 71d4 ea3d 7d15 debc
000003a0: 09e3 e3bd cb9f 23bd 6528 a9bd 82a8 a4bc
000003b0: 0f5c 17bd 06f9 0b3e 4a34 abbd 5f13 913d
000003c0: 5656 99bd 7aab bdbd ce84 f5bd aaa2 d0bc
000003d0: cfa3 d9bd 9345 87bd 0d4e 573d 9052 c33d
000003e0: 09d6 783d 4245 b73d d38c 48bd eaed bcbb
000003f0: e2cc d5bc 6f25 34bc 9e5e ed3c a510 e6bd
-0.08798367 0.066429354 -0.0296091 -0.066201374 0.046348818 -0.02662255 0.009654665 -0.0062831403
0.021919632 0.04151049 0.13861035 0.086170614 -0.05643167 -0.09838781 -0.090106875 0.053553455
0.186968 -0.07331147 0.21174332 -0.07597624 0.031955816 -0.03946265 0.024917465 0.045826733
0.0053351484 -0.014321901 0.09218684 -0.0024754228 0.1405927 -0.03708622 0.04558924 0.079766825
0.18180838 -0.16138496 -0.018838579 0.062828034 -0.13262776 -0.16129984 0.044645917 -0.05683911
0.1613164 -0.13775063 0.078908734 -0.0026270803 -0.013394938 0.0040409784 0.023630936 -0.07149104
0.03370563 0.15737161 0.12509432 0.22620708 -0.071492136 0.0968957 -0.0747989 0.089183226
0.003612959 -0.11154833 -0.06430415 0.13523233 0.08291618 -0.102015465 0.12886795 -0.05172143
0.03153845 0.11786888 -0.08720981 -0.05969237 -0.20201531 -0.12030651 0.14362542 0.025420876
0.13740419 -0.03785097 0.07101855 -0.028411241 -0.0063151624 -0.10550599 -0.012989433 -0.006418059
0.11703502 0.11450639 0.096447594 0.06965043 -0.119170316 -0.006328829 -0.10350374 -0.15701753
-0.19082211 -0.085262276 0.13540578 -0.0326933 0.086543374 -0.098549515 -0.0058612647 0.032778334
-0.04682203 0.029381515 -0.092248164 0.029079676 -0.0947706 -0.047966372 0.22767593 -0.07230988
0.1175025 -0.031377286 -0.022029173 0.010751794 -0.19408178 0.12724365 0.031554535 0.1661953
0.1212962 -0.12536511 -0.09724613 -0.038625795 -0.044439774 0.067453645 -0.20775318 0.029550152
0.052694127 0.052486107 -0.16595834 -0.047182355 0.12003993 -0.09296539 -0.07897395 0.10264364
0.116056144 -0.08501055 0.113619804 0.09752892 0.05655934 -0.05397265 -0.17161785 0.043621983
0.09097737 0.060435593 0.095348656 -0.14235763 0.04267459 -0.0053688814 0.09224369 0.021183765
0.05641353 0.018507563 0.13069332 0.07948679 0.14969434 0.15968701 -0.10357187 -0.0013142132
0.06480323 0.08083273 -0.032219857 -0.018756136 -0.0589779 0.08851607 -0.08349207 0.005336917
0.10911142 0.023980409 -0.18086344 0.031589717 -0.15032183 -0.007604789 -0.06948233 0.13556151
0.018552044 -0.018479275 0.060663007 0.042700026 0.039201852 0.0067783194 0.032030597 -0.018832944
0.13949624 0.038854208 -0.08899441 0.09725035 -0.16503733 0.06296421 -0.058900494 0.031937715
0.014053783 -0.043632228 -0.06484867 0.022264682 -0.07532026 -0.058886603 0.08043118 -0.06174629
0.035828985 0.058747564 -0.0532742 -0.09430834 -0.18373553 -0.017242005 0.067968 0.08787052
0.10661197 -0.112575404 0.03304552 -0.068069294 0.031098843 -0.053651735 -0.12455585 0.1369585
0.034072928 0.05622243 0.02712888 0.095820464 0.03969704 -0.15089704 -0.121669434 0.051327962
-0.11206211 -0.03427119 -0.059622914 -0.079650566 0.055872556 -0.09276137 0.14829707 -0.09873687
-0.071553506 -0.058721032 0.07066629 0.08012995 -0.06749648 0.05755763 0.11466301 -0.027109856
-0.11127288 -0.039947312 -0.08259658 -0.020099882 -0.03695303 0.13669214 -0.08359583 0.07083773
-0.074871704 -0.09261222 -0.11988221 -0.02546819 -0.10626947 -0.06605067 0.05256467 0.09537232
0.060750995 0.08948757 -0.048962425 -0.0057656663 -0.026098672 -0.010995253 0.028975781 -0.112336434

linear2.bias f4 [64]
00000000: 0f82 d6bd 6db2 7bbc 6623 b7bd 20d2 8fbc
00000010: 760f f1bd 720e d0bc 4bf6 0c3d c316 143e
00000020: 09c7 a0bd 57be 5cbd c86c cc3d 0a93 5d3b
00000030: fa9b f2bd 7e18 c43d 617c 273e 6804 8cbd
00000040: 77b3 04be 5ffd 1fbe b9df d2bd edb6 b3bd
00000050: 8f3f 2cbd d3ba 0fbe a77c d83c a595 3bbd
00000060: a065 d73c b6bc 143e 4d1e fb3c ece1 43bd
00000070: 5035 653d 2cbc fcbc 558e 10be 1296 1abe
00000080: 727f 5d3d 51d9 d0ba db02 6a3d 3cec c43b
00000090: fc0d 5c3e 9c80 f3bd e18f 8d3c de98 07be
000000a0: 0c36 de3d 8714 713d 7bb7 c538 c07e 123d
000000b0: a5f8 14bc 2df5 55bd 5cfd 8a3d 1083 56bd
000000c0: 971c ff3c 0c88 58bd fb16 a93d 9354 5a3c
000000d0: 6392 e2bc 634c adbd e22e f93b f5d9 253e
000000e0: 87ac 82bd b382 703c 373f c1bd fc76 34be
000000f0: 7297 813d c0c9 25bb f289 853d fae0 5f3d
-0.104740255 -0.015362364 -0.089422986 -0.01755625 -0.11770527 -0.025397513 0.03441457 0.14461808
-0.07850463 -0.05389246 0.09981686 0.0033809566 -0.118461564 0.09574984 0.1635604 -0.06836778
-0.12959085 -0.15623997 -0.10296578 -0.08775125 -0.0420528 -0.14036112 0.026426626 -0.04579701
0.026293576 0.14525113 0.030654097 -0.047822878 0.055959046 -0.030851446 -0.14116795 -0.1509631
0.05407662 -0.0015933906 0.05713163 0.0060096066 0.2148971 -0.11889765 0.01728052 -0.13241908
0.108501524 0.058857467 9.427868e-05 0.03576541 -0.009092485 -0.05223577 0.06786606 -0.052371085
0.031141562 -0.05286412 0.08256336 0.013325828 -0.027657693 -0.08461835 0.007604466 0.16196425
-0.06380563 0.014679599 -0.094358854 -0.17623514 0.06327714 -0.0025297254 0.065204516 0.054657914

linear3.weight f4 [32, 64]
00000000: 0702 483e f195 7f3e 9044 2fbd a760 013e
00000010: a3c1 09bc df7d bebd 9f0c fabd 3c50 d83d
00000020: ebfb c4bd 1be2 01bd 382e 04be 9383 f03c
00000030: 41e6 19be 3c6b 87bd bebd 86be a783 f43c
00000040: 4714 4cbd fb0d a0bd 954b 1ebe 6da4 c6bc
00000050: 14d5 3bbe 8d7e bc3d 27bd 9d3b 2d6a 9c3e
00000060: 06a4 e13d 955c efbd 19b6 b5bd 6bba c63d
00000070: fb9d 163d d881 2e3e 796b 29bd e9ea 333e
00000080: 51d3 0ebd 575d 11be 98df 12be e3c5 303d
00000090: 70a6 233d d99a 113d 78c8 003e da1d 94bd
000000a0: a291 09be f491 aabd b369 a7bd a5d2 9abd
000000b0: 90d5 453e bff5 aebd fed6 e23d 9de4 16be
000000c0: 652f 073e e89c 523e a2dc 7dbc d6c8 d6bd
000000d0: 7f21 1abe 20f7 ed3d d535 f3bd cecd 753d
000000e0: 2521 d7bd 00a5 6fbe 7cdc c8bd f234 a83d
000000f0: d3b2 a2bd 8d4d 18be 02aa a03d 1e28 9fbd
00000100: ac25 12be d6bb d93d 1de4 f8bd 1de3 09be
00000110: fb16 7bbe dbd8 cd3d 9acb 58bc 091b 013e
00000120: 6c48 0d3e e00f 13be dc37 a63d c19a 5c3d
00000130: 5279 7d3d fc6b 653e c232 423e 6a58 69be
00000140: 445c d2bd 04cc 9abe 918d e2bd 7498 9abe
00000150: a783 963e 8528 0dbe f8f3 823e 0af2 8dbb
00000160: 93e9 743d 1406 8abe 182a 903e b9e1 5dbe
00000170: 31eb 30bb 3341 8bbd 7c50 86bd 2532 c5be
00000180: 792d e03d df37 793d 80c6 763d 91bc 2c3e
00000190: 0702 25bd 1c27 133e b9d2 e9bc ebf7 e23d
000001a0: a24d 9f3d 495f 193e 928f 2ebe b972 383e
000001b0: 41a3 3c3e 866b 773d 61b9 6ebd 13f7 1fbd
000001c0: bdab 833d 2ede 10bd 286c 853c a508 9f3d
000001d0: beae 793e 8efd 443e dd1d 5a3e 8490 06be
000001e0: 3965 d2bd 1f53 003e 7a00 9fbe 295b a5be
000001f0: 4064 83bd 987a 39be de12 973d 0964 4f3e
00000200: 3ed4 9b3d d76e 4bbd 8d5d 0ebe 5565 413c
00000210: 6f7a 21bd 80a5 a63e 5f92 04be 75fe 433e
00000220: e32a 173e a8ae 843d 2aa7 5bbd 5dc9 47be
00000230: 08f5 dfbc 937b bcbe a733 9abd f6a3 e23b
00000240: ec26 433e 5100 743d 4a34 a63d 349c c03e
00000250: 2aaf 88be c8a3 903e 2394 ee3d f3a2 fa3d
00000260: 145b 25bd c051 03be daf8 18be b8e7 bbbd
00000270: 767a 6abe 12fa df3d 9baa a53d c61c d53d
00000280: c364 35bd 81ad 003e ccc1 f93d 2db3 89be
00000290: 5bf2 f7bb 53f5 6fbe e205 52be 5e7c 92bc
000002a0: a622 95bd 5e2c 23be 1674 833e 3363 96bc
000002b0: a4c6 22be d239 b73d 6568 9dbd a033 98bc
000002c0: 229e 853e 7a5c 263d d157 103d 69c1 733d
000002d0: 6ef6 c6bd ab96 783d 10d1 903c 415a ce3d
000002e0: f2ed 9e3e 4272 213e 75eb be3e 42a4 9a3e
000002f0: c05f a9be 3742 c0bd ab1f b6bc b526 1abd
00000300: 6604 853e ef79 b3bd df9e dd3e 2ae8 5d3e
00000310: f136 163e d5cd 7fbe ed1e 873c 61cf 5ebd
00000320: f570 9dbc 37d3 28be 13a0 3bbe b7f9 473e
00000330: f4a6 603e a8fd c3bd 087c 253e 004f 5ebc
00000340: 3838 9f3d 2340 423e a578 883e 22df 03be
00000350: af79 4e3d 8c41 053e 8675 7abd 542e 073e
00000360: f1ed 583e 1fb1 a3bd 7959 81be 8ef9 663e
00000370: 4606 86bd 30d2 a2bd b1fa 43be bf9f 83bd
00000380: f4be 3abe f9b6 8f3d 5e8d aabe ec8e 07bd
00000390: b72f 20be 6023 4bbc fbc1 b13e 7a0a dc3d
000003a0: b235 eebd 8948 9d3d 4978 22be e8ac 163e
000003b0: d98c 9c3c d160 5a3e 8b83 593e 2a48 ae3a
000003c0: 53a6 b4be 6d08 48bd 8ef4 12bd ad2f a6be
000003d0: 70f1 a3bd b527 f83c 541f ad3d e948 dbbe
000003e0: 0d44 6bbe 851d 3bbe 4d30 f8bd e652 eb3d
000003f0: 2644 c93d f8f2 6c3e 3788 953e 2ad8 ce3a
0.19532023 0.24959542 -0.042789996 0.12634526 -0.008407983 -0.09301352 -0.122094385 0.105621785
-0.09618362 -0.03170977 -0.12908256 0.029359614 -0.15029241 -0.0661225 -0.26316637 0.029847933
-0.049824025 -0.078151666 -0.1545852 -0.024248326 -0.18343002 0.09203825 0.0048138085 0.30549756
0.11017613 -0.116875805 -0.08872623 0.09703525 0.036771756 0.17041719 -0.04136226 0.1757008
-0.034869496 -0.14195763 -0.14343107 0.04315747 0.03995365 0.035548065 0.12576473 -0.07232256
-0.13434461 -0.083286196 -0.081744574 -0.075597085 0.19319749 -0.08542966 0.11076163 -0.14735647
0.13201673 0.20567667 -0.0154944975 -0.10487525 -0.1505184 0.11619401 -0.11875502 0.060010724
-0.10504369 -0.23402786 -0.09807679 0.082132235 -0.07944264 -0.14873333 0.078449264 -0.077713236
-0.14272183 0.1063153 -0.12152884 -0.13465543 -0.24520485 0.100511275 -0.013232136 0.1260797
0.13797158 -0.14361525 0.08116123 0.053858522 0.06188328 0.22404474 0.18964675 -0.22787634
-0.102715045 -0.30233777 -0.11062158 -0.30194438 0.29397318 -0.13784988 0.25576758 -0.004331832
0.059793066 -0.26957762 0.28157115 -0.21668138 -0.0026995654 -0.06799545 -0.0655832 -0.3851482
0.10946173 0.0608443 0.060247898 0.16868807 -0.040285137 0.14370388 -0.028542863 0.11082443
0.07778479 0.14977755 -0.17046955 0.18012513 0.18421651 0.060405277 -0.05828226 -0.039053988
0.06429241 -0.035368137 0.016286924 0.07765321 0.24383065 0.19237348 0.21300454 -0.13141066
-0.10273213 0.12531708 -0.3105505 -0.32296112 -0.064156055 -0.18113172 0.073766455 0.20253004
0.07608841 -0.049666252 -0.13902874 0.011803945 -0.039423402 0.3254814 -0.12946461 0.19140036
0.14762454 0.064786255 -0.053626217 -0.19510408 -0.02733852 -0.3681303 -0.07529383 0.0069165183
0.19057816 0.059570614 0.08115442 0.37619174 -0.2669614 0.28249955 0.116493486 0.12238111
-0.040370062 -0.12824154 -0.1493868 -0.09175056 -0.22898278 0.10936369 0.08089181 0.10405879
-0.044285547 0.12566186 0.12195167 -0.26894513 -0.007566733 -0.23433428 -0.20510057 -0.017881569
-0.07281999 -0.15934893 0.25674504 -0.018357849 -0.15896088 0.08946575 -0.07685927 -0.018579304
0.26097208 0.040615536 0.03524 0.059510622 -0.097149715 0.060690563 0.017677814 0.10075808
0.31040913 0.15766242 0.37289014 0.30203444 -0.33080864 -0.093876295 -0.022231897 -0.03763457
0.25979918 -0.08763491 0.43285272 0.21670595 0.14669396 -0.24980862 0.016494239 -0.05439699
-0.019218901 -0.16486822 -0.18322782 0.19528852 0.21938688 -0.095698655 0.16160595 -0.01356864
0.07774395 0.18969779 0.26654544 -0.12878087 0.050409015 0.13013285 -0.061147235 0.13201267
0.21184517 -0.079927675 -0.25263575 0.22556135 -0.06544165 -0.07950246 -0.191386 -0.064269535
-0.18236905 0.07017321 -0.3331098 -0.033095285 -0.15643202 -0.012398571 0.34718308 0.10744186
-0.11631335 0.076798506 -0.15866198 0.14714396 0.01911013 0.21325995 0.21241586 0.0013296653
-0.35283145 -0.04883616 -0.035877757 -0.3245825 -0.08005035 0.030292371 0.08453241 -0.42829064
-0.22975178 -0.1827298 -0.12118588 0.11490421 0.098274514 0.2313956 0.29205486 0.0015780975

linear3.bias f4 [32]
00000000: 7774 d63c b077 4a3c 72b3 25be f996 6e3d
00000010: dad7 48bd 4117 8c3e 05c8 babc 53e0 743e
00000020: 6308 85bd 58bd 51be 61ae 943d 32c1 4abe
00000030: fa7c 84bd 01fd 84ba 3ef5 c6bc d26f d93d
00000040: 8e2b 88bd af4f a13c 93c3 293e 5c62 2ebd
00000050: 9a11 8dbe aa11 8fbd 278e c2be da52 54bd
00000060: c16f 67be a694 42be c751 eabd 72a9 8b3c
00000070: 7d53 2cbe 3052 143e c14f 7abe 4d4e 31be
0.026178582 0.012357637 -0.16181734 0.058249447 -0.049033977 0.2736149 -0.022800455 0.23913698
-0.0649574 -0.20482385 0.07259823 -0.1980026 -0.0646915 -0.0010146202 -0.024286862 0.10617031
-0.066489324 0.019691316 0.16578512 -0.04257427 -0.2755249 -0.06985791 -0.3799908 -0.051836826
-0.22601224 -0.19002017 -0.11441379 0.017048571 -0.16828723 0.14484477 -0.24444486 -0.17315026

linear4.weight f4 [10, 32]
00000000: 8f1e 06bd 27a0 7bbd 3610 223f ab39 48bf
00000010: f420 b8be 6905 d53e 9bcf c73d 9c4e 483f
00000020: be6d 3d3e e6fe fd3e 3061 5ebe 876f 02bc
00000030: 83fb 19be e800 b53e 4a7b 0c3f 4458 d2be
00000040: cd25 30bf 1bdf f43c 5c12 263e 814c 963d
00000050: c422 d5be c437 e8be 1dfd 58bf a199 c93e
00000060: d463 9dbe 40ed 3fbe d28a ecbd 1fb6 debe
00000070: dd8c 3bbf fa64 4dbf 22ce 283e b951 ccbe
00000080: fd71 3a3f 7ec7 09bd 730e 00bf e2fd cf3e
00000090: ad2c b4be 89ac 1cbf 9179 893d 43d6 c8be
000000a0: b5a4 cfbd 81cf f63e aadf 18bf 50ea c6be
000000b0: 930d 44be a73b bfbd f814 3f3e d05a e1be
000000c0: c1a4 f0be f452 1ebf 8144 1fbf 853c b93e
000000d0: 3294 0e3f 3756 653e be6e 61be 0c6a 053f
000000e0: da77 9ebe 5d03 cabe f6ee b53e 05bb 853e
000000f0: f368 87be 7efd 063f e30f 68bf 1564 28bf
00000100: 763c 8ebd b479 343f 84dd 223e 51bf a4be
00000110: a11a a9be 4004 d73d 17d7 033f d725 d03d
00000120: 38da 0ebf 8215 f83e c29d c13e ab88 cbbe
00000130: bfa4 5fbf a977 723e 7f43 5ebf c32b 98bd
00000140: ff0c 083e b2fc 193f 1081 29be a7a0 003f
00000150: 4551 8abe 987f 853e 8dfd 1d3f 98af d93e
00000160: 6fe8 cbbe 1c21 f5be 8aa0 963e eea5 9b3e
00000170: ff23 363f b7b7 ddbe bacd 6b3e 9bd2 b53e
00000180: ebae fdbe 8877 2d3f 863b 41bf dd4c bb3e
00000190: 30b4 fe3d c292 57bc 1317 3abd 4ce4 95be
000001a0: c35e 963e 2ce2 bf3e 3148 c3bd 1d7e bcbe
000001b0: cf2f d2be 86c1 a7bd 784d 0f3f a708 523f
000001c0: 7b90 f9be dc14 0fbe 5a81 e2be c4a2 0e3f
000001d0: 3a06 db3e b4a5 30be 888f 3cbd 560f b23d
000001e0: e3c6 82be 1545 653e 0aaa 19bf 1724 1c3f
000001f0: 409c d5be ce68 883d 19e6 183f b0da b43e
00000200: ed90 903e 7a99 dfbe e445 0e3e 4689 0c3f
00000210: d15e 363f c9a2 c83e 438b 1bbe 2c18 5dbf
00000220: 3ce1 54be 5b3c 82be cbe7 fe3e 93f7 483d
00000230: bd14 d73e 1049 d03e 638b 6dbe 60f7 68be
00000240: 1a0a 513f 9067 e93e d4c3 c0be a1d5 b23e
00000250: e3bb 7bbd 57cd 493f c226 413f e34a f03e
00000260: 722c adbd 3832 a2be 9f69 82be 99b3 b03e
00000270: 0dfc 9e3e f9f0 c9be 92a5 06be 4970 8e3e
00000280: d939 01bd 1840 d83e f5b3 d6be 59a1 4abe
00000290: 5f06 b73e a034 f83e 63a4 dabe 048f d63e
000002a0: 42cf 25bf 5f31 1bbf c1bd f73e ae8f aabe
000002b0: 93a1 75bc d6da 30bf ca52 38bf e5b5 7c3e
000002c0: 90bf 87be dd72 2f3c 0fb0 253f 5fdb 23bf
000002d0: 8da3 d5be 9c0e f5bd a807 4dbf 14cb 41bf
000002e0: 7c20 143f bb17 c23a f442 37bf 0755 b6be
000002f0: d915 6abe ec66 943f d142 64bf cf38 e8be
00000300: 742c b93c 4b01 92be 9274 053f 0f95 2cbf
00000310: e6f1 d7be 20e2 b33e 48a9 bebe 3a54 a7be
00000320: 9331 56be 99af 073f a895 abbe c77b bfbe
00000330: f9f1 023f b7c3 d63e 8e00 7b3e 6023 85bf
00000340: 8974 6bbe 8b87 ac3e e299 c9be d523 ba3e
00000350: e6b7 e9be 9878 0bbf 95c0 95bc 8ee3 d73e
00000360: e540 4b3f 4807 073f a2d4 c1be 0262 a53e
00000370: 3d21 c8bd bcb9 76be 4a4c f33e ae41 293f
00000380: 4b52 9ebe 44db 07bf 93e6 1ebf 466f 123f
00000390: c187 a73e 193c 7bbf e00b d53d 980b 843e
000003a0: 6b3d e4bd 84a2 8bbe cdc5 a23e 449c ee3e
000003b0: d39b ca3c c918 06bf 3962 4abd 146d bc3e
000003c0: c272 ee3e 9c19 cabe e406 f73e d65e cdbe
000003d0: 2c29 613f 865e 183f 9e69 fa3e e97b 0bbf
000003e0: 2cd8 e1be e46c e7be ee9e fb3e 9584 a2be
000003f0: 146f 0d3f 0746 173f 7789 10bf c31c 88be
-0.032743987 -0.06143203 0.63305986 -0.78212994 -0.3596264 0.4160569 0.097563945 0.7824495
0.18498895 0.49608535 -0.21716762 -0.0079611605 -0.1503735 0.35352254 0.54875624 -0.41082966
-0.6880768 0.029891541 0.16217941 0.07338811 -0.41628087 -0.45355046 -0.8476122 0.39375022
-0.30740225 -0.18742847 -0.115499154 -0.43498322 -0.73261815 -0.80232203 0.16484883 -0.399061
0.7283018 -0.033637516 -0.5002205 0.40623385 -0.35190335 -0.6120077 0.0671264 -0.3922597
-0.10138837 0.48205188 -0.59716284 -0.3885064 -0.19145803 -0.0933755 0.18660343 -0.44014597
-0.47000697 -0.61845326 -0.62213904 0.36178985 0.5569488 0.2239617 -0.22014901 0.5211494
-0.30950814 -0.3945569 0.35533875 0.26119247 -0.26447257 0.5273055 -0.9064924 -0.65777713
-0.06945126 0.70498204 0.15904814 -0.32177213 -0.3302813 0.104988575 0.51500076 0.101634674
-0.55801725 0.4845391 0.37815672 -0.39752707 -0.8736076 0.23678459 -0.8682174 -0.07430222
0.13286208 0.6015121 -0.1655314 0.50245136 -0.2701513 0.2607391 0.6171501 0.4251678
-0.3982577 -0.47876823 0.29419357 0.30400032 0.71148676 -0.43304226 0.23027697 0.35512242
-0.49547514 0.67760515 -0.7548145 0.3658208 0.12436712 -0.013157548 -0.04543216 -0.2927574
0.29369172 0.37477243 -0.09535254 -0.36814967 -0.410521 -0.081912085 0.5597758 0.8204445
-0.48743042 -0.13972801 -0.44239312 0.5571711 0.42778188 -0.1725071 -0.04603532 0.08694331
-0.25542364 0.22389634 -0.60025084 0.6099257 -0.41720772 0.06660615 0.597261 0.35323095
0.2823557 -0.4367178 0.13893849 0.5489696 0.7123843 0.39186695 -0.15189843 -0.8636501
-0.20789045 -0.25436673 0.4978622 0.04906423 0.4200801 0.40680742 -0.23197703 -0.22750616
0.8165604 0.45586824 -0.37649405 0.3492861 -0.06145848 0.7882895 0.75449765 0.46932134
-0.08455743 -0.3167894 -0.25471207 0.34512022 0.31051674 -0.3944166 -0.13149098 0.27820042
-0.03154931 0.422364 -0.4193417 -0.19788112 0.35747048 0.4847765 -0.42703542 0.41905987
-0.64769375 -0.6062221 0.48386958 -0.33312744 -0.014992136 -0.6908392 -0.72001326 0.24678762
-0.26513338 0.010708538 0.6472177 -0.6400661 -0.41726342 -0.11965677 -0.8008981 -0.757005
0.5786207 0.0014808098 -0.7158654 -0.35611746 -0.22859897 1.1593909 -0.89164454 -0.45355842
0.022604205 -0.2851661 0.52131 -0.67414945 -0.4217674 0.35133457 -0.37238526 -0.32681447
-0.20917349 0.53002316 -0.33512616 -0.37399122 0.5115047 0.41946194 0.2451193 -1.040142
-0.22993673 0.3369716 -0.39375216 0.36355463 -0.45648116 -0.54480886 -0.018280307 0.42165798
0.79395896 0.52745485 -0.37857538 0.32301337 -0.09771965 -0.2409429 0.4751914 0.66115844
-0.3092216 -0.5306895 -0.6207058 0.5720104 0.3272076 -0.98138577 0.104026556 0.25790095
-0.11144527 -0.27272427 0.31791535 0.46603596 0.024732506 -0.5238157 -0.04941008 0.3680197
0.46571928 -0.39472663 0.48247445 -0.40111417 0.8795345 0.5951923 0.48908705 -0.54485947
-0.4411024 -0.45200264 0.4914469 -0.31741777 0.55247617 0.5909123 -0.56459755 -0.26584443

linear4.bias f4 [10]
00000000: 26c1 533e b5be 8a3d 48dc 1ebd 89d4 13bd
00000010: f259 20be 9b86 8b3e 491b 1a3e 410d 40be
00000020: d587 32be 0f19 b7be
0.20679149 0.06774656 -0.038784295 -0.03609136 -0.15659311 0.27251133 0.15049471 -0.18755056
-0.17434628 -0.35761306
