lab_3/logs_task1_SGD/lightning_logs/version_3/checkpoints/epoch=19-step=37500.ckpt (torch, 5147 bytes, 3 tensors)

linear1.weight f4 [64, 1]
000000 3c 3c ae 3e 20 33 f9 be 50 ee 7d 3e e4 25 3b be
       0.3403033 -0.48671818 0.2479794 -0.18276173
000010 13 bc 8a be 4e a6 b5 3e 99 fd 2e 3e 2e 1d 03 3f
       -0.27096614 0.35478443 0.17088927 0.512164
000020 00 ce b7 3e 86 fb d7 be 60 82 ba 3e f4 00 7b be
       0.35899353 -0.42184085 0.36427593 -0.24512082
000030 9b 1f 89 be 1a a7 ae be 4c a1 e9 3d 8f 67 cc be
       -0.26781926 -0.34111863 0.11407718 -0.3992276
000040 9c 6f 00 bf f5 e5 dc be aa 3d 18 3f ad 63 45 3f
       -0.501703 -0.43144193 0.5946909 0.7710522
000050 63 d8 73 be 3e d0 91 3d 80 3c 3d bf 3c ec d9 bc
       -0.23813014 0.07119797 -0.7392044 -0.026601903
000060 2c f4 ae 3e 1d 24 24 3f b3 93 b2 3a 7d ba 60 be
       0.34170663 0.64117604 0.001362434 -0.2194614
000070 af 77 2b 3e cc cb b8 be f2 dd 43 3f e5 a8 f4 be
       0.16744874 -0.36092985 0.76510537 -0.47785106
000080 0e 27 48 3f 14 27 ae be ac 09 4a 3f 96 ca ab 3e
       0.7818459 -0.3401419 0.7892101 0.33552998
000090 0b a7 6a be 98 af 40 bf 1a ee b0 3e 4d 63 c0 be
       -0.22915284 -0.75267935 0.34556657 -0.3757576
0000a0 66 a3 3b 3e 37 cc fd be d8 8e 05 bf ad 5a 35 be
       0.1832405 -0.49569866 -0.5217109 -0.17710371
0000b0 d3 c0 2c 3f 31 63 2b 3f 5a f1 a1 be 3a 44 ef be
       0.67481726 0.6694823 -0.3162945 -0.4673174
0000c0 d1 f4 61 bf 34 a0 ac be cb 8c 3e 3f 59 7f 31 3f
       -0.88264185 -0.33715975 0.74433583 0.6933494
0000d0 b2 29 87 be 4a ba 7b 3e 2f 00 19 be 48 71 56 3f
       -0.26398998 0.24582782 -0.14941476 0.83766603
0000e0 3e 37 48 bf 0e 1c 3f bf bd 84 2d bf 4c e0 67 be
       -0.7820929 -0.74652183 -0.6778067 -0.22644156
0000f0 e2 01 43 bf 2d 3c 3f 3f 86 de 20 bf 01 19 5e be
       -0.7617475 0.74701196 -0.62839544 -0.21689226

linear1.bias f4 [64]
000000 d4 4f 9f be 6a 53 9c 3f e6 71 6b 3f ec 7a a1 be
       -0.31115592 1.2212956 0.9197067 -0.31539094
000010 b3 13 8f 3f b8 b5 95 be f2 1e 9a 3d 91 e4 b2 be
       1.1177887 -0.29240203 0.075254336 -0.34940007
000020 d6 39 ce 3e 7d 77 57 3f 29 92 de 3e 68 52 62 3f
       0.402785 0.841667 0.43470886 0.8840699
000030 68 22 8c bf 58 f3 83 be bf df dd 3e b6 04 2f 3f
       -1.0948 -0.25771594 0.43334767 0.68366563
000040 60 0a 37 bf 65 7f 6b bf 3a 87 c4 3e 61 4b 1f bf
       -0.71500206 -0.91991264 0.3838442 -0.62224394
000050 20 80 57 bf 62 5b 7a 3f 9c 94 1e bf 0e 14 5a bf
       -0.8417988 0.9779569 -0.6194551 -0.8518685
000060 49 1d 26 3e cb ff ef 3e 6f e7 0b 3f f9 ca 1e 3f
       0.16222109 0.46874842 0.54650015 0.6202846
000070 1b e2 ec 3c e8 69 86 3e d2 a6 42 3f ac f7 95 3f
       0.02891641 0.26252675 0.760358 1.1716208
000080 7e 19 3b 3f 15 ad 84 be b2 d1 22 bf a4 3c bd be
       0.73085773 -0.259133 -0.6360122 -0.36960328
000090 28 83 3b 3f 30 cb 88 3e 9f 53 ae bd 43 12 c7 be
       0.73247004 0.2671752 -0.08512043 -0.3888112
0000a0 ad 02 85 be 3f 61 a4 bf 96 b2 f3 bd 36 14 ac 3e
       -0.25978604 -1.2842177 -0.11899297 0.3360917
0000b0 b8 3b 1b bf 1d 5d 00 3f 0f 9e eb be 6f 5e 90 bf
       -0.60638 0.5014208 -0.46019027 -1.1278819
0000c0 4c d4 8b bf c2 d5 e2 bc c6 60 78 bf 97 25 12 3d
       -1.0924163 -0.027689818 -0.97022665 0.03568038
0000d0 88 a9 87 3f 53 12 67 3f c6 64 1b be c3 75 88 bf
       1.0598612 0.90262336 -0.15175161 -1.0660938
0000e0 ba f1 ad 3e e7 8d 31 3f 7b 05 fe be df cb 3c bf
       0.33973485 0.6935715 -0.49613556 -0.7374858
0000f0 d0 65 22 3f 15 7b 9f be c1 26 68 be 2b 15 2d bf
       0.63436604 -0.31148592 -0.22671033 -0.67610425

linear2.weight f4 [1, 64]
000000 f5 e6 49 be 90 e0 1d 3f 46 e3 be 3e 61 01 ac bc
       -0.1971701 0.6167078 0.3728277 -0.020996751
000010 fb 34 e0 be 9a 8f 59 be 5e 14 59 3e d4 e1 26 bd
       -0.4379042 -0.21246186 0.21199176 -0.04074271
000020 2f f6 9a be 0f ff c6 3e c2 25 9b be cc a2 b0 be
       -0.30265948 0.3886647 -0.30302244 -0.34499204
000030 16 c5 d9 be 7c 16 76 3e 22 8a 3b 3d 1b 31 d6 3e
       -0.42533177 0.24032015 0.04578603 0.4183434
000040 0c 12 7b 3d 6e 36 ca 3e 2c f6 64 3d 28 38 09 3e
       0.061296508 0.39494652 0.05589883 0.13400328
000050 3e 29 84 be e5 db 39 3c 47 f5 81 be 67 e0 71 bc
       -0.25812715 0.011343931 -0.25382444 -0.014762974
000060 90 a4 38 be 29 34 d3 3d 78 ea a7 3c 84 f5 b2 be
       -0.18031526 0.10312683 0.020497546 -0.3495294
000070 2c 5d 40 3e 04 5e dd 3d 92 2a 90 3e 97 79 24 3f
       0.18785542 0.10808948 0.2815748 0.6424803
000080 e3 4d 98 3e 3b 68 7c 3e 92 5b 8d 3e 7c d2 1f be
       0.29746923 0.24649136 0.27608925 -0.15607637
000090 e9 64 9a be bd 7f 62 bc 2d cb 4a be be 7b 5a 3e
       -0.30155113 -0.0138244005 -0.19804068 0.21336266
0000a0 f8 14 6d 3e 5b ba 19 3f 04 1e eb 3b 7b 53 1e bd
       0.2315253 0.6004998 0.007175209 -0.038653832
0000b0 fd 5a 0e 3e 6e a2 e2 bc 41 06 b4 3d dd e7 0d 3f
       0.13901897 -0.027665343 0.08790255 0.5543192
0000c0 05 d8 82 be 89 7c 93 3e f8 b3 ed 3d 96 09 60 3c
       -0.25555435 0.2880595 0.11606592 0.01367416
0000d0 35 47 ad be d2 fe ad 3e c6 a1 d5 bd 65 c6 81 3e
       -0.3384339 0.33983475 -0.104312465 0.25346676
0000e0 08 e4 92 bc ce eb 6f be 89 15 04 be 64 f8 6e be
       -0.017931 -0.23429796 -0.1289884 -0.23336941
0000f0 8a f8 2f be 78 9f 29 3d e4 36 ab bd a2 8c 31 be
       -0.17184654 0.041411847 -0.08360079 -0.17338803
