lab_3/logs_task_2a/epoch=55-step=4480.ckpt (torch, 106203 bytes, 4 tensors)

linear1.weight f4 [32, 784]
00000000: c439 01bd 9031 6f3c f171 24bd ce4f 5dbb
00000010: e97a 0d3c 3e8d a4bc b294 003c fb0e b2bc
00000020: 6b32 42bc e73c 6fbc 1ad5 1dbd 47a6 b9bc
00000030: 8fa5 8dbd d64a 473d 60f8 9c3d 24b0 173d
00000040: 5ba2 f0bc 5b62 95bd 4c5e 8fbd e9c2 f6bc
00000050: f773 5b3c acae 323c 74b0 16bb c1d5 f0bb
00000060: 0675 aa3c 2e99 05bd ee46 553c 97f0 33bc
00000070: 02cd a63c 900b 4bbc 3783 78bc e39d 4bbc
00000080: fb76 7dba 9002 00bd 4775 82bc 90e6 ddbd
00000090: a27a c5bd 2392 f1bd 7a09 afbd 2d26 f0bc
000000a0: f48d 39bd d38e c7bb 6196 23bd 7547 35bd
000000b0: 9ffe d13c be83 0abd 5e5c 82bd 591a cabc
000000c0: c2ca 15bd 9951 93bc 161e 893b 875d 0dbd
000000d0: 35f1 67bd 8770 02bd 3454 b4ba ae22 2ebb
000000e0: 0653 f9b8 4448 b43c 6e18 c63b c1d3 5ebd
000000f0: edb6 73bd d260 8fbd 19fe 69bd f858 f0bd
00000100: 1a38 06be 6e48 acbd d0d2 8bbd 28bd 3dbd
00000110: 5947 84bd 3b3d a4bd 9392 e6bd 8e8b acbd
00000120: 4673 9fbc 4488 1e3c ed4a 843b 89e9 12bd
00000130: 4ef2 2ebd 6007 e4bc 2e5c a0bd 85af 33bd
00000140: 1f7f 61bd a000 f43c d1e2 ca3c 1278 12bd
00000150: b2ad a0bc 1c99 823c d2bd e23a 45ca 82bc
00000160: fc10 b1bd fbf6 e2bd 9159 c5bd d640 ffbd
00000170: 3ab0 0cbe ec28 87bd bf4b 2ebd 42f8 94bd
00000180: ba20 96bc 2470 2bbd eb41 8abd a298 19bd
00000190: e4cb 133d 1b76 933c c023 693b 7513 4abc
000001a0: db08 b3bc ad41 a2bd c333 c1bd 96d5 83bd
000001b0: 38f8 d5bc bf38 8b3c ebe8 583d 037c 013d
000001c0: 04eb 4dbb 5af1 48bb 0898 af3c 0c7e fdbc
000001d0: 4d94 b4bd fa0a ccbd 15e9 97bd d407 dbbd
000001e0: d37c a9bd 975a b7bd 04da e3bd b353 9ebd
000001f0: 9747 b13b 954a a1bd b210 40bd bbaf b1bb
00000200: 4ac1 b73c 082f 19bd 4dcc c4b9 855f 1f3d
00000210: 429b e93c d56c f5bb 18f5 7fbd 84c3 3cbc
00000220: 1e8f 13bd 123f 6a3d 2cbc d03c a3be f5ba
00000230: 9cd5 b03c 0b24 2ebc 2c9f 033c 3ac8 c63c
00000240: bba5 febc b6d4 d4bd e31e c7bd a98d 1abd
00000250: d00d 4ebd 5271 23bd 114a c2bd 3189 f7bc
00000260: 5bdd fbbb 77cd 9ebd a637 c0bd 805f 01bc
00000270: 6f40 053d c28c 66bc 66cb 34ba a88b 083c
00000280: 2329 07b9 bdd0 e0bc 03c8 2dbd 1638 08bd
00000290: 6411 0c3d 8011 963d f10e 0d3d 00e9 8cbc
000002a0: 15f6 2b3d cbd2 1f3d 53c5 2c3c 0ae0 053d
000002b0: cd05 b5bd 5db3 fabd e5ff ccbd 16d7 89bd
000002c0: 1158 fabd 7dab 80bd 3d8d 75bd 3923 ffbc
000002d0: af73 d1bc 100f 3dbd 9904 adbd db97 a4bc
000002e0: 6eba 023d e6c5 0ebd a5c8 57bc 2d5d 80bd
000002f0: 00f2 ae3c 94a2 973c 66bb 773b 0dd4 a33c
00000300: 87ca 333c 60b5 423d 1996 143d 77dd 423d
00000310: 91ec d2bb 3c69 c23c d151 15bd 3a53 2d3b
00000320: 2b66 2dbd 994d acbd 43b4 c3bd 1693 96bd
00000330: 9dcb cdbd 7ddc ccbd 1161 53bd 5c16 86bd
00000340: 04f1 03bd e463 4ebd 15bf f1bd f0ed a8bd
00000350: 59b5 52bc 8e03 a53c dd4d 1fbd b8c7 c4bc
00000360: 09d9 aebc d8fb 04bd 0f89 7dbc f2ad de3b
00000370: f223 19bd 37cf 563d 5512 173d ec53 603d
00000380: 223a a7bc 46d8 1dbd 0c03 43bc 863f b5bd
00000390: f7f9 cebd 310f d4bd 95fb cfbd 480f 22be
000003a0: f1a7 c7bd a12a 0abe 0552 92bd 8ffc b3bd
000003b0: 830e bfbd 78c7 e3bd a67a a0bd 35b3 93bd
000003c0: d66c febc 3b32 36bb 5fb8 55bd 1ddc 8bbc
000003d0: fe31 23bd 2a18 a8bd ff43 bc3b b9e0 39bd
000003e0: 648e fd3b 816e 8e3d 6e8e 133d cd65 db3c
000003f0: a729 d03c 8766 7dbc 47c1 51bd a574 f0bc
-0.03154923 0.014599219 -0.040147725 -0.003376949 0.008635261 -0.02008688 0.007847952 -0.021735659
-0.011852841 -0.014601923 -0.038533308 -0.022662295 -0.069163434 0.048655353 0.07664561 0.037033215
-0.029374292 -0.072941504 -0.070004076 -0.030122237 0.013394347 0.010905903 -0.0022993358 -0.0073497
0.020807754 -0.032616787 0.013017399 -0.010982654 0.020361427 -0.012392893 -0.015168003 -0.01242778
-0.00096689136 -0.031252444 -0.015925063 -0.10834992 -0.09642531 -0.117954515 -0.085467294 -0.029315079
-0.045301393 -0.006090024 -0.039938334 -0.0442576 0.025634108 -0.033817045 -0.06365274 -0.024670767
-0.036570318 -0.017983245 0.0041844947 -0.034513023 -0.056626517 -0.031845596 -0.0013758005 -0.0026570964
-0.000118887096 0.022007115 0.0060453927 -0.054401163 -0.059500623 -0.07000889 -0.057127092 -0.117357194
-0.13107339 -0.08412252 -0.06827319 -0.04632297 -0.06458921 -0.08019491 -0.112584256 -0.084250554
-0.019464146 0.009676043 0.004037252 -0.035867248 -0.04271155 -0.027835548 -0.07830082 -0.04386856
-0.055052873 0.029785454 0.024766358 -0.03575904 -0.019614074 0.015942149 0.0017299003 -0.01596559
-0.08645818 -0.11082264 -0.09636224 -0.12463538 -0.137391 -0.06599602 -0.042552706 -0.07273914
-0.018326152 -0.041854993 -0.06750854 -0.037499078 0.036083117 0.018000653 0.0035574287 -0.0123337405
-0.021854809 -0.07922683 -0.09433701 -0.06437223 -0.026119336 0.016994832 0.052956503 0.031612407
-0.0031420598 -0.0030661435 0.021434799 -0.030943893 -0.08817349 -0.09963031 -0.07417504 -0.106948525
-0.082757615 -0.089528255 -0.111255676 -0.07730808 0.0054101455 -0.078755535 -0.046890922 -0.00542256
0.022431035 -0.037398368 -0.0003753625 0.038909454 0.028516416 -0.0074897804 -0.0624896 -0.011521224
-0.03602516 0.057189055 0.025480352 -0.0018748831 0.021586232 -0.0106287105 0.008033555 0.024265397
-0.031084886 -0.10392134 -0.09722688 -0.037732754 -0.05030614 -0.039902993 -0.09486783 -0.030216785
-0.0076862997 -0.07754033 -0.09385614 -0.007896304 0.03253215 -0.014071645 -0.0006896764 0.008334078
-0.00012889928 -0.027443284 -0.042427074 -0.033256613 0.034196272 0.073275566 0.034438077 -0.017200947
0.04198273 0.039019387 0.010545093 0.032684363 -0.08838997 -0.12241242 -0.100097455 -0.067304775
-0.122238286 -0.06282709 -0.05994915 -0.031144725 -0.025567858 -0.046156943 -0.084481426 -0.020091942
0.031916074 -0.0348567 -0.013170396 -0.06267772 0.021355629 0.01851014 0.0037800907 0.019998575
0.010973579 0.047536254 0.036275957 0.047574487 -0.0064368923 0.02373182 -0.03645498 0.0026447312
-0.042333763 -0.08413238 -0.095558666 -0.07352273 -0.10048602 -0.10002992 -0.05160624 -0.065472335
-0.032212272 -0.050388232 -0.11804024 -0.08248508 -0.012860619 0.020143297 -0.038892616 -0.024021015
-0.021343725 -0.03246674 -0.015474572 0.0067956382 -0.037387796 0.05244371 0.036882717 0.054767534
-0.020413462 -0.038536333 -0.011902582 -0.08850007 -0.10106271 -0.1035446 -0.10155407 -0.15826142
-0.09748829 -0.13492824 -0.0714455 -0.08788406 -0.0932894 -0.1112203 -0.07835893 -0.072119154
-0.031057756 -0.0027800936 -0.052177783 -0.017072732 -0.0398426 -0.08207734 0.0057454105 -0.045380328
0.0077379216 0.06954671 0.036024503 0.02678194 0.025410486 -0.015466339 -0.051209714 -0.029352495

linear1.bias f4 [32]
00000000: dc5a e83d d61b 0bbf 5ed0 183f 8cf0 90be
00000010: 3b84 a5bc 580a 863c 21ce 8bbd 3f6f 753e
00000020: 3c36 1cbe cbd2 72be c646 ae3e 2ed3 2f3e
00000030: ee28 103e 7106 10bf 00e6 6d3e 04aa f43e
00000040: 3132 a03d 0904 393e 004b a33e 36c6 afbe
00000050: 3a58 b1be fc27 02bf a8f2 9abe f030 4ebe
00000060: 9e91 bc3e 66d3 95bd cd8c 4fbd cc63 6dbe
00000070: 7369 29be 199c 643e 1cc5 e63d 74a6 a43d
0.11345455 -0.5433935 0.59692943 -0.28308523 -0.020204654 0.016362354 -0.06826425 0.23968218
-0.15255064 -0.23713224 0.3403837 0.17170402 0.14078113 -0.5625983 0.2323227 0.47785962
0.07822073 0.18067946 0.31893158 -0.3433091 -0.34637624 -0.5084226 -0.30263257 -0.20135856
0.36829847 -0.07315712 -0.050671387 -0.231826 -0.16544132 0.22325172 0.112680644 0.08039561

linear2.weight f4 [10, 32]
00000000: 9931 00bf bf73 26bf a71d 5c3f 56cb fbbe
00000010: 0f6b bb3c 378c d53e 64e6 84be 2233 c83e
00000020: 5061 0b3d 83cd a23e c2b7 413f 8f69 d8be
00000030: f0e3 3bbb c2ff 3cbf 4b6b b0be c30a 98bc
00000040: e5ce 1fbe 76d9 83bc 2253 18be f120 bd3d
00000050: 932f cfbe b005 1c3f d9d0 4abe d55f 373f
00000060: 348b ee3e 473c 30bd 6981 79be 4c82 99bf
00000070: e526 43bf 2684 2ebf 36b3 09be 9209 9d3d
00000080: 82be 59be 809d 173f 266a a6be 5e30 27bd
00000090: 914d 943e 0e36 73bf f96d 50bd 8c39 813e
000000a0: 4576 c4ba 7a1d cb3e 04f0 bc3e c459 6c3f
000000b0: 2fa5 793f bae2 823e 253d cdbd 810a f4be
000000c0: fbb6 82be b82d 463e 8933 72be a6ea 073f
000000d0: 0d15 0f3e 955d 29bf 6a47 2bbf 49e3 edbe
000000e0: c0d0 8bbf 060b 9e3e 5361 d9be 874d b4be
000000f0: ac3f 03bf 8886 1fbf de18 fbbe cfd2 043e
00000100: 1993 f6be 4c15 fdbe 0c95 a23e c602 04bf
00000110: 6555 383e e5b3 57bf 376a 91be 0c5a b7be
00000120: 9532 55bb 69bd 9f3e 5cf5 4bbf 90b7 c6be
00000130: 0d84 7f3e 3604 2c3f 85ba 583e 0bad 983d
00000140: 1545 a6be 0f43 813f 8aba cbbe 02ba 5e3d
00000150: f69f 61be 2fab f73c eeb6 313f 9c1f b53e
00000160: db22 e83e 7057 03bf 83b7 d4be 77e5 5b3f
00000170: 5264 24bf ff84 3d3f 275d 8bbc f400 073f
00000180: df31 38be 1e50 65be 8f53 1abf fcfe 1f3f
00000190: f867 083f 2c78 4d3f adfc 59be 0a1c c63e
000001a0: 8d0e 423f ecdf ab3e b4fb 00bf f72d 383f
000001b0: 6082 0fbf 7768 3ebf e7e5 9f3e 1ac1 95be
000001c0: 6aa1 2cbe 4af1 a43e 49ef 103f 26b2 a8bd
000001d0: 9c25 b7be 0266 11bf 5254 d7be 2ad5 bbbe
000001e0: 2ab0 353f 37de 333f 5811 23bf 0b61 c13c
000001f0: 28eb 863d 98fd cd3e 8cd0 f1be d3fd 3ebe
00000200: cf45 8dbe 45fc 1b3f b640 36bf 71fc 0fbf
00000210: 5e07 2d3f 1f9d abbe b717 6abe 3bb6 47bf
00000220: 1799 94be 51cd 513e 3db7 92bf 5fda 34bf
00000230: 1a03 8abd cce2 5b3f e9f4 01be 54fd 223e
00000240: 4dc0 f5bd a801 45bf 8965 26bf 80ba f8be
00000250: d64b 493f 30c6 fc3c 7e8d ea3e a4f9 e9be
00000260: 69eb a8be cdbe 173f a3ed 2abe 8fe0 dbbc
00000270: 1422 6d3f ae93 85be bae2 9fbe 9d7d 0cbe
00000280: 6610 3b3f 36b9 29bf 89d2 083f c522 0cbf
00000290: 9f3a 71bf 0b95 c1be 1b44 0cbd 210c 59be
000002a0: 7f3d e5bc 674d 9dbf acbc 963e c1ff 593d
000002b0: 7b6e 273f f0b6 67bd fbe2 5f3f b226 af3f
000002c0: be4d 7b3e c4a0 ffbd fe58 3c3f e1e8 80bf
000002d0: 4c17 153e 50ec 88bf c59d 83bf 37af 13bf
000002e0: dad9 a13e 5ad3 bfbe c44f 353e b924 713e
000002f0: 5f18 943e 6971 b63e dc55 6f3f f155 b33e
00000300: ae54 e5be c133 ae3e c75d 88be 5a6b 06bf
00000310: 8f29 c83e dca7 debd cd56 07bf 70e9 143f
00000320: 4f91 26bf d60b b43e a5c0 1f3f 578e 22be
00000330: 85a4 15bf 179d 5abf 61f1 8bbe ce8e e13e
00000340: c31b d1be 9feb ff3d 7259 26bc 7733 f9be
00000350: 7cfa 50bf 8982 383f ba69 083f 8c7e 863f
00000360: 1104 613e 96af 9fbf b779 823f abf6 673e
00000370: 6510 5b3e 6ded c53d f016 10bf 06bf 3abf
00000380: 29fe 903e b0d0 31be 1d91 e43b dada 463e
00000390: 7c53 923e 50b8 f83e d655 763f 9b64 11bc
000003a0: a53a 38bf e7b1 21bf 403b 153f 81ca 2f3f
000003b0: 1e6a a6be 0b84 f4be 4955 6abf 6ef9 6abf
000003c0: c9d7 5b3f a0c6 0abf 91c5 673e aea6 edbe
000003d0: e044 8b3e fca8 ebbd c4a1 403f fa0e 09bf
000003e0: f22f 4ebf 2586 4f3e 3bf0 913e ebbc 773e
000003f0: c8cf b83e b59a 333f 4e86 123f c43b ea3e
-0.5007568 -0.65020365 0.85982746 -0.4917857 0.022878198 0.41708538 -0.25957024 0.3910151
0.03402835 0.31797418 0.7567102 -0.42268035 -0.0028669797 -0.73827755 -0.34456858 -0.01855982
-0.15606268 -0.016094904 -0.14875463 0.09234799 -0.40465984 0.6094618 -0.19806232 0.71630603
0.4659058 -0.043026235 -0.24365772 -1.1992888 -0.76231223 -0.6817039 -0.1344727 0.07667841
-0.21264079 0.592247 -0.3250286 -0.04081761 0.28965428 -0.95004356 -0.050886128 0.25239217
-0.001498886 0.39670926 0.36901867 0.9232447 0.97517675 0.25563604 -0.10021428 -0.47664264
-0.25530228 0.19353378 -0.23652472 0.5309242 0.13972874 -0.6615842 -0.66905844 -0.46462467
-1.092308 0.30867785 -0.42457065 -0.352154 -0.5126903 -0.62314653 -0.4904241 0.12971042
-0.48159102 -0.4943031 0.3175434 -0.5156673 0.18001325 -0.8425887 -0.28401348 -0.35810888
-0.003253137 0.31199196 -0.79671264 -0.38811922 0.24952717 0.67193925 0.21164902 0.0745488
-0.3247458 1.009859 -0.39790756 0.05437661 -0.22033677 0.030232994 0.69419754 0.3537568
0.45339093 -0.51305294 -0.41546258 0.8589701 -0.64215577 0.7403106 -0.017012192 0.5273583
-0.17987774 -0.22393844 -0.6028375 0.6249845 0.53283644 0.8026149 -0.21287794 0.38693267
0.7580345 0.33569276 -0.5038407 0.71945137 -0.5605831 -0.7437815 0.3123009 -0.29248887
-0.1685845 0.3221534 0.5661512 -0.08237104 -0.3577088 -0.56796277 -0.4205652 -0.3668607
0.7097193 0.7026095 -0.6369834 0.023605844 0.06587821 0.4023254 -0.4722942 -0.18651514
-0.27592322 0.6093181 -0.7119249 -0.5624457 0.67589366 -0.3351831 -0.22860609 -0.78012437
-0.29023048 0.20488478 -1.146217 -0.7064571 -0.06738873 0.8589294 -0.12691082 0.1591695
-0.11999569 -0.7695565 -0.6499868 -0.48579788 0.7863134 0.030856222 0.45811075 -0.45698273
-0.32992104 0.59275514 -0.16692214 -0.026840476 0.92630124 -0.26089233 -0.31227666 -0.13719793
0.730719 -0.66298234 0.5344625 -0.54740554 -0.94230074 -0.37809023 -0.034244638 -0.21196033
-0.027983425 -1.2289246 0.2944082 0.05322242 0.65402955 -0.056570947 0.8745572 1.3683684
0.24541375 -0.124818355 0.7357329 -1.0071069 0.14559668 -1.0697117 -1.0282522 -0.5768923
0.3161152 -0.37465936 0.1770621 0.23549165 0.28924844 0.356334 0.93490386 0.35026506
-0.44791168 0.3402386 -0.26634046 -0.52507555 0.39094207 -0.108718604 -0.5286682 0.581687
-0.65065473 0.3516528 0.6240333 -0.15874611 -0.5845416 -0.8539595 -0.27332595 0.44054264
-0.40841493 0.12496113 -0.010153161 -0.48672077 -0.8163221 0.7207418 0.53286326 1.0507369
0.21974207 -1.247546 1.0193394 0.2265269 0.21392973 0.09664426 -0.56285 -0.7294773
0.2831891 -0.17364764 0.0069753067 0.19419423 0.2857932 0.4857812 0.96224725 -0.008874084
-0.71964484 -0.6316208 0.58293533 0.6866837 -0.32502836 -0.4775699 -0.91536385 -0.9178685
0.85876137 -0.5420933 0.2263396 -0.4641623 0.27200985 -0.115068406 0.75246835 -0.5353848
-0.8054191 0.20266016 0.28503594 0.2419316 0.36096025 0.7015794 0.5723618 0.45748723

linear2.bias f4 [10]
00000000: 4c78 ca3e a091 2bbd 3722 36be 190e 453d
00000010: 1e03 b9be 7835 243f b937 a13d 9734 65bd
00000020: 3d72 98be 2399 bfbe
0.39544904 -0.041886926 -0.1778649 0.048109148 -0.3613519 0.64144087 0.078719564 -0.055958357
-0.29774657 -0.37421522
