lab_3/logs_task_2a/epoch=60-step=4880.ckpt (torch, 106203 bytes, 4 tensors)

linear1.weight f4 [32, 784]
0.012413741 -0.012449535 0.020209873 0.0035382388 0.013463639 0.015923202 -0.02333376 0.017698368
-0.018124364 0.012086613 0.025555722 0.07959873 0.10607743 0.0026542237 -0.08833645 0.052696556
0.113739274 0.09587474 0.029619819 -0.037294466 0.003699817 -0.052949134 -0.024009667 -0.013064257
0.014441169 -0.013029467 -0.00034248887 0.010854306 0.024558479 -0.0059257355 0.03130926 -0.019137233
-0.0027986802 -0.016485272 0.0007213557 -0.024121646 0.0011460568 0.05637626 0.074145496 0.06969616
0.115350954 0.092005566 0.12780385 0.115533955 0.09670712 0.065006256 0.0790137 -0.030567793
-0.11566229 -0.094054155 -0.10625276 -0.10663511 -0.057397973 0.009247992 0.0029930293 -0.028219752
-0.010828986 -0.009714199 0.010822738 -0.034418922 -0.015840355 0.0069754897 -0.022941157 0.010877191
0.06296839 0.11208988 0.07655234 0.06052332 0.082772955 0.1317092 0.13516074 0.0796052
0.062791 -0.0062296237 -0.011368418 0.0003202736 -0.05878749 -0.023605019 -0.03447945 -0.122489884
-0.13463975 -0.041617107 -0.017696993 0.0083976835 -0.028884424 -0.023437332 -0.0050105155 -0.049106304
-0.01049972 0.012150759 0.035093937 0.016937822 0.06780652 0.045395747 0.0018768024 0.01454853
0.063558824 0.110226266 0.08643273 0.0045304736 0.008070175 -0.06396524 -0.028763393 -0.07222651
-0.06014765 -0.063611135 -0.038127292 -0.034982882 -0.10669999 -0.11612391 -0.02927519 -0.008213456
-0.03450383 -0.01187394 0.016479934 -0.019762192 0.01985629 0.11655369 0.04077523 0.02620454
0.089015745 0.0040828614 0.124598816 0.030447885 0.01746154 0.018149495 0.06824205 0.03077964
0.0072341543 0.0034615037 -0.029961238 -0.05235388 -0.093538165 -0.01536961 -0.036849186 -0.035680808
-0.064033486 -0.13521922 -0.06762002 0.019639587 -0.001964429 -0.06850322 -0.029203955 0.035973564
0.030656638 0.08519105 -0.009639769 0.100119054 0.06899447 0.06213381 0.16682565 0.06940403
0.03329909 0.07365676 0.11311212 -0.0039361785 -0.029832441 -0.004428132 -0.030442446 -0.067550175
-0.03828336 0.0030113375 -0.06679385 -0.10897632 -0.04058663 -0.10844107 -0.03950856 0.016110374
-0.037897374 -0.07130953 -0.024521712 -0.019650375 0.008980144 0.09324338 0.060073216 0.082679145
0.08195817 0.107535854 0.12385426 0.059585456 0.029984953 0.06342888 0.12663665 -0.010984011
0.011278186 0.033002444 0.06381988 0.059726503 0.003300658 -0.046587467 -0.046065256 -0.074359395
-0.10019391 -0.043498594 -0.0555727 0.002391757 0.01205939 -0.004637535 0.053794075 0.008796215
0.030691605 0.07108544 0.09255377 0.022296444 0.0786304 0.082387246 0.03451688 0.035926145
-0.038305316 0.045211837 0.06450714 0.0021601277 0.0015053966 -0.047397863 0.019735606 0.057932366
-0.034500152 -0.033119597 -0.0018815751 -0.04374067 -0.08833483 -0.046776697 -0.014230146 -0.06378204
-0.07135463 -0.007857383 0.033831865 -0.005335295 0.030846348 0.06636345 0.09550899 0.029388048
0.061836712 0.07273286 0.03512365 0.037145525 0.01743923 0.017389094 0.038551692 -0.010859954
-0.0064081214 -0.044424172 0.044222195 -0.071016915 0.020105924 0.017082367 -0.007951048 -0.046225123
-0.030927792 -0.058224656 -0.079011224 -0.014038989 -0.025890028 -0.028456872 -0.026541512 0.0012335245
00000000: 0163 4b3c 22f9 4bbc 2d8f a53c cce1 673b
00000010: 9896 5c3c 6071 823c 7126 bfbc 2bfc 903c
00000020: 8c79 94bc ee06 463c 3c5a d13c a904 a33d
00000030: 203f d93d 7cf2 2d3b bee9 b4bd 58d8 573d
00000040: 23f0 e83d fa59 c43d 43a5 f23c 15c2 18bd
00000050: a178 723b 31e1 58bd ecaf c4bc 770b 56bc
00000060: a79a 6c3c 8c79 55bc 1490 b3b9 42d6 313c
00000070: dd2e c93c ac2c c2bb 233e 003d b0c5 9cbc
00000080: 106a 37bb 1f0c 87bc 5d19 3d3a c29a c5bc
00000090: 4937 963a cbea 663d 98d9 973d dcbc 8e3d
000000a0: 1f3d ec3d 6a6d bc3d 03df 023e 119d ec3d
000000b0: 620e c63d 0022 853d efd1 a13d 4f69 fabc
000000c0: 5ae0 ecbd 779f c0bd 0c9b d9bd 8263 dabd
000000d0: 231a 6bbd e484 173c b326 443b 1c2d e7bc
000000e0: 0f6c 31bc 4e28 1fbc da51 313c dbfa 0cbd
000000f0: a2c3 81bc a692 e43b 18ef bbbc 3f36 323c
00000100: 92f5 803d 618f e53d 79c7 9c3d 4de7 773d
00000110: de84 a93d c7de 063e 9467 0a3e 0d08 a33d
00000120: 9198 803d df21 ccbb 9a42 3abc 65ea a739
00000130: 27cb 70bd 505f c1bc 533a 0dbd fadb fabd
00000140: 01df 09be b376 2abd 49f9 90bc 7096 093c
00000150: 079f ecbc a6ff bfbc 402f a4bb b123 49bd
00000160: 0507 2cbc fa13 473c a9be 0f3d 30c1 8a3c
00000170: 25de 8a3d e4f0 393d 0aff f53a f55c 6e3c
00000180: 212b 823d 4fbe e13d a503 b13d 5e74 943b
00000190: c438 043c 3500 83bd 35a1 ebbc 7eeb 93bd
000001a0: 625d 76bd 8e46 82bd 5d2b 1cbd 364a 0fbd
000001b0: 8685 dabd 5fd2 edbd 86d2 efbc bb91 06bc
000001c0: e353 0dbd ea8a 42bc ed00 873c 52e4 a1bc
000001d0: a9a9 a23c b3b3 ee3d ed03 273d e7aa d63c
000001e0: e34d b63d 86c9 853b aa2d ff3d d86d f93c
000001f0: 810b 8f3c 40ae 943c 7dc2 8b3d 9525 fc3c
00000200: 7c0c ed3b 65da 623b 4571 f5bc 0671 56bd
00000210: f090 bfbd d1d0 7bbc 2cef 16bd 0a26 12bd
00000220: fd23 83bd e876 0abe 5d7c 8abd 33e3 a03c
00000230: a6bd 00bb 6b4b 8cbd 223d efbc 0459 133d
00000240: a123 fb3c a578 ae3d 1ff0 1dbc 380b cd3d
00000250: f94c 8d3d 0680 7e3d 58d4 2a3e b323 8e3d
00000260: a064 083d 5bd9 963d 54a7 e73d 0ffb 80bb
00000270: 2a63 f4bc dd19 91bb 7062 f9bc bf57 8abd
00000280: 03cf 1cbd dc59 453b 37cb 88bd fa2e dfbd
00000290: 2b3e 26bd 5a16 debd bad3 21bd e7f9 833c
000002a0: 473a 1bbd bb0a 92bd c2e1 c8bc d3f9 a0bc
000002b0: 7421 133c 63f6 be3d 550f 763d af53 a93d
000002c0: afd9 a73d c23b dc3d 4da7 fd3d e10f 743d
000002d0: 01a3 f53c 00e7 813d 0aad 013e 48f6 33bc
000002e0: 24c8 383c 922d 073d ffb3 823d c7a3 743d
000002f0: da4f 583b 80d2 3ebd ecae 3cbd bd49 98bd
00000300: 7732 cdbd 952b 32bd 33a0 63bd 06bf 1c3b
00000310: bf94 453c 77f6 97bb 2d57 5c3d 001e 103c
00000320: f66c fb3c 3e95 913d d58c bd3d 08a7 b63c
00000330: fa08 a13d a5ba a83d 9261 0d3d 4b27 133d
00000340: 09e6 1cbd 0c30 393d 521c 843d ee90 0d3b
00000350: ba50 c53a 4324 42bd 91ac a13c 7d4a 6d3d
00000360: 0850 0dbd 6aa8 07bd 2f9f f6ba 6b29 33bd
00000370: e4e8 b4bd ec98 3fbd 8f25 69bc 28a0 82bd
00000380: 6022 92bd 41bc 00bc 4893 0a3d b3d3 aebb
00000390: 7bb1 fc3c 8fe9 873d 389a c33d 34bf f03c
000003a0: 7e48 7d3d f7f4 943d d1dd 0f3d e825 183d
000003b0: b7dc 8e3c 9373 8e3c 61e8 1d3d f3ed 31bc
000003c0: 38fb d1bb 1ff6 35bd 5522 353d 5171 91bd
000003d0: 2eb5 a43c 52f0 8b3c 1d45 02bc 8e56 3dbd
000003e0: 485c fdbc fa7c 6ebd a3d0 a1bd ca03 66bc
000003f0: 5317 d4bc 631e e9bc 966d d9bc 37ae a13a

linear1.bias f4 [32]
-0.1109488 -0.06489889 -0.14647782 0.35535988 -0.3162754 -0.31558 0.04008352 0.062177707
0.2045563 -0.5662375 0.29655296 0.43717107 0.19726396 0.37282813 0.24025442 -0.31969795
-0.09027216 -0.43914634 -0.15572959 -0.3362588 0.2622009 0.056721255 0.1253309 -0.10664305
-0.23788075 0.34083378 0.14921892 -0.06990692 -0.59811896 0.4824994 -0.33580017 -0.21927401
00000000: 2039 e3bd b6e9 84bd 48fe 15be bbf1 b53e
00000010: d9ee a1be b493 a1be 9e2e 243d 0dae 7e3d
00000020: 3577 513e f1f4 10bf cad5 973e e3d4 df3e
00000030: 90ff 493e 54e3 be3e 4105 763e 73af a3be
00000040: 9ce0 b8bd cad7 e0be 9477 1fbe 1d2a acbe
00000050: 323f 863e 8c54 683d be56 003e ac67 dabd
00000060: 0397 73be c481 ae3e d8cc 183e 5c2b 8fbd
00000070: 531e 19bf 290a f73e 00ee abbe 5e89 60be

linear2.weight f4 [10, 32]
-0.021579864 0.44764236 -0.3238268 0.26243916 0.12707227 0.3633111 0.80957246 -0.54435486
0.16713676 -0.9160287 0.028286764 -0.16624214 0.015315484 0.45252243 -0.36735797 -0.68746156
-0.2158171 0.44154578 0.26247525 0.3510931 0.52450305 0.12882142 -0.037421476 -1.4553562
-0.87642497 -0.8723139 -0.28885716 -0.13590667 -0.76078117 0.42465714 -0.52338684 0.08966571
0.20939653 -0.9858763 0.045429092 0.07551577 0.43959856 0.4201683 0.29171658 0.5937722
0.84630775 0.34885195 -0.29699498 -0.34993556 -0.40959314 0.105354376 -0.20931903 0.6577907
0.27877027 -0.64155 -0.5911088 -0.33212897 -0.9327688 0.47102615 -0.4530697 -0.39710668
-0.23636504 -0.67477345 -0.5122509 0.28081998 -0.7847678 -0.80582964 0.5549197 -0.51623267
0.40786493 -0.8214555 -0.38498878 0.40682936 -0.116196156 0.34357622 -0.7005314 -0.5728211
0.27249894 0.33449265 -0.43251577 0.46361467 -0.48651877 0.38052648 -0.46380943 0.23960458
-0.368207 -0.07824037 0.56723917 0.40993243 0.49241218 -0.033192467 -0.41310534 0.6277186
-0.89676774 0.8192348 -0.14115463 0.681275 0.33098918 -0.28388435 -0.35081992 0.630993
0.6487189 0.72210526 0.018457092 0.3091293 0.42855114 0.27716088 -0.333539 0.93631893
-0.6777037 -0.7151185 -0.12852342 -0.5771701 -0.28922242 0.67905766 0.60503066 -0.10340921
-0.0027898091 -0.59833485 -0.81124747 0.19766808 0.6267984 0.5553522 -0.46831593 0.49466956
0.31003433 0.31920865 -0.36300823 -0.13529445 0.09865666 0.36855733 -0.0662032 -0.50183654
0.6695423 -0.15934426 -0.28549773 -1.0232657 0.13033924 0.064782634 -1.2923466 -0.23871191
-0.014891338 0.7585738 -0.35329452 0.19156848 -0.3962319 -0.47705033 -0.53805584 -0.6352581
0.41565555 -0.07141362 0.52300304 0.04064115 -0.33599874 0.31188953 -0.17744657 -0.0758331
0.66348535 -0.21085963 -0.15389973 0.16056114 1.0415515 -0.7576027 0.433175 -0.8318662
-0.8901726 -0.40802896 -0.3743036 -0.23964083 -0.39854875 -1.2596177 -0.21741043 -0.09217159
0.71064115 -0.028692588 0.94329655 1.4372737 0.5627556 0.2761718 0.6589544 -0.5820791
0.33275524 -0.8990366 -1.0571035 -0.99057186 0.027379941 -0.55343276 0.12764531 0.34926367
0.3081561 0.5000613 1.0044813 -0.015727786 -0.49921593 0.43259028 -0.7902741 -0.12177309
0.36236608 -0.101755776 -0.5184223 0.5624839 -1.1912183 0.34570506 0.8941968 -0.40053427
-0.61178815 -0.28288123 -0.13951787 0.36495292 -0.55726194 -0.58936816 -0.0030303788 -0.28140908
-1.0679557 1.0244894 0.62934756 0.6494532 -0.3593926 -1.2906659 0.2709433 0.3048869
0.31074515 0.34534034 -0.6669785 -0.7620204 -0.6040967 0.6205595 -0.619871 -0.59665745
-0.053137466 0.22617573 1.017033 0.010010701 -0.57446206 -0.72363555 0.62628394 0.48152608
-0.5332795 -0.4323028 -0.26438266 -0.8440319 0.64946085 -0.44022098 0.35662484 -0.40822107
0.37075195 -0.2185309 0.64990205 -0.71880835 -0.65314734 0.36855516 0.7337205 0.24820065
0.2996415 0.75949657 0.5248862 0.27639103 0.26026866 -0.5738639 0.8220843 0.53446054
00000000: 41c8 b0bc 6131 e53e a0cc a5be 6d5e 863e
00000010: 3c1f 023e ea03 ba3e 2440 4f3f d75a 0bbf
00000020: e625 2b3e db80 6abf a5b9 e73c 613b 2abe
00000030: cced 7a3c 05b1 e73e 5816 bcbe 7bfd 2fbf
00000040: 28ff 5cbe 4a12 e23e 2863 863e 7ac2 b33e
00000050: d545 063f c3e9 033e 4347 19bd 1d49 babf
00000060: 635d 60bf f74f 5fbf 16e5 93be 1e2b 0bbe
00000070: 8ec2 42bf a96c d93e aefc 05bf a8a2 b73d
00000080: 0b6c 563e 6462 7cbf db13 3a3d 03a8 9a3d
00000090: 1013 e13e 4d20 d73e e05b 953e 7401 183f
000000a0: a0a7 583f b99c b23e ba0f 98be c12a b3be
000000b0: 31b6 d1be 09c4 d73d ba57 56be f964 283f
000000c0: faba 8e3e 9f3c 24bf e852 17bf cf0c aabe
000000d0: f0c9 6ebf 572a f13e c0f8 e7be 9151 cbbe
000000e0: ad09 72be f4bd 2cbf e022 03bf a3c7 8f3e
000000f0: 8be6 48bf da4a 4ebf 380f 0e3f d327 04bf
00000100: acd3 d03e e84a 52bf 401d c5be f04b d03e
00000110: 40f8 edbd 39e9 af3e 0756 33bf 67a4 12bf
00000120: fb84 8b3e 9f42 ab3e b572 ddbe e75e ed3e
00000130: fd18 f9be 5ed4 c23e 6e78 edbe e75a 753e
00000140: a185 bcbe 7d3c a0bd 9636 113f aae2 d13e
00000150: 731d fc3e d3f4 07bd 8b82 d3be 2bb2 203f
00000160: 9292 65bf 5fb9 513f d78a 10be 0a68 2e3f
00000170: 6a77 a93e 4a59 91be ab9e b3be c288 213f
00000180: 7112 263f e4db 383f 5433 973c 3246 9e3e
00000190: 0e6b db3e 08e8 8d3e a0c5 aabe 99b2 6f3f
000001a0: fd7d 2dbf 0212 37bf a59b 03be 6bc1 13bf
000001b0: f614 94be b9d6 2d3f 4ae3 1a3f 35c8 d3bd
000001c0: 3bd5 36bb 792c 19bf eaad 4fbf 8069 4a3e
000001d0: dc75 203f 902b 0e3f 1bc7 efbe 5445 fd3e
000001e0: d2bc 9e3e 516f a33e 37dc b9be a18a 0abe
000001f0: 810c ca3d 8cb3 bc3e 8b95 87bd 5c78 00bf
00000200: 2067 2b3f 242b 23be c22c 92be 5ffa 82bf
00000210: a677 053e c2ac 843d 9d6b a5bf e570 74be
00000220: ccfa 73bc e431 423f 05e3 b4be 872a 443e
00000230: e8de cabe f13f f4be 07be 09bf 46a0 22bf
00000240: ced0 d43e 4e41 92bd 87e3 053f 5677 263d
00000250: 0708 acbe fcaf 9f3e 8eb4 35be 624e 9bbd
00000260: 2dda 293f 96eb 57be e497 1dbe 246a 243e
00000270: 8f51 853f 40f2 41bf 1dc9 dd3e 2ff5 54bf
00000280: 5ae2 63bf 2ce9 d0be b9a4 bfbe 6864 75be
00000290: 950e ccbe 273b a1bf d7a0 5ebe 75c4 bcbd
000002a0: 94ec 353f b80c ebbc e27b 713f 96f8 b73f
000002b0: c010 103f 6466 8d3e 3cb1 283f 2303 15bf
000002c0: e55e aa3e 4327 66bf 2b4f 87bf 1e96 7dbf
000002d0: e64b e03c c5ad 0dbf 74b5 023e b0d2 b23e
000002e0: a3c6 9d3e 0404 003f d892 803f 8fd7 80bc
000002f0: 3b99 ffbe 797c dd3e 674f 4abf 2b64 f9bd
00000300: 0c88 b93e 5565 d0bd 53b7 04bf f2fe 0f3f
00000310: d779 98bf 4100 b13e 15ea 643f d412 cdbe
00000320: 269e 1cbf cfd5 90be c6dd 0ebe 1cdb ba3e
00000330: b8a8 0ebf d5e0 16bf 5299 46bb da14 90be
00000340: c6b2 88bf 7822 833f ec1c 213f 9142 263f
00000350: 4f02 b8be 8a34 a5bf 15b9 8a3e 231a 9c3e
00000360: fd19 9f3e 73d0 b03e 1abf 2abf c513 43bf
00000370: 15a6 1abf fddc 1e3f deaf 1ebf 8bbe 18bf
00000380: aca6 59bd 9c9a 673e 232e 823f ec03 243c
00000390: f20f 13bf 2e40 39bf 2554 203f 968a f63e
000003a0: 0185 08bf cb56 ddbe 2a5d 87be 7912 58bf
000003b0: 1143 263f a564 e1be 8897 b63e 5a02 d1be
000003c0: 33d3 bd3e 90c6 5fbe fb5f 263f d303 38bf
000003d0: aa34 27bf 43b3 bc3e 1bd5 3b3f 5028 7e3e
000003e0: 9c6a 993e 5e6e 423f f15e 063f 2083 8d3e
000003f0: ef41 853e bfe8 12bf 1e74 523f 68d2 083f

linear2.bias f4 [10]
0.22048187 0.122963734 -0.12687698 -0.021781264 -0.46174467 0.7157601 0.055621855 -0.0017710598
-0.08485189 -0.43521065
00000000: 00c6 613e 69d4 fb3d 0aec 01be 9f6e b2bc
00000010: cc69 ecbe 0e3c 373f bed3 633d e822 e8ba
00000020: d4c6 adbd eed3 debe
