lab_3/logs_task1_SGD/lightning_logs/version_6/checkpoints/epoch=19-step=37500.ckpt (torch, 5147 bytes, 3 tensors)

linear1.weight f4 [64, 1]
0.339386 0.4591235 -0.8029286 -0.7338875 0.7690546 0.46733657 0.2250226 -0.24010348
0.5246155 0.8071853 0.31151813 0.43704227 -0.15887617 -0.8829101 0.440564 -0.18310963
-0.44693086 -0.19399382 -0.61808085 0.82498294 0.36597332 0.379763 -0.20735832 -0.47373936
0.43497762 0.7740726 0.18042304 0.22214927 0.473571 -0.3963452 0.26926026 0.2398565
0.6859522 0.7419095 -0.396808 0.6484033 -0.22076637 0.40191555 -0.35027862 0.033433937
-0.64078146 -0.7455596 -0.40860128 -0.16797037 -0.26285985 0.45365882 0.3287921 0.4575895
-0.4946308 -0.20965247 -0.55069774 0.57474697 0.46387935 -0.7450684 0.82571596 -0.59591943
0.6953578 0.77597064 -0.33879966 0.35670215 0.19666928 0.20864734 -0.15881686 0.18132709
00000000: 00c4 ad3e 3c12 eb3e bb8c 4dbf 0de0 3bbf
00000010: c3e0 443f bd46 ef3e 536c 663e b0dd 75be
00000020: 344d 063f b2a3 4e3f 4e7f 9f3e 01c4 df3e
00000030: 6fb0 22be 6506 62bf 9b91 e13e 1781 3bbe
00000040: 1fd4 e4be 51a6 46be 8c3a 1ebf 1532 533f
00000050: db60 bb3e 4c70 c23e bd55 54be f78d f2be
00000060: 63b5 de3e 9f29 463f d1c0 383e 197b 633e
00000070: e677 f23e c2ed cabe 7bdc 893e f19c 753e
00000080: 909a 2f3f c8ed 3d3f 6b2a cbbe c2fd 253f
00000090: 9410 62be e0c7 cd3e b857 b3be 06f2 083d
000000a0: 410a 24bf fedc 3ebf 3034 d1be 6d00 2cbe
000000b0: 9195 86be f845 e83e 7057 a83e 2c49 ea3e
000000c0: 4040 fdbe 23af 56be 87fa 0cbf 9e22 133f
000000d0: 9881 ed3e cdbc 3ebf 1f62 533f 2d8e 18bf
000000e0: f802 323f 03a6 463f 2677 adbe aaa1 b63e
000000f0: ac63 493e a6a7 553e e3a0 22be cfad 393e

linear1.bias f4 [64]
0.18774566 1.0961676 0.85638845 -0.26902404 0.7910713 1.1419216 -0.70881593 0.8404682
0.37056208 -0.8271288 0.29809675 -0.91214836 -0.06812857 0.42637947 -0.9454409 -0.19248079
0.9764129 -0.40369555 -0.3134629 0.27085447 -0.30185166 -0.4863402 -0.49129567 0.7725352
-0.8959873 -0.9141703 -0.17291442 -0.7177315 1.1746455 0.623411 1.0872043 0.84323925
-0.30144376 0.6165561 -0.72759145 -0.21310113 -0.63989604 0.77109206 0.18413515 -0.74246573
-0.35431704 0.9246489 -0.798209 0.4304506 1.033335 -1.0214465 0.111823335 0.23413764
-1.2875295 0.52047825 -0.61663306 0.08936965 -1.0822861 0.48415488 -0.94699204 -0.27574036
-0.40210938 -0.7470148 -0.23958735 0.07721824 -0.38599762 0.5607126 -0.2513393 -0.0459654
00000000: 6640 403e 384f 8c3f 463c 5b3f 85bd 89be
00000010: a683 4a3f 7d2a 923f f674 35bf ed28 573f
00000020: 50ba bd3e b7be 53bf 23a0 983e 8e82 69bf
00000030: fe86 8bbd 694e da3e 6a08 72bf af19 45be
00000040: 32f6 793f 2fb1 cebe 367e a0be 70ad 8a3e
00000050: 4d8c 9abe 9501 f9be 1b8b fbbe dec4 453f
00000060: 6c5f 65bf 1107 6abf 7a10 31be 40bd 37bf
00000070: c95a 963f dd97 1f3f 8329 8b3f 87de 573f
00000080: d656 9abe 9fd6 1d3f 6f43 3abf 2f37 5abe
00000090: 3ad0 23bf 4a66 453f ed8d 3c3e 3c12 3ebf
000000a0: 0b69 b5be cab5 6c3f 6d57 4cbf 0564 dc3e
000000b0: 5244 843f c2be 82bf a203 e53d c7c1 6f3e
000000c0: c4cd a4bf 103e 053f aadb 1dbf 6f07 b73d
000000d0: 5a88 8abf 26e3 f73e 126e 72bf d72d 8dbe
000000e0: 48e1 cdbe 5d3c 3fbf 6356 75be 9924 9e3d
000000f0: 7ba1 c5be dc8a 0f3f 8baf 80be 3746 3cbd

linear2.weight f4 [1, 64]
-0.19462176 -0.25500667 -0.24852535 -0.034314036 0.46098855 -0.38131726 0.23580192 -0.297735
-0.02051795 0.12823582 -0.07931662 -0.4194428 -0.13038658 0.06897387 -0.25916266 -0.28033623
0.4625173 -0.21536745 -0.004129454 -0.0055257697 -0.14354038 -0.22392984 -0.3166581 0.13805087
-0.3057917 0.12292286 0.2527466 0.12667862 -0.48401678 0.20552512 0.516237 0.25066406
-0.05300038 0.34868082 0.24738312 0.113369115 -0.30551758 -0.19552682 0.2195312 -0.03745109
-0.10737531 -0.15878192 0.3185578 -0.094674736 -0.48857346 -0.38163003 -0.16966406 -0.022450894
0.52132475 -0.3350119 -0.041103076 0.02748922 -0.48556578 -0.03891636 0.28162593 -0.17277193
0.034038816 0.13122167 0.085156 -0.10271518 0.288687 0.20861632 -0.117106095 0.33818388
00000000: ed4a 47be 3c90 82be 6e7d 7ebe e08c 0cbd
00000010: b106 ec3e 043c c3be 0f76 713e b970 98be
00000020: 4315 a8bc 4050 033e c170 a2bd 35c1 d6be
00000030: 0f84 05be 2c42 8d3d f8b0 84be 3b88 8fbe
00000040: 11cf ec3e 4989 5cbe 5f50 87bb 8411 b5bb
00000050: 40fc 12be dd4d 65be 0321 a2be 355d 0d3e
00000060: bb90 9cbe fbbe fb3d 0168 813e 0ab8 013e
00000070: 0cd1 f7be 2d75 523e 1c28 043f 0a57 803e
00000080: ed16 59bd 4b86 b23e 0052 7d3e 112e e83d
00000090: cd6c 9cbe 2f38 48be c9cc 603e 5066 19bd
000000a0: 96e7 dbbd ba97 22be 021a a33e d4e4 c1bd
000000b0: 4d26 fabe 0365 c3be 6abc 2dbe f0ea b7bc
000000c0: 8a75 053f ae86 abbe b35b 28bd 1331 e13c
000000d0: 149c f8be c366 1fbd 4631 903e 20eb 30be
000000e0: 496c 0b3d f95e 063e 4566 ae3d 565c d2bd
000000f0: c8ce 933e 849f 553e 52d5 efbd 7026 ad3e
