lab_3/logs_task1_Adam/lightning_logs/version_5/checkpoints/epoch=19-step=37500.ckpt (torch, 8446 bytes, 9 tensors)

linear1.weight f4 [64, 1]
00000000: f3e3 29bf f214 b93e 6013 39bf fdf2 163f
00000010: 5f65 40bf 7b5b de3e 9e77 00bf 7c47 3f3f
00000020: 4e8a ab3e f461 f0be 3843 363f e097 41bf
00000030: fb32 ccbe de89 4d3f 2f18 01bf 5fcd 26bf
00000040: ef51 29bf 262d 253f 17fe 38bf 02b2 c63e
00000050: 18f1 1ebf 28d2 b4be 094d 013f 1ee8 d1be
00000060: b4b6 33bf 11a8 4c3f 0868 173f e871 ad3e
00000070: 6886 1cbf 823f c53e 3603 bfbe 2403 ad3e
00000080: 9bc0 2f3f f558 3e3f b99e 183f 863b fabe
00000090: dde2 103f d3e8 273f 2340 4fbf 3cf4 033f
000000a0: 601c c0be 17bb 3f3f 2ee6 c2be 3d62 c7be
000000b0: 57f1 3fbf b70a b1be 060e 393f a46c 393f
000000c0: ecb7 07be bb91 3bbf 89ea 41bf beb2 cb3e
000000d0: 5717 023f 325a 3f3f 5d2b 353f 60bd febe
000000e0: 1773 24bf 0599 bf3e a698 14bf 52bf 40bf
000000f0: 228b 07bf a7c7 b13e 1665 fdbe ae3e 3c3f
-0.6636345 0.36148793 -0.7229519 0.5896452 -0.7515468 0.4342917 -0.5018252 0.7471845
0.33503956 -0.46949732 0.7119632 -0.7562237 -0.39882645 0.80288494 -0.50427526 -0.6515712
-0.66140646 0.64522016 -0.7226271 0.38807684 -0.6208663 -0.35316586 0.5050817 -0.40997404
-0.7020066 0.7994395 0.59143114 0.33875966 -0.6114259 0.38525015 -0.37307137 0.3379146
0.6865327 0.7435449 0.5961719 -0.48873538 0.56596166 0.65589637 -0.8095724 0.5154455
-0.37521648 0.7489485 -0.38066238 -0.38942137 -0.7497763 -0.34578487 0.72287023 0.724314
-0.13253754 -0.7326924 -0.757485 0.39784807 0.50816864 0.74747 0.7076929 -0.49753857
-0.64238113 0.37421432 -0.58045423 -0.7529193 -0.52946675 0.34722635 -0.49491185 0.7353314

linear1.bias f4 [64]
00000000: f08b b8bf ef03 9dbf cbb8 2740 4b78 873f
00000010: 8198 7dbe c4fe 0040 3149 253d 1c03 9c3f
00000020: 25ce 65be daf1 8c3e 0c0c 4a3f 8ff3 013f
00000030: af2b dc3f 53f2 c83e 0c6c c2bd 1df7 9ebe
00000040: bfda b6bf 4f00 98bf 5a10 23c0 5843 d1bf
00000050: 17fb 893f 320d 33bf 4a92 323e e899 eb3f
00000060: 6637 1b40 e4de 4440 2452 7a3f b1a5 23bf
00000070: 67bb 8bbf e5ba c7bf 71c1 b43f 7945 cabe
00000080: 1d63 e03f 8f9f 3b3e fa92 7bbf 3757 033f
00000090: f627 a83f 25bc 9fbf 21b8 c13e effe a4bf
000000a0: 0172 a1bf b58d 73be a284 adbf 63fa 983f
000000b0: bf6b 3440 287c 09be fda0 27c0 987b 28c0
000000c0: 5f2c 533f b268 82bf 4959 50be af26 cd3f
000000d0: 3d3f 983d 34f1 e1bd 2353 9d3f be29 36bd
000000e0: b0c2 a6bf cba6 bfbf 77cc 063f f676 31c0
000000f0: 851b 1abf 8237 bd3e b30a 1fbf 632c cfbf
-1.4417706 -1.2266825 2.6206539 1.0583586 -0.24765207 2.0155497 0.040353004 1.2188449
-0.22441919 0.27528268 0.7892463 0.50762266 1.7200831 0.3924738 -0.094932646 -0.31047907
-1.4285506 -1.1875094 -2.547873 -1.6348677 1.0779752 -0.6994201 0.17438617 1.8406343
2.4252563 3.0761042 0.97781587 -0.639247 -1.0916566 -1.5603911 1.4121534 -0.39506128
1.7530247 0.18322586 -0.98271143 0.51304954 1.3137195 -1.2479292 0.37835792 -1.28903
-1.2612916 -0.23784526 -1.3556101 1.1951412 2.8190763 -0.13426268 -2.619201 -2.6325436
0.8248958 -1.01882 -0.2034656 1.602743 0.07433937 -0.11032334 1.2290996 -0.044473402
-1.3028164 -1.4972776 0.5265574 -2.7728858 -0.6019824 0.36956412 -0.621257 -1.6185421

linear2.weight f4 [1, 64]
00000000: 76dd 013e 87b5 9f3e 4071 973e 0909 88bd
00000010: c4ba 85bd d29d 203f 1ec1 023e 925e 9c3d
00000020: b6c9 233e c4a2 433d a0d2 3c3d 6557 4ebd
00000030: 3b9c e7be 5378 cc3d 1be4 013e f202 c2bc
00000040: 6d6d fa3d 01fb 20be 66b3 a43e 5959 4f3d
00000050: 6f93 303e 0b62 7abe 254d f2bd c0f2 d4be
00000060: cb5c 9e3e 26c1 e7be 5d99 3abe f7dc 8a3e
00000070: 3e5e 5a3e 981d eb3e bfd0 33be 7898 923e
00000080: 9b31 50be cc07 933d 1883 edbd 89c3 273d
00000090: 68e1 723c 2d6b e8bd dbee bfbd 881b 963d
000000a0: 8188 a9be d4de ad3d 5171 a3be 0b4e 1fbd
000000b0: 0def a13e 3b41 98be e440 b2be 58a5 80be
000000c0: 14ae 9f3e 7e28 6fbd f227 cbbd e24c da3e
000000d0: 59d3 18be 58a5 e03d 2e66 443d 644a dc3d
000000e0: 4343 fe3d 9bc1 133d 1eb7 e4bc 24d2 e03e
000000f0: 5650 b83d d381 663e 66b2 093d 51d4 71be
0.12682137 0.31193182 0.2957859 -0.06642348 -0.06529763 0.62740815 0.12768981 0.07635225
0.15994915 0.047762647 0.046099305 -0.050376315 -0.45236382 0.099838875 0.12684672 -0.023683045
0.122279026 -0.1572075 0.3216812 0.050622318 0.17243741 -0.24451463 -0.118311204 -0.41591454
0.3093017 -0.45264548 -0.18222566 0.27121708 0.21325013 0.45921016 -0.17560099 0.2863195
-0.20331423 0.071792215 -0.1159727 0.04095796 0.014824249 -0.11348567 -0.0937173 0.0732947
-0.33111957 0.08489767 -0.3192239 -0.038892787 0.31627694 -0.29737267 -0.34815133 -0.25126147
0.311875 -0.058388226 -0.09919728 0.42636782 -0.14924373 0.10969037 0.04794901 0.107563764
0.12415173 0.03607331 -0.027919348 0.43910325 0.08999698 0.22510462 0.0336174 -0.23616149

exp_avg f4 [64, 1]
00000000: 3816 f638 de40 853a 2ad1 a73a 805d 33b8
00000010: 23c9 ccb7 b2f8 7abc 82f3 1839 60fa c038
00000020: 587c 2339 0c64 9b38 6bca 0438 b486 6db8
00000030: 2061 bcba 6c70 b637 c656 fe38 f7a9 7cb7
00000040: d668 ec38 ba07 89b9 72d5 cfba c430 2039
00000050: 8f7c 9e39 c909 b73a 02d4 d4b8 28c5 a4ba
00000060: 6a81 8b3a b4ec 453b 80f5 0db9 f897 263a
00000070: 02ff 3839 28ec c63a b0bd 17ba 30b0 f739
00000080: 4881 90b8 0a11 fe37 154e 5eb9 229c a038
00000090: 90f2 39b6 8eca 3fb9 d48f acb8 a4fa 6e39
000000a0: 42c7 983b 8504 9138 1934 a33b 104f 34b9
000000b0: 3a2d d43a 1056 5039 ba07 c5ba 8067 90ba
000000c0: 5479 2abc 75bb 65b8 0159 1cb8 d428 07bc
000000d0: 31df 19b9 9c73 9938 83d0 7838 2ba9 e638
000000e0: 64ee ea38 44a6 df38 c0dd 3bb8 86b7 27bb
000000f0: f885 4f38 09c1 0aba 5076 d236 0e65 95b9
0.00011734333 0.0010166427 0.0012803425 -4.2764004e-05 -2.4412357e-05 -0.015318083 0.00014586563 9.2019094e-05
0.00015591213 7.409611e-05 3.165977e-05 -5.6630655e-05 -0.0014372207 2.1748441e-05 0.000121278266 -1.50599435e-05
0.00011272884 -0.00026136433 -0.0015856458 0.00015276956 0.00030228912 0.0013964708 -0.00010148437 -0.0012570964
0.0010643427 0.00302009 -0.00013538264 0.00063550426 0.00017642605 0.0015176581 -0.00057884585 0.0004724278
-6.8905356e-05 3.0287094e-05 -0.00021200658 7.6584765e-05 -2.7708338e-06 -0.00018290637 -8.228389e-05 0.0002279082
0.0046624253 6.9149806e-05 0.0049805758 -0.00017195591 0.0016187795 0.00019868487 -0.001503221 -0.0011017174
-0.010404903 -5.4772438e-05 -3.727619e-05 -0.00824948 -0.00014674362 7.3171424e-05 5.9322e-05 0.000109987646
0.00011202393 0.00010664438 -4.4790795e-05 -0.0025591566 4.9477414e-05 -0.00052930467 6.272261e-06 -0.00028494786

exp_avg_sq f4 [64, 1]
00000000: 1361 4537 c88a 023a 631d 3839 aa62 3a36
00000010: d546 7a34 d665 503b c160 6f36 8847 0636
00000020: ea19 0a38 ac42 5d35 24be d834 fc93 7934
00000030: 9d20 bc3a 0e79 1635 24b9 6d36 3cd5 6033
00000040: f041 3637 07fe 6037 46d6 5439 efe4 8237
00000050: aa22 8237 936a 1c39 2700 5c36 c580 a53a
00000060: 0fa8 3b39 f9c1 e139 d312 9237 dbd2 3939
00000070: 779e d637 6bf7 b33a 3d58 3e39 d594 0839
00000080: a52a 2d38 dc08 9134 ee7a e936 7520 5435
00000090: 7d7e 6434 38a6 f336 9b04 0335 baa6 f836
000000a0: c795 163a f990 dd34 8e77 183a d522 9c36
000000b0: ee2b 5a39 27ca c738 68fa 7e39 bd3f 0539
000000c0: 1857 613b 9ed2 7235 0f34 0635 ce7e a23a
000000d0: 9176 9d36 fadd 1f35 5841 7f35 0697 3036
000000e0: 2e83 2c37 aec2 f936 1804 4734 56e6 cf39
000000f0: abcc 5a36 829f 9938 01b0 2e35 a116 1838
1.1764717e-05 0.00049797865 0.00017558555 2.777359e-06 2.3308833e-07 0.003179898 3.5670093e-06 2.0009193e-06
3.29259e-05 8.2425936e-07 4.037148e-07 2.3243769e-07 0.0014352981 5.605551e-07 3.5423518e-06 5.2348e-08
1.0863398e-05 1.3410586e-05 0.00020297719 1.5603813e-05 1.551335e-05 0.00014917021 3.2782643e-06 0.0012626877
0.00017896316 0.00043059865 1.7413322e-05 0.00017721525 2.5584579e-05 0.0013730353 0.00018152683 0.00013025415
4.128613e-05 2.70148e-07 6.958252e-06 7.9023386e-07 2.1280171e-07 7.2613147e-06 4.8808005e-07 7.4103855e-06
0.00057443645 4.126994e-07 0.0005816155 4.6532173e-06 0.00020806465 9.526713e-05 0.00024316611 0.00012707613
0.0034384187 9.0458514e-07 4.9994645e-07 0.001239741 4.6927676e-06 5.9555134e-07 9.508999e-07 2.631395e-06
1.0282542e-05 7.443442e-06 1.8534809e-07 0.0003965373 3.2603664e-06 7.325319e-05 6.507617e-07 3.62607e-05

exp_avg f4 [64]
00000000: c54a c1b8 1c3a d039 74ad 5139 4666 3d38
00000010: f20e 4038 dc17 103b a015 48b8 7263 51b8
00000020: b468 3738 c098 02b6 12f0 deb7 d06f 4536
00000030: 9752 36ba f8ef 89b8 645e 83b8 4c12 8437
00000040: 6d26 bab8 8521 d8b8 4e23 8b39 1d40 9d38
00000050: 814a e538 a0dd c5b8 503b 8738 16e6 2bba
00000060: a471 3539 5e6f 2aba b557 0339 eedf 5639
00000070: ca64 1cb9 0de8 303a 45af 7fb9 0ed1 0a39
00000080: 5c97 0139 6c37 54b8 e844 92b8 780a 2c37
00000090: ffbc 00b7 97e9 9cb8 2e57 0138 443f 7b38
000000a0: e727 1cba afa0 21b8 8ee1 2cba d9a2 4db8
000000b0: 5f7b 8239 4034 5237 5433 76b9 0c30 34b9
000000c0: c810 38ba d344 1038 9f0f 9438 ea60 973a
000000d0: f44c 9738 21d1 87b8 d337 0eb8 9035 49b8
000000e0: 5e03 bbb8 152d 5538 9000 98b6 ca61 013a
000000f0: 34ef 77b8 0061 d2b5 fa68 abb7 84f2 12b9
-9.216884e-05 0.00039716146 0.0001999641 4.515636e-05 4.5790286e-05 0.0021986878 -4.7703856e-05 -4.99221e-05
4.3728112e-05 -1.9460422e-06 -2.6576254e-05 2.942037e-06 -0.0006955056 -6.577367e-05 -6.2641484e-05 1.5744146e-05
-8.8763285e-05 -0.00010305926 0.0002653845 7.4982854e-05 0.00010933448 -9.434973e-05 6.4483494e-05 -0.0006557418
0.0001730384 -0.00065015804 0.00012525807 0.0002049205 -0.00014914866 0.00067484454 -0.00024383988 0.00013238585
0.00012358784 -5.0596354e-05 -6.974657e-05 1.0254436e-05 -7.673399e-06 -7.482169e-05 3.083719e-05 5.9901984e-05
-0.00059568736 -3.853504e-05 -0.00065948896 -4.9027472e-05 0.0002488745 1.2529141e-05 -0.0002347951 -0.00017184037
-0.00070215436 3.4396373e-05 7.0600996e-05 0.0011549268 7.214575e-05 -6.476255e-05 -3.390743e-05 -4.797202e-05
-8.917482e-05 5.0825143e-05 -4.5300185e-06 0.0004935531 -5.9112164e-05 -1.567445e-06 -2.0433672e-05 -0.00014013989

exp_avg_sq f4 [64]
00000000: c874 0136 c74e f937 194b 4c37 2634 1e35
00000010: 2fdc bd34 c0dd 0539 2266 1936 f039 1335
00000020: 9c22 c136 e538 c334 5795 5034 6461 6334
00000030: 67f7 8538 e2b1 5235 a2d7 1636 6b15 5a33
00000040: 0049 f135 00f5 4536 4245 7537 f902 3f35
00000050: 4fa5 7536 1a99 8037 99b4 0336 437b 5f38
00000060: b4cb 6137 be56 e337 108b 8d36 3ac3 9e37
00000070: b5ef bc36 20ed 8a38 c286 1f37 6426 a137
00000080: 775b ab36 d89e e834 1295 e735 37a6 8e34
00000090: c4e5 0033 267d cc35 3525 3635 ee24 7235
000000a0: 1668 0f38 1c86 2235 3ecc 0738 e2a8 c034
000000b0: 1ab2 6337 4701 a037 f092 8d37 5530 1337
000000c0: 0227 9e38 a774 a934 c4fa 5b35 e5cb 7938
000000d0: d716 4e36 a21e 8835 610b 7834 d2f4 dc35
000000e0: 9717 fc35 0766 c134 eb5b be33 a8e4 df37
000000f0: 6c67 9835 3dec 4037 c390 4634 f5cd cb36
1.9290474e-06 2.9719797e-05 1.2176833e-05 5.893547e-07 3.5364198e-07 0.00012766477 2.2858226e-06 5.484608e-07
5.7558773e-06 3.6362977e-07 1.9425839e-07 2.1176453e-07 6.3880165e-05 7.848995e-07 2.2477257e-06 5.077656e-08
1.7977145e-06 2.9497896e-06 1.4619263e-05 7.115737e-07 3.6604067e-06 1.5330083e-05 1.9625643e-06 5.328214e-05
1.3458473e-05 2.7100901e-05 4.2183165e-06 1.8925977e-05 5.630742e-06 6.624521e-05 9.508514e-06 1.9210573e-05
5.106845e-06 4.3328942e-07 1.7254226e-06 2.6570498e-07 3.0011293e-08 1.5235607e-06 6.7854427e-07 9.0205765e-07
3.4190794e-05 6.054486e-07 3.2376724e-05 3.5885665e-07 1.3571722e-05 1.9074081e-05 1.6876933e-05 8.773136e-06
7.541293e-05 3.156358e-07 8.194877e-07 5.9556118e-05 3.0709687e-06 1.0141705e-06 2.310094e-07 1.6462529e-06
1.8782329e-06 3.6023286e-07 8.864284e-08 2.6690148e-05 1.1354982e-06 1.1499095e-05 1.8492851e-07 6.073848e-06

exp_avg f4 [1, 64]
00000000: ce2e 163c 5c98 17bc 88ae 123c 22c1 12bc
00000010: b60d 083c a6c0 ebbb 70b4 083c 2a70 11bc
00000020: 1151 0bbc 5e9e 083c 26cb 0dbc 229e 013c
00000030: 980b 213c fb74 09bc 1e9f 093c f07b 093c
00000040: 6a0f 163c cc44 09bc 2b85 1a3c ab74 1fbc
00000050: cecc 083c bd7a 0a3c 0b48 0abc 818d 233c
00000060: a20b 123c ff07 18bc 5ed5 11bc 0cb7 0ebc
00000070: 7add 123c 20d5 1dbc 9104 1b3c fe48 0cbc
00000080: 5a62 19bc d85a 07bc f290 08bc 327d 083c
00000090: 04f5 14bc b8a0 09bc 502e 013c 2e8d 0ebc
000000a0: 3f7c 043c 8eef 02bc 73cc 023c 3027 153c
000000b0: dbfa 123c cabd 0a3c ddab 12bc a0b7 12bc
000000c0: ea39 d63b 02ac 0f3c 3981 073c 60f7 fbbb
000000d0: 4f65 09bc 2e11 04bc 6658 12bc d358 093c
000000e0: aadd 143c 3edf 1cbc 1263 053c 219d 193c
000000f0: 2a58 0e3c 00f0 0abc 82cc 0e3c ec9d 0bbc
0.009166433 -0.009252634 0.008952744 -0.008957179 0.00830405 -0.0071945963 0.008343801 -0.00887684
-0.008503214 0.008338539 -0.008654391 0.007911237 0.009829424 -0.008389707 0.008399753 0.008391365
0.009158948 -0.008378219 0.009431164 -0.009732406 0.0083496105 0.008452115 -0.008440028 0.009982468
0.008913906 -0.00927925 -0.008900968 -0.008710634 0.008963937 -0.0096333325 0.009461538 -0.008562325
-0.009361828 -0.008261405 -0.008335339 0.00833063 -0.009091619 -0.008400135 0.007884577 -0.008700652
0.008086263 -0.007991685 0.007983315 0.009103581 0.008970941 0.008468101 -0.008952108 -0.008954912
0.0065376656 0.008769037 0.008270555 -0.0076894015 -0.00838597 -0.008060737 -0.008932209 0.008382994
0.009086052 -0.009574709 0.008141296 0.009375841 0.008688012 -0.008480072 0.008715751 -0.008521538

exp_avg_sq f4 [1, 64]
00000000: eca1 183b f151 fc3a 20d2 0c3b 858f 1a3b
00000010: eb03 293b 0839 d93a 0041 203b f30b 203b
00000020: 7cf8 0d3b bcc2 1d3b 5aa8 233b 7283 283b
00000030: a4de ed3a af82 293b 2d19 203b 38d1 253b
00000040: 45bb 183b f910 1f3b 5257 073b 7f83 ee3a
00000050: 3230 1f3b 6d2b 063b eacc 1f3b f540 eb3a
00000060: 9a8e 0e3b 81d6 033b 4a0e 1c3b 2f09 093b
00000070: 8b7a 1b3b 32ea f13a c5e4 f53a 4be0 0c3b
00000080: 062d 143b 380f 293b 8903 1f3b 1e79 1d3b
00000090: e488 143b 2dcf 1e3b 445f 2a3b 6b98 143b
000000a0: 5b00 f23a 1465 293b 2ee6 ed3a 54fe 063b
000000b0: 9f90 0b3b 9130 0f3b 10d7 0c3b 20b9 0c3b
000000c0: 5336 843a 65da 213b ba52 293b f384 e43a
000000d0: 2965 203b c78d 293b 2546 1e3b a4d9 1f3b
000000e0: 1ecb 193b 5608 f13a 5c61 223b d890 053b
000000f0: 2576 1d3b f570 0c3b aeb2 1a3b 9d8d 1d3b
0.0023289872 0.0019250495 0.002148755 0.002358408 0.0025789689 0.0016572783 0.0024452806 0.0024421185
0.0021663 0.002407237 0.0024972172 0.0025713113 0.0018148017 0.0025865247 0.0024429068 0.0025301706
0.002330498 0.002427159 0.0020651412 0.0018197148 0.0024290201 0.002047266 0.0024383613 0.0017948436
0.0021752478 0.0020116868 0.0023812228 0.0020910015 0.0023724164 0.0018456636 0.0018760195 0.0021495994
0.0022609844 0.0025796425 0.0024263582 0.002402849 0.00226646 0.0024232373 0.0025996724 0.0022673856
0.0018463241 0.00258476 0.0018150264 0.0020598369 0.0021295918 0.0021849016 0.0021490492 0.0021472648
0.0010086991 0.0024696824 0.0025836662 0.0017434641 0.0024474359 0.002587186 0.0024150696 0.0024391199
0.0023467015 0.0018389325 0.002477727 0.0020380523 0.0024026718 0.0021429632 0.0023605037 0.0024040707
