lab_3/logs_task_3c/epoch=36-step=2960.ckpt (torch, 242123 bytes, 8 tensors)

linear1.weight f4 [64, 784]
00000000: c5d2 c03c 9d0b 0cbd 64f5 003d ba8f 053b
00000010: 737c 90bc d5e3 c83c 5ecb de3c 2731 0b3d
00000020: 5b5b 08bb 38aa 7f3c 46a5 2c3c 8f79 733d
00000030: 75fa 99bd 609e 1dbd ac24 863c 0966 c33c
00000040: 96c1 a2bc cdfd c83d a1ea e03b f5cf 8f3c
00000050: 8809 06bb db6f 033d 8e91 383c c852 023d
00000060: da90 e63c 2fd2 ad3c 1bf9 d6bc 8d7d 843b
00000070: 8ced 023d 0b8f e5bc e09c 17bd 4de0 b33b
00000080: b47f 983b 445d 953c 4bf4 7dbc 8478 c3bc
00000090: 306f b33d 392b da3d 2c57 bf3d 371c 0e3d
000000a0: 1a27 70bd 6d7b 12bd 9a60 2e3d 1255 c8bc
000000b0: f7db c33a 3675 f83d 7516 5d3e 1583 383e
000000c0: e6c8 c43d da56 813c 23e4 063d 54ed 803c
000000d0: 72b3 6bbb 53c5 e33c d170 f43b 2aac 93bc
000000e0: f6ae 0e3d 31e5 013d 009f 713c 97d6 543c
000000f0: 1342 ddbc 655d 31bd 7e64 42bd 7029 56bd
00000100: 3d3d c43d af9e 803d 748d 00be d150 86bd
00000110: 564e 92bd 159d 99bd 6a2a 0f3c 93e4 cebd
00000120: cc7c 3dbd 27f2 5dbc 9e7b 423d 384d d13d
00000130: dc1f 433d e852 c8bc b219 f7bb a362 1a3d
00000140: 1356 bcbb 1f3a bf3c 28f7 54bc 7424 f73b
00000150: b0ac 9ebc 1beb 6fbc e300 8fbb 7967 e63a
00000160: cece 1dbc 8bc0 9fbd 45c4 98bd b3a5 7dbd
00000170: b82d c4bd dfed 4dbd a149 8fbd bc62 28bc
00000180: 4acf dcbc 8804 5bbc 279c 3c3d 96f7 96bd
00000190: ae8c 6abc 7398 a7bb 1934 b53c 3c1c bfbc
000001a0: 37f9 d9bd e37e 53bd c590 aebc cea6 8ebc
000001b0: 7147 393d b616 ec3c 9a49 a23c c9bf e53c
000001c0: 044f fd3c 0758 293c 4ff1 e33c c368 14bb
000001d0: 1548 23bd a2b6 a0bd bfd7 f2bd 0230 c9bd
000001e0: 34aa 573c 1720 b4bd cdda c63c 779d b53b
000001f0: 561b d03c c325 133b 313b de3d 8472 5c3c
00000200: e919 493d c2d1 da39 2279 3dbd fb89 7cbb
00000210: 1d8e 8ebd 7411 06be f84e febd 867e 15bd
00000220: 3946 8a3c f0a8 78bc 0d66 ca3c 2145 963b
00000230: 68fb 8b3c b49f b9bb 72a4 f83b d86c fdbc
00000240: bd2c 25bd cdfc 0cbe 013b 1abe c5b3 6abc
00000250: 8b9f 693c f7cc 3d3d eef4 593d 814c 0c3b
00000260: e89e 803c e426 f33c 3847 9c3d a0b8 163d
00000270: 3b5b bf3b 283b fcbb 0fb2 913c 025c 833c
00000280: bab1 3bbd 4532 ccbd 3f12 0dbe 58aa 0fbd
00000290: f4f9 053d fc1e 213d 4ce4 8d3c cd5d 783b
000002a0: bd0d f33c 9a0a b23c aef5 32bd 84f7 6dbc
000002b0: c85c bcbd 5ed5 2abe ebf6 fabd 40e4 5cbd
000002c0: b6be 5a3d a52f c43b b747 003d d1b4 87bd
000002d0: 00ce b9bd acfe 4cbd 3ae8 a53d a64e eabc
000002e0: 7e54 603d 1e8a 31bd a89e 9c3c 736f b03d
000002f0: d7cb 773c fe46 70bd b9a7 d5bd 39c1 a3bd
00000300: 8d77 8bbc 4fd6 af3d 4db5 293d 6ae1 aa3c
00000310: 200c 9539 1c04 4ebc e214 ae3c 926d 95bc
00000320: d2f2 99bd a52e acbd 1244 9dbd 580e 8fbd
00000330: 7131 033d 1aff 163d ca75 76bc 01d8 3bbc
00000340: 2a1d eebc 86eb 6fbd 05a8 da3c 9cf9 903c
00000350: 0627 1d3c 1a47 80bc d9f4 73bd 3ece 0dbd
00000360: d9b5 363c 167f 85bd 46a1 9abc a0ca babd
00000370: c1e8 29bd 03a4 823d 8a3c 083d b8d3 603d
00000380: 00f7 d5bc b3a0 e0bc 72d2 06bc 8325 e0bc
00000390: 8d15 c1bd 7a6a 9fbd dc71 87bd 2fc2 07be
000003a0: b4cd d7bc 4672 41bb 5fce d9bc aabf 87bd
000003b0: 0e20 963c 2dcc 5c3a bab8 113d 8086 7f3d
000003c0: e13d 8e3c 412c fc3c cd95 bb3b e2c1 f6ba
000003d0: 3f05 94bc c30f 79bd abd0 85bd 02c9 ddbd
000003e0: 9257 3fbc 78c2 da3c d281 ee3c 7163 27bc
000003f0: 1667 33bb 486a 563c a405 91bb 06d1 6bbd
0.023538003 -0.034190763 0.031484023 0.0020379857 -0.017637467 0.024522701 0.027196582 0.033982422
-0.0020806405 0.015604548 0.010537451 0.0594421 -0.07518474 -0.038481116 0.016374908 0.023852365
-0.0198677 0.09814034 0.0068639074 0.017555216 -0.0020452458 0.032089096 0.011265172 0.031817228
0.028145242 0.021218387 -0.02624183 0.004043287 0.031964824 -0.02802231 -0.037014842 0.005489385
0.0046538953 0.01823295 -0.0155001385 -0.023861177 0.08761442 0.10652775 0.093427986 0.034694877
-0.05863104 -0.03576224 0.042572595 -0.024454627 0.0014942874 0.12131731 0.21590598 0.18018754
0.09608631 0.015788484 0.032932412 0.015738167 -0.0035965112 0.027804052 0.007459738 -0.01802643
0.034834825 0.031712715 0.014747381 0.012990615 -0.027009046 -0.04330196 -0.047459118 -0.05228561
0.09581993 0.062802665 -0.1255396 -0.06558383 -0.07143848 -0.07500664 0.00873814 -0.10102191
-0.046261594 -0.013546503 0.04748117 0.102198064 0.047637805 -0.024453595 -0.007540905 0.037691724
-0.0057475655 0.023343144 -0.01299838 0.0075421873 -0.019369453 -0.014643456 -0.0043641194 0.0017578445
-0.009631826 -0.078003965 -0.074593104 -0.0619256 -0.09579033 -0.05027568 -0.069964655 -0.010277446
-0.026954312 -0.01336778 0.046047356 -0.07371442 -0.014315767 -0.005114609 0.022119569 -0.023328893
-0.10643237 -0.05163468 -0.021309266 -0.017413523 0.045234147 0.028819423 0.019810487 0.028045552
0.030921467 0.010335929 0.027825026 -0.002264545 -0.039863665 -0.078473344 -0.118575566 -0.0982361
0.013163138 -0.08795183 0.024274254 0.005542453 0.02540366 0.0022452928 0.108511336 0.013455037
0.049096975 0.00041736482 -0.0462581 -0.0038534391 -0.069607 -0.13092595 -0.12417406 -0.036497615
0.016879188 -0.015176997 0.024706865 0.0045858775 0.017087653 -0.00566479 0.007587963 -0.03093569
-0.04032587 -0.13768311 -0.1506157 -0.014325087 0.014259229 0.046338048 0.0532121 0.0021407905
0.015700772 0.02968163 0.076307714 0.036797166 0.005839733 -0.0076974817 0.0177851 0.016035084
-0.04582379 -0.09970526 -0.13776492 -0.03507456 0.032709077 0.03933619 0.017320774 0.0037897706
0.029669637 0.02173357 -0.04369133 -0.014524344 -0.09197384 -0.16682956 -0.12254127 -0.053928614
0.053404532 0.005987125 0.031318393 -0.06626285 -0.090724945 -0.05004756 0.08100934 -0.028601956
0.054768078 -0.04334461 0.019118622 0.08615007 0.015124283 -0.058661453 -0.10432381 -0.07995839
-0.01702478 0.08585798 0.041432668 0.020859439 0.00028428528 -0.012574222 0.021250192 -0.018240724
-0.075170174 -0.08407334 -0.07678999 -0.06985158 0.032029573 0.036864378 -0.015042732 -0.011465074
-0.02906664 -0.058574222 0.026691446 0.017697148 0.009591823 -0.015658904 -0.059559677 -0.034620516
0.011151754 -0.0651838 -0.01887573 -0.09120679 -0.041481737 0.06378939 0.03326086 0.05488941
-0.026118755 -0.027420377 -0.008228885 -0.027361637 -0.094279386 -0.07783981 -0.06613514 -0.13257669
-0.026343204 -0.0029517575 -0.026587663 -0.06628354 0.018325832 0.00084227585 0.03557656 0.06238413
0.01736349 0.03078282 0.0057246448 -0.0018826092 -0.018068908 -0.060806047 -0.06533941 -0.10829355
-0.011678593 0.026704058 0.029114638 -0.01021658 -0.0027374676 0.013086863 -0.0044257212 -0.057572387

linear1.bias f4 [64]
00000000: 53da 28bd ac00 13ba 851d 853d e558 243e
00000010: cd56 a8bd 8c15 f0bd 01f7 ac3c ec6c 203e
00000020: 671f a13d cd43 763d be99 223d 7dad 27bd
00000030: badb 19bd 8828 a23d 9701 2fbd 07f6 bcbd
00000040: 35f3 763c fa3b d7bb 1576 913c fa59 47bc
00000050: e004 f23b f3e2 d63d 159d 303d 791f ea3d
00000060: d6e1 193e 0070 7a3d 3b85 283e ca8d ce3d
00000070: f7be a0bc f7ca cc3d 3480 6a3d 973f 38bc
00000080: 3801 073b db60 14be 6bd4 823d 05b0 1f3d
00000090: 69df 1b3e 3205 203e c801 02be 5ae1 883d
000000a0: cb6e 4abe 9bd9 3bbd f056 fe3d 1bb2 043e
000000b0: d2e1 d7bd 9d21 0abc 2ef1 15be bf0c 5d3d
000000c0: 718d 013e cf88 133d a0ef 113c b8fd 873d
000000d0: 28bb 693d 4712 033e 660d 573d c933 a0bd
000000e0: fca4 32bd aeb0 c03d e39a d23d 61e7 1fbd
000000f0: 47da 8f3d f106 07bd 7f85 32bc 4df2 c73b
-0.041223835 -0.0005607705 0.06499771 0.16049536 -0.08219681 -0.1172286 0.021113874 0.1566655
0.07867318 0.060123254 0.0396974 -0.040936936 -0.037563063 0.07917887 -0.042726126 -0.092266135
0.0150726335 -0.006568429 0.017756501 -0.012167448 0.007385835 0.10492506 0.043118555 0.11431784
0.15027556 0.061141968 0.16457073 0.10085638 -0.01962231 0.0999965 0.05725117 -0.01124563
0.0020600092 -0.14490072 0.06388172 0.038986225 0.15221943 0.15626982 -0.12695992 0.066836074
-0.19768827 -0.04586182 0.12418926 0.12958567 -0.10541119 -0.008430866 -0.14642784 0.053967234
0.12651612 0.036019143 0.008907229 0.0664019 0.05706325 0.12799941 0.052503012 -0.07822377
-0.043614373 0.09408699 0.102834485 -0.03903902 0.07024055 -0.032965604 -0.010896086 0.0061018826

linear2.weight f4 [64, 64]
00000000: 28d4 5ebd ea63 f53c 56a3 ca3d d194 46bd
00000010: e1a9 d2bb 9fd7 b8bd 4e3f 393d 600f 833a
00000020: bcb1 d9ba 1085 b93d cbf1 c8bd 0495 0ebc
00000030: de06 9cbd 1292 09be f711 e8bd 2694 89bd
00000040: 8307 8b3d 507b c53d 00c6 013e 931a a7bd
00000050: 939a eebd 4a0c 4e3e 4afe 59bc 90e8 6f3e
00000060: 0684 de3d 90e1 833d 436b ffbc 8703 213e
00000070: 67f1 f2bc 4c2d e7bd b0aa 9a3d cde5 95bd
00000080: 1f58 ebbd 01af 9abd 1a0c d2bd 1339 f33d
00000090: e0fb 63bd 9e84 96bd d038 f4bd d5a6 16bd
000000a0: b6df 83bd f783 2e3d 5ff8 223e 7e33 0a3d
000000b0: 0a7d 123d a6e3 e43c b9bf 0dbd 95ad 923d
000000c0: 5517 c0bd c0c3 c13d bdf5 ea3d 8383 413e
000000d0: dfe3 123e de78 c33d 4fa6 6fbc b782 f23d
000000e0: 6664 6a3d b115 8ebd 40e7 2b3e 635b 0f3d
000000f0: f917 063e efa8 023e dfad 0ebd cb05 493d
00000100: d840 6ebb 2d2c 0bbd 5091 993d 7501 ca3d
00000110: bf9a 9bbc c938 93bd 87e8 323e a251 1f3e
00000120: 3fcc 173e a851 89bd 1ec2 183e 4fdf 123d
00000130: 658e e8bd 1eb0 073e a1a3 2ebe 821e 23be
00000140: 62c6 013e 3e89 c23d 338a 2c3d 896d a13c
00000150: 5389 0cbe a8dc 083e 14f9 093e 7a0a c43d
00000160: 2854 41bd 586d 423e 0a17 273e 2a47 413e
00000170: 13fc dabd ed62 193e 5e1f 213e 4536 cdbd
00000180: 37cc 85bd ecc2 09be e676 cfba 0afd 6bbc
00000190: b26b 2e3d fde1 163e 8901 3cbe acd3 b83d
000001a0: db29 843d 07c2 b13d 2290 493d ac63 383e
000001b0: 5acc 0c3e e1eb 13be fe8c 39be 1a4c b23c
000001c0: ddc1 273d 097f bc3d 1e0f 09bc ecf6 073d
000001d0: f056 18bc cac2 d93d b94e 8b3d 4ce9 15be
000001e0: f1ad 2bbe 758a 953c b341 603d 3aa7 19be
000001f0: f6f9 3e3e 8afe bc3d c715 90bd 3570 21bd
00000200: 93e0 1fbd 9f0d 5abe 900b 53be 027a 883a
00000210: 5e08 11bd b749 30be 3237 29be 788e ae3c
00000220: e52e 6b3e 42d7 023b 0d69 db3d d0d0 003e
00000230: 2cdb 0f3e 9796 85bc 08dd 2ebd 08d9 1f3e
00000240: 43c3 f1bd da65 9f3d 1afa bfbb 944e 503e
00000250: a43c 79be abe0 d93d 04df 8fbd d8b0 e03d
00000260: 405a 25bd 1807 fb3b b105 cbbc d304 76bd
00000270: d6aa 49be 9798 03be 5f23 5d3c ba2a 073e
00000280: d8af b93d 3551 cdbd c471 da3d c30e e13d
00000290: c55a 83bd 58eb 903c 03b2 f5bc ab15 023e
000002a0: 44d6 043c c738 983d 22bf 8abd 5811 ad3d
000002b0: 6655 2fbd d2c6 23be 0c05 84bd 0aca 07be
000002c0: bcdd 153e 730b 1f3e 91a5 d03d 8b05 de3d
000002d0: 3248 db3d c81a 2dbe 453a 183e 99fa 87bb
000002e0: af3f c7bd 891d dd3d b693 24bd d9cf 1bbe
000002f0: 471d 90bd 7029 09be 02b0 993e 8106 073e
00000300: 1425 f23d e6d2 233d 37dc 05be cd8d 1abe
00000310: eabd d43d 9f63 54bd c7eb 02be 422e b73c
00000320: a2dc f4bd 13bd 2f3d 3db1 e8bd 7b4c fc3c
00000330: efda 5ebd 2c9c 27be 57d3 8bba 16ba 96bd
00000340: 085e debd fea3 cbbc 8c94 5d3d 0da3 e8bc
00000350: fda2 373e cf70 0dbd 28ca d0bd 69fb cabc
00000360: 80e3 603b ca61 d6bd 1a9d 4cbd 0522 aebd
00000370: 3615 e6bd d486 8dbd 5c90 ee3b f6c3 1fbd
00000380: 9cd6 88bc 1f04 25be b99f d3bd 6397 73bd
00000390: cead f73d 1e3f 00be d00f a13c 6992 bebc
000003a0: b695 203e 1533 a73d 8dfa 04bc 6b9e 0b3e
000003b0: 94ef a33d 9efe 7cbc 5547 a8bd fb39 f23d
000003c0: 34e1 07bc d322 20bd 06ee 033e 0c42 08bd
000003d0: 80a6 143d 8dea 26bd 2bbc fabd a57f c4bd
000003e0: 0a98 643d 78bf fcbd 8e18 c83c 2fee eebd
000003f0: b2f3 213d abc0 9dbd dbba a5bd 50ef 1cbe
-0.054401547 0.02995487 0.09894435 -0.048481766 -0.0064289425 -0.090255015 0.045226388 0.0009999089
-0.0016608755 0.09058583 -0.09811743 -0.00870252 -0.07618497 -0.13434628 -0.113315515 -0.0671771
0.06788542 0.096426606 0.12673187 -0.081593655 -0.116505764 0.20121875 -0.013305256 0.2342856
0.10865025 0.06439507 -0.031179076 0.15724002 -0.029656125 -0.112879366 0.07552087 -0.07319222
-0.11491417 -0.075529106 -0.102562144 0.118761204 -0.05566013 -0.073495135 -0.119248986 -0.036780197
-0.06439154 0.04260632 0.15915059 0.033740513 0.035763778 0.027940582 -0.03460667 0.071620144
-0.0937945 0.094611645 0.11472652 0.18897824 0.14344738 0.09544538 -0.014627053 0.11841338
0.057224654 -0.06937731 0.16787434 0.034999263 0.13095082 0.12759756 -0.034833785 0.04907779
-0.0036354568 -0.033977676 0.07498419 0.09863559 -0.018994687 -0.07188565 0.17471515 0.15558484
0.14824007 -0.06705028 0.149178 0.035857495 -0.113552846 0.13250777 -0.17054607 -0.15929607
0.12673333 0.09498833 0.042123985 0.01970555 -0.1372426 0.13365424 0.13473922 0.09572311
-0.0471994 0.18987024 0.16317382 0.18874803 -0.106926106 0.14979143 0.15734622 -0.10020117
-0.065330915 -0.13453263 -0.0015828281 -0.014403591 0.042583175 0.14734645 -0.1835996 0.09024748
0.06453296 0.08679586 0.04920972 0.18006772 0.13749829 -0.1444545 -0.1812019 0.021764804
0.040956367 0.092039175 -0.008365421 0.033194467 -0.009298071 0.10632856 0.068021245 -0.14639777
-0.16765572 0.018254498 0.054750156 -0.15005198 0.1865004 0.09228237 -0.07035404 -0.03941365
-0.03903253 -0.21294259 -0.2060988 0.0010412338 -0.03540837 -0.1721562 -0.16524962 0.021308169
0.22967108 0.001996473 0.10713396 0.12579656 0.14048451 -0.016307158 -0.04269126 0.15610135
-0.11804821 0.077830985 -0.005858672 0.20342475 -0.24339539 0.10638555 -0.07024959 0.1097123
-0.040369272 0.0076607578 -0.024782987 -0.060063194 -0.19694075 -0.12851177 0.013497203 0.13199893
0.09066743 -0.10025255 0.1066623 0.10989144 -0.06413797 0.017690346 -0.02999211 0.12703578
0.0081077255 0.074327044 -0.06774737 0.08450574 -0.04280605 -0.15993813 -0.06446275 -0.13260666
0.14635366 0.15531711 0.10187829 0.10840901 0.107071295 -0.16904747 0.14865978 -0.0041497466
-0.097289436 0.10796649 -0.04017993 -0.15216006 -0.07036834 -0.13394713 0.30017096 0.13186075
0.11823478 0.03999605 -0.13072287 -0.15093155 0.10387786 -0.05185282 -0.12785254 0.022360925
-0.11956145 0.042904925 -0.113619305 0.030798187 -0.05440801 -0.16368169 -0.0010667843 -0.07359712
-0.10857779 -0.024858471 0.054096743 -0.028398061 0.17933269 -0.03453141 -0.10194808 -0.024778085
0.0034315288 -0.104678705 -0.04995451 -0.085025825 -0.112345144 -0.06910482 0.0072803926 -0.039005242
-0.016703896 -0.16114853 -0.10333199 -0.059470546 0.120936975 -0.12524077 0.01966086 -0.023263173
0.1568211 0.0816404 -0.008116377 0.1363465 0.0800468 -0.015441565 -0.082167305 0.11827465
-0.008293439 -0.03909571 0.12883767 -0.033266112 0.0362916 -0.04075103 -0.122429214 -0.09594659
0.05580906 -0.12341207 0.024425771 -0.11666524 0.039539047 -0.07702764 -0.080922805 -0.15325665

linear2.bias f4 [64]
00000000: ecbc 573e 11d3 943e 127d 233e f2b9 27be
00000010: aeb6 05be 858d 4fbe 9a05 6bba 832f d1bc
00000020: d4f6 9e3c 3a5c ad3d bcc3 99bc 154d a4bd
00000030: f2d3 f9bd 9a43 e63d 71b8 a33d 1720 14be
00000040: 40e0 963d 5991 24be 5b8b bc3c 8f37 493e
00000050: d2c0 6fbe dfb6 62be f20d f8bc b69a aa3b
00000060: df88 d0bb ddd5 13bd f218 0ebe 7bbd e4bd
00000070: 661f a13d 8031 f7bd d027 043e 5666 f7bc
00000080: 8a7c b23c 2206 48bc 4c5a e23d 5e37 e63d
00000090: 4053 8dbd a97f 2abd c20e 25be d4a3 f1bd
000000a0: cc4b d13c 7344 94bd 515b cb3b 89ae babd
000000b0: 5c65 08bc a6a4 aabc 6367 3d3d 8678 86bc
000000c0: 83e4 7abd 1032 9b3d 9d14 403d 9a2e 72bd
000000d0: 3365 ba3d 1e2d c3ba 27bb 983d 8a52 16be
000000e0: edac 09bd 1652 a2bd bb70 97bc 2345 3b3d
000000f0: 6c64 433d f618 903d df50 233e d98b 1a3e
0.21068162 0.2906728 0.1596568 -0.16379526 -0.13057968 -0.20268829 -0.0008965373 -0.02553535
0.019404806 0.084648564 -0.018770091 -0.08022515 -0.121986285 0.11243363 0.07994164 -0.14465366
0.07366991 -0.1607107 0.023015669 0.196501 -0.23413399 -0.22140072 -0.030280087 0.0052064313
-0.0063639726 -0.036092628 -0.13876703 -0.11168953 0.07867317 -0.12069988 0.12905812 -0.030200165
0.0217879 -0.012208493 0.11052379 0.11241029 -0.06900644 -0.041625652 -0.16118911 -0.11798826
0.025548838 -0.07239618 0.006205954 -0.09115321 -0.008324947 -0.020830464 0.046241175 -0.016414892
-0.061253082 0.07577908 0.04689466 -0.059126474 0.091013335 -0.0014890765 0.074575715 -0.14679924
-0.03361218 -0.07925813 -0.018486371 0.04572023 0.04770319 0.07036011 0.15948819 0.1509241

linear3.weight f4 [64, 64]
00000000: 9963 8f3d 7a32 333e ca72 203e eec2 d9bc
00000010: f045 25bd 07f7 a23c bbb6 533d 039a 233d
00000020: c028 8dbd 2448 c03d c522 b1bd 3319 7a3d
00000030: 9795 c83d 7d69 443d b6ea 6cbd ffa1 053c
00000040: 0c2d 333d 3839 ab3d b8d9 613c 7269 a3bc
00000050: c6f2 dfbd bea6 c9bd 0e83 cabc 7d12 0c3e
00000060: 0eac 113d 964f efbd 5da0 b5bd 9470 293d
00000070: b0d1 5a3d 3d79 c63d be6c 00bd 1719 943d
00000080: 5cba 533b d732 04bb 98da 4abd 84ab 763d
00000090: 97c3 eebc a986 033c 55cc 23be fc10 50bd
000000a0: 62e7 8fbd 96a6 9bbd ad19 64bd 8924 fc3d
000000b0: c93d e03d ccd7 d5bd b67b 7bbd 125c 4d3e
000000c0: 994c f5bd 9e44 c7bd 6f7b 8b3c 1bd1 fabd
000000d0: 0217 0f3e 628a 463e aee2 aa3c b104 76bc
000000e0: 71d6 09be 7f6d 4c3c e40c b0bd af25 2abd
000000f0: 3f96 85bd 13a4 ad3d 9ee8 80bd 8ef3 943c
00000100: d5a3 ad3d 1e4e de3d b912 043e aea9 5ebb
00000110: cd2b a23d c03b 9f3d d99c dfbc 2ab4 283e
00000120: b591 b33d 1fbf 26be f2d9 963d 433f 093d
00000130: 4137 f23d a9ef 21be f7b6 ae3d 32ff bdbd
00000140: 304e 7cbd 7610 fe3c 0eb8 1d3e c394 4e3d
00000150: 46a0 2b3e d18b 2fbe e30b 9b3d 3a06 7dbb
00000160: e472 063d 8380 93bd e020 ad3d 3158 6abd
00000170: b2a8 7d3c 1f78 133c acca 94bd 02b3 173d
00000180: 330c 7dbd 8ea5 ff3d ccd6 fd3d cc42 0dbd
00000190: c09d 03bd aa57 4fbc 8454 cb3d ce60 58bd
000001a0: 7531 053e 4fd1 1f3e 5cb0 f6bd 9ee3 47be
000001b0: 87ca 263e b51e 953d 947c 943c fd70 4ebb
000001c0: fa88 9a3d c5ef 3fbd 89b1 f73c 0df0 b73d
000001d0: ebbc bc3d ef82 90be 0fd6 aabd 8c7a a33b
000001e0: a4b1 f2bb a02b bb3d ab02 573c 63d7 573d
000001f0: 6005 8a3d c94a 72bd 82fd d53c 3234 48bd
00000200: 3b68 8b3d 61b8 1a3e 3179 e5bc 8b52 81bd
00000210: 08a8 20be c35b 90bd 4ef4 443d 6262 54be
00000220: a104 a4bd 00aa a03e 25d0 0f3e 030b 52be
00000230: 081f 13be 54a9 0c3e a3a8 0b3d 6e82 193e
00000240: b938 ea3d 5e36 ef3c b58d 22be c7cc 6f3c
00000250: cfee 68be e170 163d d383 eb3d 013e 8dbd
00000260: d7b6 1f3e ebc1 d8bd 5e2a bfbd 54fa fd3c
00000270: eed8 a1bd 7570 39be 90b1 853d 03e1 aabd
00000280: f45e bb3d a1d3 f23d eaf3 293e f1d1 3e3d
00000290: a0dd 003e 6ef0 adbd 3c36 45bb dbde 5abd
000002a0: 4362 a4bd 1462 ebbd 0586 adbc 869f 473e
000002b0: a62a 16be 017c bebd 59e5 393d 12ad 6b3d
000002c0: 33c0 3abc 95b9 4f3c d7a8 893b 3fb3 06be
000002d0: 6c0a 30bd e82a 8b3e 8405 3a3c 09f2 5a3e
000002e0: a4b9 f13d b985 0bbc a638 a63d b85b 84bc
000002f0: 5eef 2ebe 12cb 843d 284f 0a3c 8303 b8bd
00000300: f717 803d aa73 193d e59d 29be 36c3 b43d
00000310: fa18 003e cd09 5dbd ad68 c93d 57c2 f33d
00000320: d5ef cb3d a18b 0d3e a1c9 93bd b384 b73d
00000330: f9f3 b63d 784a 543c 8a62 083e 1b4f e03d
00000340: 2ac5 063c adeb 60bc 2898 b4bd 7649 d73d
00000350: afde a3bd f5b7 b1bc 82e2 02be e577 1dbe
00000360: 1ac8 ec3c 515f 403e 52d2 12be e265 b0bc
00000370: 9828 823d d2e7 2cbe b3b0 033e 9f88 9dbd
00000380: 2721 5abd 29bd 04bc 46bc cebd f90e 1c3e
00000390: 9830 1ebd 9193 21bd 6543 04be 88e4 12be
000003a0: 1da2 163e dfd3 e13d aaf5 643d 9a7b 003d
000003b0: 4af3 343e fcd3 36bd fff2 0f3e 1eac ef3d
000003c0: 1e56 8cbc 4857 1a3e 810f 913d cb1e 2dbe
000003d0: 905e b5bd 5c4f e93c f856 b43d 702d c13d
000003e0: ce05 14be cfaa bf3d 2e3b dfbd d3a8 f43d
000003f0: f45e 853d 85f5 e9bd e5ea eb3d 12d4 963d
0.070014186 0.17499724 0.15668789 -0.026582208 -0.0403499 0.019893182 0.051687937 0.0399418
-0.06892538 0.0938876 -0.0864921 0.061059188 0.09794157 0.047952164 -0.057841025 0.008156299
0.043744132 0.08360523 0.013784818 -0.019947741 -0.10934977 -0.09846257 -0.024720695 0.13678928
0.035564475 -0.11685102 -0.088684775 0.04136713 0.05342263 0.09691093 -0.031353705 0.07231348
0.0032307124 -0.0020171904 -0.049524873 0.060222164 -0.029145999 0.008027711 -0.15995915 -0.050797448
-0.07026555 -0.07600133 -0.05568855 0.12311656 0.109492846 -0.104415506 -0.061397277 0.20054653
-0.119775005 -0.097298846 0.017026631 -0.12246915 0.1397362 0.19388726 0.020860042 -0.015015767
-0.13460709 0.012477278 -0.08596209 -0.041539844 -0.06522798 0.0847856 -0.06294368 0.018182542
0.08478514 0.108547434 0.12897767 -0.0033975649 0.079185106 0.07775068 -0.02729647 0.16474977
0.08768026 -0.16283844 0.073657885 0.033507597 0.11826945 -0.1581408 0.085309915 -0.0927719
-0.061598003 0.031013709 0.15402243 0.05043484 0.16760358 -0.1714318 0.075706266 -0.0038608448
0.032824412 -0.07202246 0.08453536 -0.057213012 0.015482115 0.009000807 -0.07265219 0.03703595
-0.061779212 0.12482749 0.12394485 -0.03448753 -0.032132864 -0.012655178 0.099282295 -0.052826695
0.13007148 0.15607189 -0.12045357 -0.19520423 0.16288196 0.072812475 0.01812581 -0.0031500452
0.075456575 -0.04685952 0.030236023 0.08981333 0.09215721 -0.28224894 -0.0834161 0.004988974
-0.0074064303 0.0913918 0.013123195 0.052695643 0.067393064 -0.059153352 0.026121859 -0.048877902
0.0680699 0.15109397 -0.02801189 -0.06314572 -0.15689099 -0.07048752 0.04808455 -0.20740655
-0.080086954 0.313797 0.14044245 -0.20512013 -0.14367306 0.13736469 0.03409637 0.14991161
0.114366 0.029200729 -0.1587437 0.014636225 -0.22747348 0.036728743 0.11499753 -0.06896592
0.15597092 -0.10583862 -0.09334253 0.031003155 -0.07902704 -0.18109305 0.06528008 -0.08343699
0.0914897 0.11856771 0.16596952 0.046586934 0.12584543 -0.08493124 -0.003009214 -0.053435188
-0.080265544 -0.11493316 -0.02118207 0.19494447 -0.14664707 -0.093009956 0.04538474 0.0575381
-0.011398363 0.012678524 0.0042010355 -0.13154314 -0.04297869 0.27181172 0.011353854 0.21381392
0.11802986 -0.008515769 0.081162736 -0.016157016 -0.17083499 0.06484045 0.008441724 -0.08985045
0.06254571 0.03746382 -0.16564138 0.08826296 0.12509528 -0.053964425 0.098344184 0.11902302
0.09957854 0.13822795 -0.07216192 0.08960857 0.08933253 0.012957208 0.1331884 0.10952588
0.0082257185 -0.0137280645 -0.08818084 0.105120584 -0.08001458 -0.021694163 -0.12781718 -0.15377767
0.02890401 0.1878636 -0.14338043 -0.021532957 0.06355399 -0.16885307 0.12860374 -0.07692074
-0.053254273 -0.00810174 -0.10094504 0.15240087 -0.03862056 -0.03944737 -0.12916334 -0.1434499
0.14710279 0.11026739 0.055898346 0.031367876 0.17670932 -0.044635758 0.1405754 0.117027506
-0.017130908 0.15072358 0.07083035 -0.16906278 -0.08855927 0.028480224 0.088056505 0.09432495
-0.1445534 0.09358751 -0.108999595 0.11946263 0.065122515 -0.11423782 0.11519412 0.07364668

linear3.bias f4 [64]
00000000: 2636 ef3d c646 86b9 2e79 df3d aeb1 bd3b
00000010: b31d a2bd f607 2abc 0c31 76bd a47d c03d
00000020: 7384 0bbd 1551 143e ceaf 12be 9ac2 683d
00000030: e686 29bd 9211 223e 7f9e 603e c17c 66be
00000040: 4754 543d 1ce9 803d 731d c4bd 3ec2 45be
00000050: 2e5a 163e d50f e93d 00ba 993d 8878 b4bd
00000060: 2eb4 afbd 9165 4cbd a3b2 ab3d 1d47 20be
00000070: d4c1 b2bc 5ba7 2b3e 7077 0c3e 3682 2bbd
00000080: 069f 34ba bbd4 7abd 8a41 fb3d 1522 8abd
00000090: 9bff ecbd 3f8e f4bc 1612 acbd e072 82be
000000a0: b1af c0bd 9616 e13d 6060 d4ba 29d0 9d3d
000000b0: d012 5fbc 7f39 4bbd eb66 86bd 8fa6 f0bd
000000c0: 1401 af3c 37ad 3cbe 04e2 123e b275 c3bd
000000d0: bf20 c43b 2398 79bd 7dd7 aebd 78a0 c13d
000000e0: f4f3 463e d054 e33c d004 843c 62f7 0fbd
000000f0: 6198 913c bf8f a23c ab23 d8bd eb86 1d3e
0.1168025 -0.00025611202 0.10911785 0.0057890033 -0.07915821 -0.010377875 -0.06010537 0.09398964
-0.03406186 0.14484055 -0.14324877 0.05682621 -0.041388415 0.15827015 0.21935461 -0.22508527
0.051838186 0.06294462 -0.095759295 -0.19312379 0.14682838 0.11379973 0.0750618 -0.08812052
-0.085792884 -0.04990155 0.083836816 -0.15652128 -0.02182094 0.1676306 0.13717437 -0.041872226
-0.00068901514 -0.06123803 0.1226836 -0.06744782 -0.115721904 -0.029852984 -0.08401887 -0.25478268
-0.094085105 0.10990636 -0.0016203038 0.07705719 -0.013615325 -0.04961538 -0.06562599 -0.117505185
0.021362819 -0.18425451 0.1434403 -0.09543933 0.005985349 -0.060936105 -0.08537195 0.09454435
0.19428998 0.027750403 0.016115576 -0.035148032 0.017772855 0.019843934 -0.10553678 0.15383498

linear4.weight f4 [10, 64]
00000000: edbe 9d3e baf8 38bc d5ce 3d3c 6e03 913b
00000010: 9641 8ebe 361b bc3b 455a bd3e f469 ba3e
00000020: 67eb 6b3e 5062 d9bb 5909 663e 46d3 383e
00000030: c34e 733e df19 43be 978a be3e b333 87be
00000040: c577 9ebe 1e95 8d3c 23a8 8f3d 8f7e 303e
00000050: 314d 293d 9b8c e63e a59c 1abe be8c 493d
00000060: 7212 7bbd 07b8 753e 8aba 9a3d 99e5 acbe
00000070: b5e1 b83e 5599 30be f499 54bd e52c 01bc
00000080: 3de3 adbe 463e 9b3e 6394 963d 7376 863e
00000090: d6fb 68be 93bd 413e 7321 7e3e da03 57be
000000a0: 8fd7 233d bb72 8fbe 7cc3 c0be b247 6d3e
000000b0: 57fa 88be f5d8 fe3c 7bd0 293e 6383 aebe
000000c0: f9ec b03e 6f58 963b 94b2 1c3d 413c 53be
000000d0: 9c6b 753e 1bc8 44be 2d70 28be 5c92 23be
000000e0: 92a1 a13e a5d5 74be 1ea4 6b3e c774 2fbd
000000f0: 9035 9bbd 8f50 60bb 9c3f 78be f7ff a5bd
00000100: df67 88bd 4518 7f3e 2c92 9cbe 6e9d a33e
00000110: 6a0b 99be c205 99bd 299c 7f3e 8652 bcbe
00000120: 8e1d 44bd b3f3 8ebe 3f33 75be 28d1 ba3e
00000130: 6877 02bf 411a aa3e a05d af3e aa74 7c3d
00000140: b1f0 18be e375 443e 2619 58be d819 a23e
00000150: a45d 143e 5651 a0be bf55 5abe 87bb 85bd
00000160: 27be 473e fab2 1bbe 644f 0abf 5abb 7f3e
00000170: d78d 763e e8ae bb3c 6edc 65be b050 e13b
00000180: 3786 9dbe 3228 9e3e 8d13 5f3d 3f1c a7be
00000190: 7374 b0bd 16bb 6f3e 6a0d babe aaa8 91be
000001a0: 928d f6be d0aa 69be 1faa bbbe 2411 3cbe
000001b0: 24a3 a93e 67ae dabe 095a d6bc f501 1abe
000001c0: 9942 ac3e db20 18be 283d 163d 88a7 5b3e
000001d0: 2f74 e03d b59c d53b 6ab5 d4be 8e6a bdbe
000001e0: 23d8 4dbe cfcc 393d b805 70be c00f e4bd
000001f0: 25b6 323e b808 6fbe b700 603e 02d1 35bd
00000200: 8f51 6c3c 1314 73be c821 a33e 3642 52be
00000210: 2a16 313e eebb 30be a191 aabe a1da f03d
00000220: 93fa 9c3d 42f6 cebd 0a67 4f3e 8eb6 36be
00000230: de92 aa3c 19f3 d13d ccf7 103e 8dec 24be
00000240: c8cf b1be 645c 613e 75dc 6b3e 85f8 893e
00000250: 3a87 953e 25e2 7e3e e87d 9f3e c134 2dbd
00000260: d1bc 43be e860 1dbe 7a5b 5d3e 88dc e33e
00000270: a542 c7bd d23d a7be f007 dbbc 91b3 2b3e
00000280: c806 b33e 1ebc d93d 85df 593e c5ee 62bd
00000290: f5e5 5ebe 3ace c0bd 4102 383e 631d 113d
000002a0: 96af a63b cbbe dfbe 8dc0 87be 44a5 5c3e
000002b0: 3772 b63e 8881 77bd 6763 26be b870 63be
000002c0: f13a 4f3e f5a2 a0be c5e1 e23d 656b c3be
000002d0: a2d3 74be dc1c 3bbe 1b45 733e f905 80be
000002e0: 2561 813d b35a 833e a1ea 9f3d dffb ed3d
000002f0: 47c3 22be 4667 79be 5e0f cd3d b1e8 e1bd
00000300: abaa 0cbe 2267 323e b2da a7be 30c6 413a
00000310: 8d25 81be ccdf abbc a800 9f3e 64cd f5bc
00000320: 22cd 03be 392e 323e 9929 053d 0d50 bb3d
00000330: 4ce4 d8bd 53b2 f6be 236e 9fbe 26fe 4c3d
00000340: 52c5 e13e 5590 f9bd cf60 013e fc60 41bd
00000350: 0b88 ed3c 1ed8 753b d3c1 7dbe d75d 023e
00000360: 403e 1d3e 94a4 b0be 282b 1d3e 8e20 1a3e
00000370: b890 63be 4c14 0a3d 8cb0 aebe 5346 a23d
00000380: 2eba 353b 79b5 24be 3198 c83d 6458 83be
00000390: 20a9 98be 930a 5d3e 40a0 bbbe 6a0e 823e
000003a0: 603e 383e 5665 5ebe 8e63 a6be ef14 283e
000003b0: 6807 4f3e f692 3cbe df0e 90be f74f 96be
000003c0: 5f7f 1c3e ae1f 29be f71b e9bb 92ab e43e
000003d0: 327c 8d3e 1859 61be 0d21 5fbc 97a7 7fbe
000003e0: afa3 933e 4b8b adbe 7a43 8a3e 75be b63e
000003f0: a57d 3b3d 571e 4b3e 723d 053e cd03 ea3d
0.30809727 -0.01128977 0.011584957 0.0044254577 -0.27784413 0.0057405485 0.36982933 0.3640896
0.23039018 -0.006634034 0.22464503 0.18049344 0.23760514 -0.19052838 0.3721511 -0.2640663
-0.30950752 0.017283019 0.070144914 0.17235778 0.04133338 0.45029148 -0.15098818 0.049206488
-0.061296888 0.23995982 0.07555111 -0.3376892 0.361097 -0.17245992 -0.051904634 -0.007884239
-0.33962432 0.30320948 0.07352521 0.26262245 -0.22752318 0.18919973 0.24817447 -0.20997563
0.040000495 -0.2801722 -0.37649143 0.23171881 -0.26753494 0.031109313 0.16583435 -0.34084615
0.34555796 0.004588179 0.038256243 -0.20628454 0.23966831 -0.19216959 -0.16449042 -0.159738
0.3156858 -0.23909624 0.23011824 -0.042835977 -0.075785756 -0.0034227704 -0.24243015 -0.08105462
-0.06660437 0.24911602 -0.3058027 0.31956047 -0.2989152 -0.07471801 0.24961914 -0.3678171
-0.047879748 -0.27920303 -0.2394533 0.364877 -0.5096345 0.33223155 0.34251118 0.061634697
-0.14935566 0.19185595 -0.21103343 0.31660342 0.14488846 -0.31312054 -0.21321772 -0.065299086
0.19506131 -0.15204993 -0.5402739 0.24973813 0.24077545 0.02291055 -0.22447369 0.006876074
-0.3076646 0.30890042 0.054462004 -0.32638738 -0.08615961 0.23411211 -0.3633836 -0.28448993
-0.48154885 -0.22819066 -0.3665323 -0.18365914 0.3313228 -0.42711183 -0.026165979 -0.15039809
0.3364456 -0.14856283 0.036679417 0.21450627 0.1095966 0.006518925 -0.41544658 -0.36995357
-0.20101981 0.045361336 -0.23439682 -0.111358166 0.17452295 -0.2334317 0.21875273 -0.04438878
0.014423742 -0.23738126 0.3186171 -0.2053307 0.17293611 -0.1725919 -0.3331423 0.1176045
0.07664981 -0.10105564 0.2025415 -0.17843077 0.020821985 0.10251445 0.14157027 -0.16105862
-0.34728837 0.220079 0.23033316 0.26947418 0.29204732 0.24890955 0.31150746 -0.04228664
-0.19114996 -0.15368998 0.21616927 0.4450419 -0.09729508 -0.32664353 -0.026737183 0.16767718
0.3496611 0.10631584 0.21276672 -0.05540349 -0.21767409 -0.094143346 0.1796961 0.035428416
0.0050868494 -0.4370025 -0.26514092 0.21547419 0.35634014 -0.060426265 -0.16248856 -0.22210968
0.20237328 -0.31374326 0.11078218 -0.38167873 -0.23908857 -0.18272728 0.2375683 -0.25004557
0.06317357 0.25655136 0.07808424 0.11620306 -0.15894805 -0.24355802 0.10012697 -0.110307105
-0.1373698 0.17422155 -0.3278404 0.0007391898 -0.2522396 -0.020980738 0.31055188 -0.030005164
-0.1287122 0.17400445 0.032510374 0.09146128 -0.10590419 -0.48182926 -0.31138715 0.050047062
0.44095856 -0.12185732 0.12634586 -0.047211632 0.028995534 0.003751285 -0.2478097 0.1273111
0.15355778 -0.34500563 0.15348494 0.15051481 -0.22223175 0.033710763 -0.3411907 0.079235695
0.002772938 -0.16084851 0.09794653 -0.25653374 -0.29816532 0.21586065 -0.366457 0.25401622
0.17992544 -0.21718344 -0.3249783 0.16414236 0.20217669 -0.18415436 -0.28136346 -0.29357883
0.15282963 -0.16515991 -0.0071139294 0.44662148 0.27633816 -0.22006643 -0.01361872 -0.24966274
0.28835818 -0.33895335 0.27004606 0.35692182 0.04577412 0.19835792 0.13011721 0.11426506

linear4.bias f4 [10]
00000000: e9a6 283e ce5a debd e8e9 3dbe b178 163d
00000010: 1349 21be 61e5 c73e 630c 293e 236c 13be
00000020: fcd7 c5bc 604d 28be
0.16469921 -0.10857163 -0.1854626 0.036736194 -0.15750532 0.3904219 0.16508631 -0.1439672
-0.024150841 -0.16435766
