lab_3/logs_task_3c/epoch=96-step=7760.ckpt (torch, 242123 bytes, 8 tensors)

linear1.weight f4 [64, 784]
000000 f1 cb 87 3c 54 33 d2 bc dc c5 98 bc fb a6 4d bc
       0.016576739 -0.02565924 -0.018649034 -0.012552018
000010 d1 68 68 bc 69 69 bf bc ed d7 ca bb f6 e9 12 bd
       -0.014185146 -0.023365693 -0.006190291 -0.035867654
000020 e7 03 d1 bc 3d 48 e1 bd ee da 64 3d b1 a6 e8 3c
       -0.025514556 -0.110001065 0.05587285 0.028399797
000030 69 fa d8 bd 0e 21 86 3d 38 4c 06 3c fd 43 d4 bd
       -0.10594637 0.065492734 0.008196883 -0.1036453
000040 22 bd ea bd 5c 43 25 3c 6c 88 30 3d 37 4d a8 bd
       -0.114618555 0.0100868605 0.043098852 -0.082178526
000050 ce 0c b2 bd 6f b5 59 bd 46 9b 97 bb a9 bb f0 bc
       -0.086938486 -0.053151544 -0.0046266643 -0.029386358
000060 b9 50 f0 3c 83 29 d5 3c 1d ed 1a bc 72 cb 09 3d
       0.029335367 0.02602077 -0.009455946 0.033641286
000070 2a 7c 04 3c d7 24 49 bc 7f 36 69 bc be e0 df bc
       0.008086244 -0.01227685 -0.014234184 -0.027328845
000080 cf fe 8b bc 31 c6 55 3d 5a 56 97 3c 92 be 80 bd
       -0.017089276 0.052190963 0.018473793 -0.062863484
000090 48 26 e1 bb 78 32 ef 3d 81 25 b5 3d 33 e5 ae 3d
       -0.0068710186 0.11679548 0.08845044 0.0853981
0000a0 ed 8b 13 3c de d6 f2 3b 26 6d 35 bc 72 e4 af bd
       0.009005529 0.007410868 -0.011073386 -0.08588494
0000b0 29 bc df 3d e0 4d 40 3e 18 af 15 3e bd 0e 9c bd
       0.109245606 0.18779707 0.14617574 -0.076199986
0000c0 93 30 88 bd 80 f4 d6 bd af bb 8a bd b8 ba c5 3b
       -0.0664989 -0.104958534 -0.06774079 0.0060342215
0000d0 af 50 74 bc ad 67 32 bd ac 63 b9 3c ff ab 96 bc
       -0.014911815 -0.043555904 0.022630535 -0.018392561
0000e0 55 3c bb 3c ed 6e e5 bc 46 27 38 bb 6c d9 f0 bc
       0.022855917 -0.028006995 -0.002809958 -0.02940055
0000f0 d4 4f 77 bc 47 6e 15 3c 9f 8c 76 bd 3c 1f 4e bd
       -0.015094716 0.00912053 -0.0601927 -0.050322756
000100 e6 f1 66 3c b4 e3 59 3d 5f ca bd bb 75 7d a1 bd
       0.014095759 0.05319567 -0.005791947 -0.07885257
000110 c4 83 46 3c 3e 52 3c bd b4 f8 87 bd bd b0 c3 3c
       0.012116376 -0.04597687 -0.06639233 0.023887986
000120 b1 e2 b0 3c 8f 77 14 3d 05 d7 9d 3d 38 ba bd 3c
       0.02159247 0.036246832 0.07707027 0.023160085
000130 73 c0 e5 bd 87 db 2d be c0 6f a1 bd 51 94 f1 bc
       -0.112183474 -0.16978274 -0.07882643 -0.029489668
000140 fe a3 99 bd 45 fc 5d bd 75 db 82 bc 42 be d4 3c
       -0.07501982 -0.05419566 -0.015973786 0.025969628
000150 c5 2a c9 3c 55 94 20 3d 19 e5 08 bc 0f de bb bc
       0.024556527 0.03920396 -0.008355402 -0.022933034
000160 46 a9 f7 bc e7 0c 34 bd fc 74 f0 bd cf aa fc bd
       -0.030232083 -0.043957617 -0.11741063 -0.12337267
000170 30 76 f5 bd 9c 89 6e 3c 5c 74 b9 3d 2b 97 1d 3d
       -0.11985433 0.014559176 0.09055397 0.038474243
000180 23 8e 0f bd 0c 0e f0 bd 01 6d 1e be 37 77 a7 bd
       -0.03504766 -0.11721429 -0.15471269 -0.08177035
000190 23 56 b9 bd 18 c4 81 3d 95 28 5b bd 9d 67 de bd
       -0.090496324 0.0633623 -0.0535055 -0.108596064
0001a0 f3 91 f7 bd de b0 2b be 0d 8a 8b bc 7a f9 25 3d
       -0.120883845 -0.16766688 -0.017033601 0.040521123
0001b0 fb 43 84 bd f8 99 dd 3c fe c7 38 3c f1 14 7f 3b
       -0.06458279 0.027050957 0.011278151 0.0038922394
0001c0 8f 30 de 3c 6d 97 c5 3c f9 20 e3 bc 1f 22 25 bc
       0.027122764 0.024120057 -0.027725684 -0.010078936
0001d0 1c d1 96 3d 5c 05 05 be 9f 49 39 bc cf 2d e5 3c
       0.07364103 -0.12990326 -0.011309057 0.027975945
0001e0 87 b4 e0 3c 41 36 ec bc bf 87 26 3d 49 96 e9 3d
       0.027429832 -0.028834464 0.0406568 0.11405618
0001f0 64 64 9b bd 9d 41 cf bd cd 98 c8 bd a8 da 11 be
       -0.07587507 -0.101199366 -0.097947694 -0.14243567
000200 37 48 cb 3b c0 e8 0d 3d a1 5e d0 3c a4 1c 9f 3c
       0.006203677 0.034645796 0.025435748 0.019422837
000210 16 38 cd bd 6d 05 b0 bd 69 86 ce bd 8d 4f 65 3d
       -0.10020463 -0.08594785 -0.100842305 0.05598407
000220 b5 e7 80 bd da 8d 99 bc f9 9a 69 bb 20 67 ee 3c
       -0.062941946 -0.018744398 -0.003564535 0.029101908
000230 0d 3c ab 3c ff ca e2 3c af f7 9b 39 6b cb 52 3d
       0.020902658 0.027684687 0.00029748442 0.051463526
000240 7c fd 85 3c e3 50 ae bd bb de 57 3c 9c 84 3f bc
       0.016356222 -0.08511522 0.013175662 -0.011689331
000250 17 97 ca 3c cc 94 d5 3d 41 f3 4c bd 2e 5f 61 bd
       0.024730248 0.104287714 -0.050036673 -0.05502241
000260 ad 33 01 3d 89 79 2a bd 3c 83 fe bd 29 2a 06 3d
       0.031543422 -0.04161981 -0.12427375 0.03275505
000270 b6 08 00 3b ce 91 23 3d 90 d3 1d 3d a5 06 e4 3c
       0.0019536442 0.039933972 0.03853184 0.0278352
000280 bb 4b 5a bc 2e ab 44 bc 90 15 44 bd f6 c5 07 3d
       -0.01332372 -0.012003703 -0.047872126 0.033147775
000290 94 ff 8e bd 0a c5 1f bd ea 7e 2a bd e5 fb 46 bd
       -0.069823414 -0.03900627 -0.04162494 -0.04858007
0002a0 b6 40 04 3d 8f 02 30 bb d9 fb c7 3c df 89 a1 bc
       0.032288276 -0.0026856994 0.024412083 -0.019719062
0002b0 b9 2d da bc e8 29 5a bd b9 80 d1 3c ed 8e 17 3d
       -0.02663313 -0.05326262 0.025574075 0.03700154
0002c0 30 67 84 bd b0 2e 06 3d 64 91 cd bc e2 31 dd 39
       -0.06464994 0.03275937 -0.025093742 0.0004218957
0002d0 a1 5e 58 3d df 2c 4d 3b 04 4f fc 3c 8b 64 ce 3d
       0.05282462 0.0031307263 0.030799396 0.10077771
0002e0 af ba 63 3c 94 61 fe bc 48 b2 4e 3d 35 0c 80 bb
       0.013899489 -0.031052388 0.05046299 -0.003907705
0002f0 54 68 94 3d 89 c6 66 3d 89 54 24 3d d4 2d bd bc
       0.072464615 0.05634168 0.04011968 -0.023093142
000300 a7 a7 af 3c ec b5 9c bd 00 33 c2 bc 18 6f 1b bc
       0.021442248 -0.07651886 -0.02370596 -0.009486936
000310 c9 7f a6 3a f6 fc a5 3c 2f a3 1e bd 24 7c 3c bd
       0.0012702878 0.020262223 -0.038729843 -0.046016827
000320 3b c4 c3 3c 5d 54 0c bd 60 47 a8 3d 5b 5e 40 bb
       0.02389728 -0.034260143 0.08216739 -0.0029353115
000330 9c bc 39 bd 53 62 39 bd 64 7f d6 3c 01 87 84 3d
       -0.045345888 -0.045259785 0.026183791 0.064710625
000340 6a 18 43 3d 9e 9f a9 bd b8 3e c8 bd 65 ed 2b bd
       0.047630705 -0.08282398 -0.09777588 -0.041974444
000350 f6 d4 72 3c 20 4b 7a bd b5 57 82 bd 3e ce 9b 3d
       0.014821282 -0.0611068 -0.06364385 0.07607697
000360 ca 79 d3 3c 92 39 4c 3d e6 b1 83 3b af 97 59 3c
       0.02581491 0.04985959 0.00401901 0.013280793
000370 6f f6 ac 3c 68 de 7c bd ce a4 0b bc 93 29 18 bd
       0.021113602 -0.06173554 -0.008523179 -0.037149023
000380 31 d9 5b 3d aa de bd 3c 47 08 66 bd ba 94 fd bc
       0.053673927 0.023177464 -0.056160238 -0.030954707
000390 59 37 95 3d 18 ad 15 bd 49 f1 b4 3d 8c 6f 53 bc
       0.07285947 -0.03654203 0.08835084 -0.012905013
0003a0 fc cd 0d 3e 34 66 19 3e 2a 09 b8 3c 92 d7 a8 3d
       0.13848108 0.14980394 0.022465307 0.08244242
0003b0 a1 d8 57 3d 44 80 14 3d cc 4e 21 bc 6a 11 99 bd
       0.052696828 0.036255136 -0.009845447 -0.074740246
0003c0 dc 77 34 3d b7 d8 42 bd 8b 75 89 3d e7 e7 f4 3b
       0.04405962 -0.047569957 0.06711873 0.007473934
0003d0 8b ca 07 3c cb c8 c5 3c 97 92 d9 3c 87 9d 2f bd
       0.008288036 0.024143597 0.026559157 -0.04287484
0003e0 f7 14 e6 3c a6 14 90 bd 45 dc c9 3c df 38 c2 3b
       0.028086169 -0.070351884 0.024641166 0.0059271897
0003f0 7a 2a e4 3b 98 7a a3 3c 92 b4 30 bd 57 80 07 bd
       0.0069630714 0.019955918 -0.043140955 -0.03308138

linear1.bias f4 [64]
000000 09 4b e1 bd 6f 95 10 3c 25 00 e2 bd 4e 83 b1 bd
       -0.1100064 0.00882469 -0.11035184 -0.086676225
000010 7f 88 50 be ee ef 0b bd 56 fc 91 3e bd f0 23 3e
       -0.20364569 -0.03416436 0.2851283 0.16009803
000020 6a 48 6f 3d 1e 39 26 be c3 55 e5 3d 0d 41 22 be
       0.05841867 -0.16232726 0.111979984 -0.15845127
000030 d0 37 77 3d 62 41 8c be c4 38 45 3d 96 d6 4a 3d
       0.06035596 -0.27393633 0.04814984 0.04952105
000040 00 7c e5 3d 63 b1 80 bb 0f 99 94 3d 94 b0 8c 3d
       0.11205292 -0.003927396 0.07255756 0.06869617
000050 78 af 3c 3e 7b a1 c6 3d 1a c7 3c be 76 ec b3 3d
       0.18426311 0.09698769 -0.18435326 0.08785336
000060 a5 a6 0f bd 4d ed ac 3c c1 69 96 3c 70 f0 6c 3a
       -0.035071034 0.021109248 0.018360974 0.00090385135
000070 68 1c 57 3d 58 9c a1 3c ca 11 4b 3e da f7 47 be
       0.052517325 0.01972787 0.19831005 -0.19528142
000080 e3 30 aa 3e 47 72 4b 3d 95 1a c8 bd 8e d7 a2 bd
       0.33240423 0.04966953 -0.09770695 -0.0795127
000090 c8 22 b2 3d 26 93 c7 3d d8 4d 94 3d 2e 3e 47 bd
       0.0869804 0.09744863 0.0724141 -0.048643284
0000a0 c3 ab d6 bd 41 91 05 be 4a 0d 04 3d cc 2d 8f 3d
       -0.1048198 -0.13043691 0.032239236 0.06991157
0000b0 d0 43 c5 3d d9 28 54 bd 70 16 94 3e d6 18 5e be
       0.09632075 -0.051796768 0.28923368 -0.21689162
0000c0 e5 98 3f bd d9 f7 69 3e 72 57 8a be 24 6c de 3c
       -0.04677667 0.22848453 -0.2701984 0.027151175
0000d0 ef 41 98 bd 6e d8 43 be 33 f8 02 3d 69 68 b2 bd
       -0.07434451 -0.1912553 0.031974982 -0.08711321
0000e0 6a 83 da 3d f3 57 2f 3e 96 c7 3f be 84 d5 d0 bc
       0.106695965 0.17123394 -0.1872848 -0.025492437
0000f0 97 94 6f bd d5 77 c6 bd 87 e0 8f 3c 1f c5 3b 3e
       -0.058491316 -0.09690825 0.017563118 0.18336914

linear2.weight f4 [64, 64]
000000 fb 5a 1a 3e fd 88 55 3d d2 cd cc bb 91 c8 39 be
       0.15073769 0.052132595 -0.0062501216 -0.18142916
000010 a3 52 63 be 9e ef ed 3d 90 de a1 3d ed 38 05 be
       -0.22199492 0.11617969 0.079037786 -0.13009997
000020 4e 62 58 3e e1 7d 1f 3e 91 2d 66 bd d5 af a5 3d
       0.2113125 0.15575363 -0.0561958 0.08090178
000030 fc e9 8b bd e5 f6 e9 bd 71 50 ac 3d 80 3e 23 3e
       -0.06831738 -0.114240445 0.084137805 0.1594181
000040 ee 9a 53 be 27 91 b2 bd 6d d7 3d 3d 0d ac 3b 3e
       -0.2066457 -0.08719092 0.046348024 0.18327351
000050 aa bb f8 3d e5 1f b4 3d 0a 84 13 3d a0 89 9c bc
       0.12145169 0.08795146 0.036014594 -0.019108593
000060 d7 01 81 3b ed 28 9d bd f3 41 0e 3e a7 55 02 be
       0.003936987 -0.076738216 0.13892345 -0.12727986
000070 27 2e 58 3b 51 16 02 3e 7d 38 02 bd ab 1e 1c 3e
       0.0032986493 0.12703826 -0.031792153 0.15246074
000080 6c 03 a9 bd 07 21 e6 3d d0 ae 8d 3d f5 05 50 bc
       -0.08252606 0.11236768 0.069181085 -0.012696733
000090 43 a4 ff bc b9 8a b9 3d 6f 66 ff 3d fb 84 0d 3c
       -0.031206256 0.09059662 0.124707095 0.008637662
0000a0 30 35 01 be 49 3b 6d bc 9d 4f b5 bd 0b 03 ba 3d
       -0.12617946 -0.014479467 -0.08853076 0.09082612
0000b0 41 01 03 bd 88 78 fb 3b f3 3d a1 3c d0 2b cc 3c
       -0.031983618 0.0076742806 0.01968286 0.024923235
0000c0 60 01 5f be fc ad 71 bd 72 f8 fa bd 43 0a 8d bd
       -0.21777868 -0.059003815 -0.122544184 -0.06886723
0000d0 52 37 ac bc d0 32 2a 3e b1 8d fd 3d 5d 51 11 3e
       -0.021022473 0.16620946 0.12380541 0.14191194
0000e0 65 df 09 be e0 37 34 be f6 f6 d3 ba ae d4 a4 3d
       -0.13464125 -0.1759944 -0.0016171623 0.08048378
0000f0 f3 f8 90 3e 0f 09 4c 3e ff a3 cb 3b 6c 7a 8f bd
       0.28314933 0.1992533 0.006214618 -0.07005772
000100 9b af 37 3e 65 d4 36 be 05 0d d8 bd d9 fb 27 3e
       0.17938082 -0.1785446 -0.10549358 0.16404666
000110 60 2d ac bd 14 46 37 be e0 e4 c7 3d 2d 7b f8 bd
       -0.08407092 -0.17897826 0.09760451 -0.12132869
000120 d5 fc 32 3c 9f 15 5f 3d 74 0b 03 bd a3 20 3d be
       0.010924538 0.05446398 -0.031993344 -0.18469481
000130 2f da af bd c6 9b 85 bd 93 f5 3a be 52 79 4e 3e
       -0.08586537 -0.06523852 -0.18257742 0.20163468
000140 19 62 d0 bb a8 05 be 3d 46 f8 0e 3e 7d 1f 0d 3d
       -0.0063593504 0.092784226 0.13961896 0.034453858
000150 5a b9 a3 3e 08 c6 51 3d 57 cf 15 3e db 05 57 3e
       0.3197735 0.051214248 0.14629875 0.20998327
000160 79 f2 ad 3d 91 4e 8e 3e d6 ee 4e 3d af 4c 02 be
       0.084935136 0.27794316 0.05052074 -0.12724565
000170 a4 3a d8 bb 99 e6 8a 3d 51 f9 aa be 7d ce f4 3c
       -0.0065987874 0.06782264 -0.33393338 0.029883618
000180 2c a2 47 3e 5e e1 60 3e 94 08 2b 3d ca 2c 60 3d
       0.19495457 0.21960971 0.041756228 0.054730214
000190 c6 ba 1d 3e e5 1d 78 3e 98 8b d3 3d 67 86 a9 3c
       0.1540328 0.24230154 0.1032936 0.02069397
0001a0 aa 62 68 3d ca 55 15 3d a7 e0 96 3d 10 cb e5 3d
       0.05673472 0.036458768 0.07367068 0.11220372
0001b0 17 74 44 3d e0 7c 12 3d f6 a3 30 3d ee 41 d7 3d
       0.047962274 0.03576362 0.043125115 0.10510622
0001c0 e2 4c 2d bd 84 c0 08 3d ae 57 d2 3d 7c a6 2c be
       -0.04230965 0.033386722 0.1027063 -0.16860384
0001d0 6c cc 93 bd d9 b5 0d bd a7 f3 5b bd 58 54 56 bd
       -0.07216725 -0.03459725 -0.05369916 -0.05232653
0001e0 38 b0 8a 3b 5e 90 28 3d f4 4a b7 bd 6b 2b df 3d
       0.0042324327 0.041153304 -0.08949843 0.10896953
0001f0 72 66 9a bd 58 9c 38 bd c8 0e 08 3e 1a eb 02 3e
       -0.07539071 -0.045070976 0.13286889 0.12784997
000200 86 1b d2 3d 4b 93 95 be 48 6b 22 3e dc 25 fa 3d
       0.10259156 -0.29213938 0.15861237 0.12214252
000210 3e 71 14 be 01 76 3e be d2 c6 71 be 91 75 04 3d
       -0.14496323 -0.18599702 -0.23611 0.032338683
000220 ac 57 af bd bd 9a 3e be 44 74 44 3d 1b 9f 2c bc
       -0.08561644 -0.18613715 0.047962442 -0.010535981
000230 d1 eb 7a 3e 8c c0 55 3e c3 34 d8 3b 17 e3 95 bd
       0.2450402 0.20874232 0.0065980866 -0.073187046
000240 6a ff 14 3e 8e ed 3e 3e 9a 08 08 be 50 a8 f1 bd
       0.14550558 0.18645307 -0.13284531 -0.11799681
000250 86 62 ef 3d 4b da 27 bd 03 cd c7 3d d3 5e ea 3d
       0.11688714 -0.040979665 0.097559 0.114438675
000260 dc e0 17 3d 11 ef 71 bc 99 ce 2b bc e5 e8 2c 3d
       0.037079677 -0.0147664705 -0.010486268 0.042214293
000270 e2 7f fb bc b5 89 d9 bd 30 cf 51 bc 19 e9 94 3c
       -0.030700628 -0.10621969 -0.012805745 0.018177556
000280 43 d8 62 be b4 73 6b 3d c6 de 98 3d d7 ea be bd
       -0.2215281 0.05748339 0.07464366 -0.09322136
000290 5a c4 45 be ec 13 01 3e 1a 6a f7 bd d8 bf 2d be
       -0.19313183 0.12605256 -0.12080784 -0.16967714
0002a0 5d 2b d1 3d 20 55 7a bd 7a d6 fd bc b8 3a 04 be
       0.10213349 -0.061116338 -0.03098606 -0.12913024
0002b0 dc ac b7 bd 18 66 54 3e 57 f1 d0 bd 5e e2 bf 3d
       -0.08968517 0.2074207 -0.10202282 0.09369348
0002c0 c6 70 0b 3e cd 47 12 3e e2 a0 59 3c a7 e5 d5 bd
       0.13617238 0.14285202 0.013282986 -0.10444193
0002d0 24 8c 76 3e 35 fa 3b bd 3c 6b 0d be c3 ba e5 3b
       0.24076897 -0.045892913 -0.13810438 0.007010789
0002e0 01 69 d3 3d 0b fa 81 bd 27 d1 4e 3e dd e5 47 be
       0.10322762 -0.0634652 0.20196973 -0.1952128
0002f0 80 ac d5 3c df 75 0c be e1 16 01 be c7 2a 9e bc
       0.026083231 -0.13716839 -0.12606384 -0.019307507
000300 ef 54 81 be 88 50 fb bd 63 84 07 be 5e a5 00 3d
       -0.25260112 -0.122712195 -0.13234095 0.031407706
000310 db d8 c1 3d bb 49 0c bd b7 b8 2c 3c f5 38 85 3c
       0.0946519 -0.034250002 0.010542086 0.01626251
000320 55 03 b7 3d 47 e5 43 be 68 43 08 be b2 e6 0a be
       0.089361824 -0.19130431 -0.13306963 -0.13564566
000330 b6 14 2b 3e 03 09 b6 3d c6 64 31 be 0f 9d 33 be
       0.1670712 0.088884376 -0.17323598 -0.17540382
000340 d5 d3 e2 bd 30 91 d0 bd 9f d4 41 be 9c d1 0f 3d
       -0.1107556 -0.10183942 -0.18928765 0.03511201
000350 0d 90 d4 bd 02 79 01 3e f2 5f 85 3e 24 f4 05 3e
       -0.10379038 0.12643817 0.26049763 0.13081414
000360 36 19 81 3e 50 18 8f 3e 2d ef 33 bd c7 c0 b4 3e
       0.25214547 0.27948236 -0.043929268 0.35303327
000370 e7 d2 04 3e d0 52 8f be 4a 09 51 3e 30 e2 3e be
       0.12971078 -0.27992868 0.204137 -0.18640971
000380 3b fb 83 be 22 da a3 bd 3c 17 2d be 95 22 8f 3e
       -0.2577761 -0.0800059 -0.16903394 0.27956071
000390 be 1f 86 3e 2b 0a 52 3e f0 b8 4d 3e 68 4b 5f be
       0.26196092 0.20511691 0.2009008 -0.21806109
0003a0 ce 56 f5 bd bd f1 1b 3e b1 a5 53 be 5f 8e 00 be
       -0.11979447 0.15228935 -0.20668675 -0.1255431
0003b0 bb c1 7a 3d a3 2e 15 bf bc 11 98 3d 3d c5 38 be
       0.061219912 -0.58274287 0.074252576 -0.1804399
0003c0 2b 95 fb bd b0 81 c1 bd ee 63 35 be 61 9a 66 be
       -0.12284311 -0.09448564 -0.17713901 -0.22519828
0003d0 4e f6 4d be df f3 26 be f4 4c e1 bc fb ae 0b bd
       -0.20113489 -0.16303967 -0.027502514 -0.03410242
0003e0 b4 9b 03 bd 5e 57 ad 3e 85 70 0f bd 7f a1 72 be
       -0.032130912 0.33855718 -0.035019416 -0.23694418
0003f0 0a 88 06 be cb 63 06 3e c9 dc f4 bd e5 12 52 3d
       -0.13137832 0.13124005 -0.11956174 0.05128755

linear2.bias f4 [64]
000000 0f b8 11 bd 6c e4 43 bd 7d 5b 13 be 6b ba f6 3b
       -0.035575923 -0.047825262 -0.14390369 0.007529547
000010 de aa 35 be 2e 98 48 3e bd b6 16 3e 44 69 6d 3e
       -0.17740962 0.19589302 0.14718147 0.23184687
000020 ee 2d 19 bb c2 2e 09 bb 6f 8d 31 3e de 63 87 be
       -0.0023373323 -0.002093241 0.17339109 -0.2644338
000030 be 59 e8 3d 57 23 4d 3d f5 b4 0e be 4f a0 c8 3d
       0.11345242 0.05008253 -0.13936217 0.097962014
000040 eb 4d 9c bd c5 f1 93 bd b7 f4 fa 3d e8 de 0b 3e
       -0.07632049 -0.07223848 0.12253707 0.1365925
000050 66 f9 a0 bd 99 a6 58 be f5 39 38 3d 3e 4b 43 3c
       -0.07860069 -0.21157302 0.044977147 0.011919795
000060 74 d5 89 be 0c e2 b0 bd f2 2a c3 3d 01 53 11 be
       -0.26920664 -0.08636865 0.095296755 -0.1419182
000070 45 c9 ee bd e2 27 4b be d9 d2 89 3d 23 a7 14 bb
       -0.11659483 -0.19839433 0.06729669 -0.002268263
000080 0a 3f 16 3d 56 f9 59 3d 43 64 d4 3d 71 53 d9 3d
       0.036681212 0.0532163 0.10370686 0.10611618
000090 bd 28 10 3b cb a8 75 3d b0 4e 9d 3e 05 cb e1 3d
       0.0021996938 0.059975427 0.30724096 0.11025051
0000a0 75 f5 05 be a3 cc 19 be f8 ea 10 be f4 38 ca bd
       -0.13081916 -0.15019469 -0.14152133 -0.09874144
0000b0 a3 29 ea 3d f2 8b cb b9 fb c7 f0 bd 7e 24 98 3d
       0.11433723 -0.00038823445 -0.11756893 0.07428835
0000c0 52 86 88 bd 85 f0 23 be 1f cd a2 bd 7d d1 13 3e
       -0.066662446 -0.1600972 -0.0794928 0.14435382
0000d0 6b c3 e7 bc b9 d1 98 bd 45 68 0d bd 67 4c 1e 3e
       -0.028291425 -0.074618764 -0.034523267 0.15458833
0000e0 06 b0 a9 3d df 38 8a bc 64 f1 e1 bd b1 cf ae bd
       0.08285527 -0.016872821 -0.1103237 -0.08535708
0000f0 2b 3c 45 bd 43 bb c9 bd fe bd 85 bd b5 6b 84 bd
       -0.048153084 -0.098501705 -0.06530379 -0.06465856

linear3.weight f4 [64, 64]
000000 26 9c 4a bc db 18 cf bb ef eb 2c be cb 1c 98 3e
       -0.01236633 -0.0063201017 -0.16886877 0.29709467
000010 1c c5 02 be d4 cd 1c 3d b6 bf 2a 3e 30 a2 aa 3d
       -0.12770504 0.03828223 0.16674694 0.08331716
000020 dd 6a ae 3c dc 74 9a bd 95 8d aa bc 96 b6 33 be
       0.02129119 -0.075418204 -0.020819465 -0.1755012
000030 be 1d 01 3e b6 49 00 3d d1 3d 87 bd a9 8c 16 3e
       0.12609002 0.031320296 -0.066035874 0.14702095
000040 ac 99 72 bd cd 89 95 3d 99 8d 88 3d 5c 64 27 3e
       -0.059228584 0.07301674 0.066676326 0.16346878
000050 88 47 3a be a3 9d 8f bd 2a 45 69 3e 00 49 95 3c
       -0.1819135 -0.07012489 0.2278029 0.018223286
000060 5f 17 27 bd ea 12 c6 3d d2 e2 88 bd 3d 4c 83 3d
       -0.040793773 0.09671576 -0.066838875 0.06411026
000070 87 27 ba bd 69 44 b5 bd 24 89 c0 3a d6 3f 97 bd
       -0.090895705 -0.08850939 0.0014689309 -0.073852226
000080 41 6a bb 3d 22 93 f8 3d 91 7c 84 3c d5 08 72 3d
       0.09151126 0.12137438 0.01617268 0.059090454
000090 46 67 97 3d 00 d4 1d bd 78 93 1b 3e 8d 0f 11 3e
       0.07392745 -0.038532257 0.15192974 0.14166088
0000a0 ed 95 91 bd 74 4e 27 bd d4 9c cf bc 15 fd dd bc
       -0.07108674 -0.040846303 -0.025343336 -0.027098218
0000b0 3d 7c a1 ba 19 93 2e be 9c 22 1d 3d d8 24 25 3d
       -0.0012320351 -0.17048301 0.038363084 0.04031834
0000c0 91 63 f7 3d 9f 29 8c 3d 3a d3 98 3c 75 e9 06 bd
       0.12079538 0.06843876 0.018655408 -0.032937486
0000d0 2c a5 a0 3d 02 21 21 bd 12 eb 00 3e 7c 81 61 3d
       0.07844004 -0.03933812 0.12589672 0.055055127
0000e0 bb 79 e8 bc 3b 67 c4 bd 47 da ec bd ec 66 bd 3d
       -0.028378358 -0.09590002 -0.115650706 0.092481464
0000f0 9f ca 03 3e dc 23 32 3e da b4 b6 bd 83 0b 9e bd
       0.12870263 0.17396492 -0.089212134 -0.077170394
000100 56 02 d5 bd 11 80 17 3d 55 36 7f 3e 25 84 b8 bb
       -0.10400836 0.036987368 0.2492307 -0.005630987
000110 17 56 87 3e 48 a1 b3 3e 27 26 fa 3b 14 73 1d be
       0.2643287 0.35083985 0.0076339426 -0.1537593
000120 93 6e db 3d 66 f0 f0 bb 86 3e 84 3e 78 85 6f be
       0.1071445 -0.0073528765 0.25828952 -0.23390758
000130 4a a2 15 be 46 9d 8a be 36 0e 84 bd 76 ba f6 3d
       -0.1461269 -0.27073115 -0.06448023 0.12047283
000140 5e d7 27 be a0 59 1f 3e c8 13 c1 bd 23 74 2c be
       -0.1639075 0.15561533 -0.09427601 -0.16841178
000150 0f 1e 3c 3e f4 12 72 b8 86 7a 06 bd 9b b8 38 3d
       0.18370841 -5.7714948e-05 -0.03283169 0.04509793
000160 43 38 2d be bf 42 84 3e 25 1f 46 3e b0 df 9e bd
       -0.16915993 0.25832173 0.19347818 -0.07757509
000170 95 35 10 be 27 65 60 be a0 7d 11 3e af 1c 24 be
       -0.1408294 -0.21913587 0.14208078 -0.16026567
000180 98 15 e1 3d 69 64 b6 bd 3d 76 2d 3e a6 73 71 be
       0.10990447 -0.089058705 0.16939636 -0.23579273
000190 6d 57 55 bd 77 95 3d 3e 3b fb 4d 3e 50 a3 2d 3e
       -0.05208533 0.18514048 0.20115368 0.1695683
0001a0 f2 80 20 3d cd 34 91 bc 5e 0e 44 3d d9 8a 50 3c
       0.03918547 -0.017725373 0.047865264 0.012728416
0001b0 36 42 c2 3d 4b df b1 bd fb 06 87 bd 32 ae 03 3e
       0.09485285 -0.08685168 -0.06593128 0.12859419
0001c0 d6 3d fb bd 7b cf 81 bc 4d da 9b bd 93 05 80 3d
       -0.12267654 -0.015846005 -0.07609997 0.06251063
0001d0 c2 3b e8 bd 5d a2 81 3d 97 29 94 3d eb 4d 3b 3e
       -0.11339523 0.063297965 0.07234495 0.18291442
0001e0 2f 39 15 3e 1e 7a ff 3d 4e 14 4e be da 3b 9e 3d
       0.14572595 0.12474464 -0.20124933 0.077262595
0001f0 f0 b2 9b bd 73 4a 8b bc e9 10 5e bd 35 04 2b 3e
       -0.07602489 -0.017003274 -0.054215346 0.16700824
000200 2a 4f 64 bc 67 cb b5 bd 41 ad 87 bd 38 60 b5 be
       -0.01393489 -0.088766865 -0.066248424 -0.35424972
000210 83 dd 6a bd cb 5d ac bd d8 f6 45 3e 89 71 7d 3e
       -0.057340156 -0.08416327 0.19332445 0.24750341
000220 96 17 00 3e 3e d0 ef bd 3d c4 76 3e dd 83 b8 bd
       0.12508997 -0.11709641 0.24098296 -0.09009526
000230 98 9f e6 bd e0 77 7c 3d 36 a1 9f 3e ed aa 25 3d
       -0.11260909 0.06163776 0.31177682 0.04044621
000240 bd f9 ae bd b4 76 16 3d dd 07 0a 3e 68 42 aa 3d
       -0.085437275 0.036734298 0.13479562 0.08313447
000250 7c 50 10 3e b4 73 ee ba 1a bd 45 3e 84 ec 0e 3d
       0.14093202 -0.0018192441 0.19310418 0.034893528
000260 1e 83 08 be df 93 2c 3e 7e b6 21 be e2 f2 01 be
       -0.13331267 0.16853283 -0.15792271 -0.12690309
000270 ce 99 d9 3c f5 45 e3 bc 1c 7e cc 3e c3 86 01 be
       0.026562598 -0.027743319 0.39939964 -0.12649064
000280 c0 55 16 3e f7 cf 3a 3e a1 15 bf bd 00 be f6 3d
       0.14681149 0.18243395 -0.09330297 0.120479584
000290 b0 95 d2 bd 9a 04 e8 3c d4 10 19 3e bf 78 92 bd
       -0.10282457 0.028322507 0.14947826 -0.07151937
0002a0 a0 db 27 be 34 a0 56 be 37 ee 80 be f2 a0 46 bd
       -0.16392374 -0.2095955 -0.25181744 -0.048493333
0002b0 f0 a8 af bc 41 0f a8 bd c9 55 6d 3d d2 34 01 3e
       -0.02144286 -0.082060345 0.05794314 0.12617806
0002c0 46 04 9d bd e2 bb 8c be 0b 9c cf 3d 78 fa 82 3e
       -0.07666831 -0.27487093 0.10137185 0.25581717
0002d0 48 69 44 3e 35 95 06 3e 9d c6 1f 3e 4f cb ff bd
       0.19180787 0.13142855 0.15603109 -0.1248995
0002e0 63 40 67 bd bd 78 2a be d9 09 4c 3d 0b 86 99 3a
       -0.05645789 -0.1664762 0.04981408 0.0011712922
0002f0 80 3d 84 be ed df c8 3d 09 6d 7c be 0c 3f 80 bd
       -0.2582817 0.098083355 -0.24650969 -0.06262025
000300 58 49 98 3c 72 21 ca bd 65 24 6d be e5 5b 1c bd
       0.01858966 -0.098696604 -0.23158415 -0.038173575
000310 78 69 9a be 5c c3 94 bd 3f aa 73 3e dc f7 7d 3e
       -0.3015859 -0.07263824 0.23795412 0.24801582
000320 17 5d 25 be da 45 73 3e 6a 3d 02 be 3e 60 bb 3d
       -0.16148792 0.23757115 -0.1271874 0.09149216
000330 a8 2b 3c 3d da 50 56 bc a4 7d d8 bd c5 b7 b2 bd
       0.04594007 -0.0130808 -0.10570839 -0.087264575
000340 96 ae de 3d 86 b3 e8 bd aa 9c 4a be c5 82 35 3e
       0.108731434 -0.113623664 -0.19786325 0.17725666
000350 f9 bc 69 bd bc a5 65 3b 8c 95 e0 bd cf b5 dd bd
       -0.057064984 0.0035041412 -0.10966024 -0.10825693
000360 91 c9 3b 3d f2 5c 78 be 63 11 f7 3d 77 d9 3d be
       0.045846526 -0.24254206 0.12063863 -0.18539988
000370 7e 95 c5 3e 57 c8 a3 3d 50 51 74 3c 8b 72 00 3e
       0.38590616 0.07997196 0.014911965 0.12543695
000380 25 0d 5f 3d 48 8b 31 bd a4 61 fa 3d e4 84 e7 3c
       0.054455895 -0.04334572 0.12225655 0.02826161
000390 ab 75 a0 bc 4a b1 d6 3d ee 95 38 bd 22 da 29 be
       -0.019587358 0.10483034 -0.04506486 -0.16587117
0003a0 1b 0c e9 3d c0 ae 9a 3d bd 1d 05 be e6 29 b2 3d
       0.11379262 0.07552862 -0.12999626 0.08699398
0003b0 85 a2 2f 3e bf ca 95 3e 14 3f 69 bb a9 3e ba bc
       0.1715184 0.29256245 -0.0035590576 -0.022734957
0003c0 1c a3 83 3e 25 cb c8 bc d8 66 fc bd 8f 53 b4 3d
       0.2571038 -0.02451093 -0.123243034 0.08805
0003d0 20 33 6e 3d 10 20 74 3d 68 b0 1a 3e 77 1d 4a bd
       0.058154225 0.05960089 0.15106356 -0.049344506
0003e0 4d e5 20 3e 65 2a d0 bd 52 ca 34 3c 71 a6 27 be
       0.15712471 -0.10164336 0.011034565 -0.16372086
0003f0 7e bb 1b be e9 45 02 3e 8b 26 32 3e 66 87 9b bd
       -0.15208241 0.12721981 0.17397515 -0.075941846

linear3.bias f4 [64]
000000 b0 e4 d1 3c ef 2c 45 3e 27 ab b4 3d 34 d9 13 3d
       0.025621742 0.19255422 0.08821707 0.036095813
000010 49 b3 f8 3c 43 3c 2b bd 74 f4 0b be 08 37 75 3e
       0.030358927 -0.041805517 -0.1366747 0.23946774
000020 22 15 8f bc e7 aa 0a be 45 c1 22 3d 21 1c 11 be
       -0.017466132 -0.13541757 0.039735097 -0.14170887
000030 ff bc 54 bd a6 4e e8 bc d1 5e 4d 3d 56 9b d2 3d
       -0.051938053 -0.028357815 0.050139252 0.10283534
000040 f9 9b 8b bd 28 42 23 bd e7 6a 28 3e d5 55 d9 bb
       -0.06816859 -0.039858013 0.1644703 -0.0066325464
000050 b2 53 78 3d 3f 4d ab 3d 27 a7 63 3d 25 10 86 3d
       0.060626693 0.08364343 0.05557933 0.06546048
000060 58 7c 10 3d 52 1f 81 bd cc 11 57 bd a4 61 9b 3c
       0.035274833 -0.06304802 -0.052507207 0.018967457
000070 4a 5d 86 3e 1f 4e c5 3d f3 7f 0b bd 71 d4 ec 3d
       0.2624305 0.09634041 -0.03405757 0.115639575
000080 86 93 66 bd 87 c2 29 be 8e c5 82 bd e1 a8 01 bc
       -0.056293033 -0.16578113 -0.06385337 -0.007913799
000090 99 8f 17 3e ff 41 5d 3e 0a 66 8a bb 94 82 82 3d
       0.14800872 0.21607207 -0.00422359 0.06372562
0000a0 30 85 89 bd ff 69 d2 bd c6 29 34 3d 29 b0 c6 bd
       -0.067148566 -0.102741234 0.04398515 -0.09701569
0000b0 ca aa 46 3d 97 12 bd bc c3 aa 37 3d 26 ec 0b be
       0.04850272 -0.023080153 0.044840585 -0.13664302
0000c0 72 88 d5 3d 4e d3 71 3b 39 5d bb 3d 51 be 53 3e
       0.104264155 0.003689963 0.0914864 0.20678069
0000d0 24 da e3 bd 6e 76 11 bd da 0b c0 3d 08 c8 82 bd
       -0.111255914 -0.035513334 0.093772605 -0.06385809
0000e0 77 9f 1a be 72 3f ed 3d dd ca 46 3e 8d bb 48 3e
       -0.15099894 0.11584367 0.19413324 0.19602795
0000f0 ef c8 69 3d 88 dc 64 3d 8f 8d 2d bd a5 7a 8d 3d
       0.05707639 0.055874377 -0.04237133 0.06908158

linear4.weight f4 [10, 64]
000000 f7 c7 21 3e 7d a1 34 3d 11 9d 15 3f fe 0c d7 3e
       0.15798937 0.04409932 0.5844279 0.420021
000010 e8 97 bc 3e a3 69 85 3e b6 5a df be f8 25 86 3c
       0.36834645 0.26057157 -0.43623894 0.016375527
000020 cf c7 9c be ed d3 c9 be 5d b5 9e be 9e 71 82 be
       -0.30621192 -0.394195 -0.30997744 -0.25477308
000030 ca 24 d2 be d5 86 b3 be 42 9f 87 3e e2 f1 84 3d
       -0.41043693 -0.35063806 0.26488692 0.06491448
000040 47 f8 a4 be 9a 36 a1 3d 20 35 9b 3d 1e 69 6b bd
       -0.3222067 0.078717425 0.07578492 -0.057473294
000050 ef e5 7f be 85 9f 3c 3e 96 24 b4 be d6 17 a5 be
       -0.24990056 0.18420227 -0.35184163 -0.32244748
000060 0d a0 d7 bd 79 ba f0 be c3 32 61 be 48 59 8c be
       -0.10528574 -0.47017267 -0.2199202 -0.27411866
000070 f1 93 2d 3f e1 0b 20 3e 70 f0 c7 3d 7d 26 d5 bd
       0.67803866 0.15629531 0.09762657 -0.10407732
000080 c5 4b e6 3d 68 e0 da be bd 02 76 3d 97 bd 98 be
       0.11244921 -0.42749333 0.060061205 -0.29832146
000090 dc c5 92 3e fc c8 c4 3d 82 df 4e be 54 62 63 3e
       0.2866658 0.09608647 -0.20202449 0.22205478
0000a0 f5 51 97 be 18 d6 dc be b2 a0 0e be 9b e8 c4 3e
       -0.29554716 -0.4313209 -0.13928488 0.38458714
0000b0 5f 11 ea 3e b0 df 89 3e 60 d4 a7 bd cf d4 44 3e
       0.45716378 0.26928473 -0.08194804 0.19221805
0000c0 66 fd 48 3e 46 43 03 3e 1a 09 7f 3d b7 66 ae 3e
       0.19627914 0.12818632 0.06226454 0.3406274
0000d0 09 d7 ab be 90 35 e9 be e3 51 12 bd c5 87 46 be
       -0.33562496 -0.45548677 -0.035722625 -0.1938773
0000e0 0c 1c e3 bc 65 31 21 3e 83 86 c8 3e 9c 91 82 3e
       -0.027723335 0.15741499 0.39165124 0.25501716
0000f0 dc 05 3d bd f6 20 c0 3e 60 8f 30 be 0c fc af 3c
       -0.046148166 0.37525147 -0.17242193 0.02148249
000100 fe 76 be be 29 2a d7 3e e3 9d 5b be 78 9f 11 bb
       -0.3720016 0.42024353 -0.21446948 -0.0022220295
000110 e3 56 c2 be 05 af 0b bf d7 5b 80 3e 1a 79 e8 3c
       -0.37956914 -0.54563934 0.25070068 0.028378058
000120 44 4e bf 3e e0 94 b7 be 81 ed 7e 3e 1c 94 1f 3f
       0.373644 -0.3585577 0.24895288 0.6233537
000130 3b a2 47 3d 7a 12 dc bd 12 04 f0 bd 2e 6e da be
       0.0487387 -0.107457116 -0.11719526 -0.42662185
000140 02 c2 f0 3e b3 5d de be 29 cb ba 3e e2 9e 00 be
       0.47023016 -0.43430862 0.36483124 -0.12560609
000150 28 37 97 be 60 c2 84 3e 1c 83 5b bb 42 8e 32 3d
       -0.29534268 0.25929546 -0.0033494895 0.0435927
000160 2d 58 88 bd 2a 91 b6 3e eb cc b0 be d2 78 b7 bd
       -0.06657443 0.35657626 -0.3453134 -0.089585915
000170 b5 1a 7a 3e 7a e3 a1 3e 1f dd 81 be b3 3e 4b 3e
       0.2442425 0.31618863 -0.25364015 0.19848137
000180 d9 fe f5 be 74 25 bf 3e 81 20 f6 bd 66 66 b6 3b
       -0.48045996 0.37333262 -0.120179184 0.005566406
000190 a7 99 93 3d b0 af a9 3e e3 3c 6c 3e f2 93 29 be
       0.07207041 0.3314185 0.23070101 -0.16560343
0001a0 78 1e 35 3e 9d a9 ab be 2b 9c 45 3e be 6d 09 3e
       0.17687404 -0.33527842 0.19297855 0.1342077
0001b0 28 6f 7a be 64 f2 fe be 5f 3f b8 be 65 b7 d8 3d
       -0.24456465 -0.49794304 -0.35985848 0.10581855
0001c0 c7 5e fa 3e 4a 69 d1 be 2e 05 a0 bd 77 62 8c 3e
       0.48900434 -0.40900642 -0.07813488 0.27418873
0001d0 53 15 4f 3e f5 37 19 be c0 d3 cb 3e ca 98 9c be
       0.20222978 -0.14962752 0.3980999 -0.3058532
0001e0 5d c3 90 3e 8b 91 d3 3d 61 fe 31 bf 24 53 18 3e
       0.2827405 0.103304945 -0.69528776 0.14875466
0001f0 a4 c2 f9 bd 05 fd 41 3d 53 26 ce bd 11 f4 2c bf
       -0.12195328 0.04736044 -0.100659035 -0.67559916
000200 04 ca 6b 3c b8 17 2e 3e 82 5a 48 bc 2b 44 0f bf
       0.014391426 0.17001235 -0.01222861 -0.5596339
000210 d9 a2 af bd 0c 3b b0 be e9 06 0f 3e 5e 96 0e 3e
       -0.085759826 -0.3442005 0.1396748 0.13924548
000220 6a 20 9f be 9e 82 78 be fd 89 96 3e d2 bc 87 be
       -0.31079417 -0.24268577 0.29402152 -0.26511246
000230 61 52 ae 3e c7 26 c7 be c5 ef cf be 1e e9 ce 3c
       0.34047225 -0.38896772 -0.40612617 0.025257643
000240 9a 6f 48 be cc 26 47 3e f3 ad cb be 22 ff 9c be
       -0.19573823 0.19448394 -0.3978115 -0.306634
000250 6e c3 ce 3e 2b 60 0b 3f 31 f5 9c 3d 04 a0 b7 3d
       0.40383476 0.54443616 0.07663954 0.089660674
000260 83 f0 9e bd a5 7d b3 3e 4a 3a b7 3e ee 55 8c be
       -0.07760718 0.35056797 0.3578666 -0.2740931
000270 17 20 f0 be 1b 07 10 be f6 ca 72 bd 07 40 4d 3e
       -0.46899483 -0.1406521 -0.05927559 0.20043956
000280 b4 c1 b3 be fc 9e 29 be 05 c5 c0 be 3c b5 95 3e
       -0.3510872 -0.16564554 -0.37650314 0.29239833
000290 d5 89 3d 3e 23 ad b3 be ce a1 5d be 98 85 25 3e
       0.1850961 -0.3509303 -0.21643755 0.16164243
0002a0 58 13 b0 be 37 5e c3 3e c3 a6 4a be 42 b9 9b be
       -0.34389758 0.38157818 -0.19790177 -0.30414778
0002b0 de 3c 6a 3e 38 ef 20 3e ad 59 98 bc d8 98 bb 3e
       0.22874781 0.15716255 -0.018597448 0.36640048
0002c0 54 60 58 be fb 70 71 3e 0a ae 95 be c3 67 99 3e
       -0.21130496 0.23578255 -0.29234344 0.29961976
0002d0 ff f1 7b be 1a be fd be 03 74 f8 bd db 2f 0d 3f
       -0.24604033 -0.49559098 -0.121315025 0.55151147
0002e0 f4 80 34 3e 2a 99 d0 3e 2a 42 64 3e 76 f5 c0 3e
       0.17627317 0.40741855 0.22290865 0.37687272
0002f0 33 05 64 be f4 f0 cf be ef 9c 83 3e 37 e4 a1 3e
       -0.22267608 -0.4061352 0.25705668 0.31619427
000300 38 8c 87 3e ad ca a3 be a6 b5 00 bf 5e ce e9 3e
       0.26474166 -0.31990567 -0.50277174 0.45665258
000310 2e b6 ed be 04 78 64 3f 2c b0 1a 3e 19 fa c7 3e
       -0.46428055 0.8924563 0.15106267 0.39057997
000320 a6 b3 87 3e 39 24 73 bd bf 80 61 be 6a 65 07 3f
       0.26504248 -0.059360716 -0.22021769 0.5288912
000330 15 d4 e0 3e a6 22 8f 3d 39 bf 52 be 93 89 a2 be
       0.43911806 0.069890305 -0.20580758 -0.31745586
000340 a5 f1 9e bd 03 20 78 be 1a cb 42 be 5c 1a 69 be
       -0.07760934 -0.24230962 -0.1902279 -0.22763962
000350 63 d7 97 be 64 b5 9a 3e 1a 5e d3 be 45 8a 4a be
       -0.29656515 0.30216515 -0.4128273 -0.19779308
000360 52 16 95 be 7c bb ca 3d 51 bd b0 be 83 15 8e 3e
       -0.29118592 0.09899041 -0.34519437 0.27750787
000370 dc a3 c4 be 20 08 a0 3e 8f cc 32 be 12 04 8e 3e
       -0.38406265 0.312562 -0.17460845 0.2773748
000380 ff 92 c3 bd 5a 77 a5 bd 27 55 57 bd 18 f6 d3 3c
       -0.09549522 -0.08079405 -0.052571442 0.025874183
000390 8d 7d cd 3d dd 41 c8 be cc ca 5c 3e 95 16 67 be
       0.100337125 -0.3911275 0.21561736 -0.22567208
0003a0 1c cf 73 be 9a 57 80 be b8 3b 52 be 5c 26 83 3e
       -0.23809475 -0.25066835 -0.20530593 0.25615203
0003b0 9f 88 00 3e c9 2f 9f bc b3 64 e1 bd 9d a0 e7 3d
       0.12552117 -0.019431965 -0.11005535 0.113099314
0003c0 18 78 88 be 17 78 13 be e6 1a b8 be 75 a4 a2 be
       -0.26654124 -0.1440128 -0.35958022 -0.31766096
0003d0 28 24 9b bd 1c 8c 5f 3d d0 27 44 be d3 48 94 be
       -0.07575256 0.054576978 -0.19155812 -0.2896181
0003e0 9e ac 87 be 9a 7e 90 3e 49 d4 3a 3e bc e8 91 be
       -0.26498884 0.2822159 0.18245043 -0.28497875
0003f0 1e 84 27 be d9 18 fa 3d 16 06 67 be fc da 53 3d
       -0.16358992 0.122117706 -0.22560915 0.05172251

linear4.bias f4 [10]
000000 0c 11 5b 3e f8 c6 f3 3a 11 59 34 be 45 24 bc 3d
       0.21393222 0.0018598726 -0.17612101 0.09186605
000010 89 fe a6 bd 42 32 83 3e 2e bb 84 3d 0c ae 96 bd
       -0.081540175 0.2562428 0.06481014 -0.073574156
000020 ab c5 f0 bc d0 1a c8 bd
       -0.02939113 -0.09770739
