lab_3/logs_task_2b/epoch=56-step=4560.ckpt (torch, 411483 bytes, 4 tensors)

linear1.weight f4 [128, 784]
0	0xbcf9a029	-0.030471878
1	0xbb841b53	-0.0040315776
2	0xbc19d12e	-0.009388251
3	0xbce3f9fe	-0.027829167
4	0x3c8d0f69	0.017219262
5	0x3cfd30a2	0.030906979
6	0xbce5f028	-0.028068617
7	0x3c1d774d	0.009610963
8	0xbd17bbf1	-0.03704447
9	0xbb5c5790	-0.0033621527
10	0xbd99b992	-0.07506098
11	0xbc6ecc45	-0.014575069
12	0xbc3ae285	-0.0114065455
13	0x3b699e82	0.0035647457
14	0x3c5374cc	0.0129062645
15	0xbc935d36	-0.017988782
16	0x3d0cd317	0.034381
17	0xbd7494f7	-0.059712376
18	0xbdadccf6	-0.08486359
19	0x3b9730a3	0.0046139522
20	0xbd108075	-0.035278756
21	0xbc706fde	-0.014675109
22	0x3ca54f34	0.020179369
23	0x3c638307	0.01388622
24	0x3b09e836	0.002104295
25	0x3b5e7977	0.003394691
26	0xba9e7286	-0.0012088574
27	0x3d0b2c7f	0.03397798
28	0xbd0c0bed	-0.03419106
29	0x3cff1efb	0.031142702
30	0x3cd21b4f	0.025647787
31	0x3b7fe29e	0.0039044986
32	0xbc8c549a	-0.017130185
33	0xbcfeb9a6	-0.031094383
34	0x3c854bc6	0.016271483
35	0x3b94d774	0.0045422856
36	0xbd23461d	-0.039861787
37	0x3ce01a8a	0.027356405
38	0x3d672038	0.05642721
39	0x3c043f4a	0.00807173
40	0x3d0c369b	0.034231763
41	0xbc8290e5	-0.015938232
42	0xbce3e58c	-0.027819417
43	0x3ccb800f	0.024841337
44	0x3d2a2c74	0.0415463
45	0x3d5fd040	0.054641962
46	0xbcd1acfa	-0.025595177
47	0x3c8ddda6	0.017317604
48	0x3d026700	0.03183651
49	0xbc117b51	-0.008879499
50	0xbc9a242e	-0.01881608
51	0x3c9e1621	0.019297661
52	0xbd06ba91	-0.032892767
53	0xbd34583b	-0.044029456
54	0x3ce05e6e	0.027388778
55	0xbb3e7909	-0.0029063842
56	0xbcdda83f	-0.027057765
57	0x3cad22e8	0.021134809
58	0x3c7e4e6b	0.015521626
59	0xbb86bd8b	-0.0041119508
60	0x3c402c03	0.011729243
61	0xbc7c0827	-0.015382803
62	0x3d39635a	0.045260765
63	0x3ab552ba	0.0013833859
64	0x3bc84c37	0.006112601
65	0xbbfbf8e9	-0.0076895845
66	0xbc2ca6db	-0.010537828
67	0x3cdd325a	0.027001549
68	0x3d280db3	0.04102869
69	0xbc6f7463	-0.014615151
70	0x3c5ac570	0.013352737
71	0x3dc622cd	0.096746065
72	0x3c88afbc	0.01668536
73	0xbd2951ad	-0.041337658
74	0xbc01f691	-0.007932321
75	0xbd13565c	-0.03597103
76	0xbc2985eb	-0.01034687
77	0x3c454592	0.012040513
78	0x3d5557dd	0.052085746
79	0x3c1f03f0	0.009705529
80	0x3cda8ddb	0.02667897
81	0xbd40dcf8	-0.047085732
82	0x3abf4a87	0.0014594354
83	0xbc4e2b4e	-0.012583567
84	0xbb625b21	-0.003453918
85	0xbce4fefc	-0.027953617
86	0xbb0c8ddf	-0.0021446866
87	0x3cda8f90	0.026679784
88	0x3ca48a0a	0.020085353
89	0x3d83c621	0.064342745
90	0x3d85b950	0.06529486
91	0xbc37f60f	-0.0112280985
92	0x3c4c91d5	0.012485941
93	0x3d4b19c3	0.049585115
94	0xbc2fecd8	-0.01073762
95	0x3d44c989	0.04804376
96	0x3c71ec70	0.014765844
97	0xbd2efb83	-0.04272033
98	0xbcd9f032	-0.026603792
99	0x3c371ca1	0.011176259
100	0xbd5e1042	-0.054214723
101	0xbc53be77	-0.012923828
102	0xbc266546	-0.010155981
103	0xbcd3c262	-0.025849525
104	0x3b0d08b1	0.0021520073
105	0x3cd96391	0.026536735
106	0x3c011d73	0.007880556
107	0x3d534ec2	0.05158878
108	0x3c4a4ccb	0.01234741
109	0x3b825aec	0.003978124
110	0x3c5c7168	0.0134547725
111	0x3bc559ac	0.0060226526
112	0x3a8a7586	0.0010563589
113	0xbc56af8e	-0.013103379
114	0x3ce6ccfc	0.028173916
115	0x3b1d9468	0.0024044756
116	0x3b1648f9	0.0022931679
117	0x3d8bc988	0.068255484
118	0x3bf2beb0	0.0074079856
119	0xbd847661	-0.064678915
120	0xbced79de	-0.028988775
121	0x3d8242b2	0.06360377
122	0xbd059f23	-0.032622468
123	0xbcf78d25	-0.03021867
124	0x3c98aa91	0.01863602
125	0x3d6285ac	0.05530326
126	0xbd6a3b09	-0.057185207
127	0xbb4ed108	-0.0031557698
128	0xbb920c3c	-0.004457025
129	0xbd38a3b3	-0.04507799
130	0x3be80e10	0.0070817545
131	0x3cdfcf4e	0.02732053
132	0xbb976348	-0.0046199895
133	0xbcbf197b	-0.02332758
134	0x3b0994c9	0.0020993224
135	0x3bc47ce1	0.005996332
136	0x3d0b415b	0.033997875
137	0x3c8cbbf1	0.017179461
138	0x3b01d513	0.001981084
139	0xbcc5135e	-0.024057087
140	0xbc749eb2	-0.014930414
141	0xbb85d392	-0.004084059
142	0xbca325dc	-0.019915514
143	0x3c720559	0.014771783
144	0xbc946084	-0.018112428
145	0x3cd3ad3e	0.025839444
146	0x3c14c44b	0.009080003
147	0xbdb605e5	-0.08887843
148	0x3ba3f0db	0.0050030774
149	0x3c5256a8	0.012838043
150	0xbcedda80	-0.029034853
151	0xbc28baae	-0.010298414
152	0x3cb6d025	0.022316048
153	0x3c88b0a1	0.016685786
154	0xbcb093eb	-0.021554908
155	0x3b0af5fb	0.0021203745
156	0xbb7fa8dc	-0.003901056
157	0x3d14f77f	0.036368843
158	0xbc659e29	-0.014014759
159	0x3cb0b352	0.021569882
160	0xbcc48d30	-0.023993105
161	0xbb8a4272	-0.0042193467
162	0x3c656033	0.013999986
163	0x3cb057f1	0.021526309
164	0x3cea35aa	0.028590042
165	0xba96e525	-0.0011512382
166	0x3ccfbd26	0.025358748
167	0x3c109ff0	0.008827195
168	0x3ca7ef64	0.020499893
169	0x3bc8182a	0.006106396
170	0xbaf70cb0	-0.0018848386
171	0x3c1f725b	0.009731854
172	0x3d6fd9d1	0.058557335
173	0x3ce8c092	0.028412137
174	0x3c31c021	0.01084903
175	0xbccd7cca	-0.025083918
176	0x3d239043	0.0399325
177	0x3d020d99	0.03175125
178	0x3d014eab	0.031569164
179	0x3ccc25cd	0.024920369
180	0x3c9a9dfb	0.01887416
181	0x3d1cf084	0.03831531
182	0xbc32e60d	-0.010919106
183	0x3c3fbfd1	0.011703447
184	0x3b4607b2	0.003021699
185	0x3d0b4927	0.03400531
186	0xbcbcbc09	-0.02303888
187	0xbcbc1941	-0.02296126
188	0xbcfe3020	-0.031028807
189	0x3cfbf949	0.030758517
190	0x3becbc9b	0.007224632
191	0x3a8d7e03	0.0010795001
192	0xbb1344a7	-0.002247134
193	0x3c5baec7	0.013408369
194	0xbd2da099	-0.042389486
195	0xbd319897	-0.04335841
196	0x3bca9ba9	0.006183107
197	0xbccd9fb8	-0.025100574
198	0x3cf1f266	0.02953453
199	0xbcc7c875	-0.024387578
200	0x3d64eb02	0.055888183
201	0x3d8f5607	0.0699883
202	0x3c891ce4	0.016737409
203	0xbca19580	-0.019724607
204	0xbb2f243d	-0.002672448
205	0x3cb86ca5	0.022512743
206	0x3ccaaf57	0.024741812
207	0xbc25a35d	-0.01010975
208	0x3d4e0368	0.050296217
209	0x3ca894e1	0.020578803
210	0x3be15c13	0.006877431
211	0x3c90b6fe	0.017665382
212	0xbd97dc25	-0.07415036
213	0xbd04d646	-0.03243091
214	0xbd7eb4b3	-0.062184047
215	0x3d14b7fc	0.036308274
216	0xbda1e43b	-0.0790486
217	0x3d45dd68	0.048306853
218	0x3c84839e	0.016176041
219	0x3bcf9f1f	0.0063361074
220	0x3cc6352f	0.024195282
221	0xbd837ef9	-0.064207025
222	0xbd056e31	-0.03257579
223	0x3b0b31ff	0.0021239517
224	0x3c9a9526	0.018869948
225	0xbcb8c5d1	-0.022555264
226	0x3b84cbcc	0.004052615
227	0x3cada843	0.021198398
228	0x3d0e66d7	0.034766044
229	0x3d7831e2	0.060594447
230	0x3c43d44e	0.011952473
231	0x3d7130ab	0.058884304
232	0x3c8b5c5c	0.017011814
233	0x3ccfc8fa	0.025364388
234	0x3cbd6619	0.023119973
235	0x3d217845	0.03942134
236	0x3cfda599	0.030962752
237	0x3d9bc533	0.07605972
238	0xbcff7ffb	-0.031188956
239	0x3cdcd62b	0.026957592
240	0x3c0587a4	0.008150015
241	0xbd209ef7	-0.0392141
242	0xbd147df0	-0.036252916
243	0x3d1cba65	0.038263697
244	0xbd837ddb	-0.064204894
245	0x3caed2a3	0.021340674
246	0x3d61280a	0.054969825
247	0x3cc01d47	0.02345146
248	0x3c64c4ff	0.013962983
249	0xbcec8d2c	-0.02887591
250	0xbd300eef	-0.04298299
251	0x3c958a76	0.0182545
252	0xbc69c528	-0.014268197
253	0x3a23f7a4	0.0006254858
254	0x3cf2361f	0.029566823
255	0x3cc91e7b	0.024550667

linear1.bias f4 [128]
0	0x3e065b43	0.13120751
1	0x3db6c3b0	0.08924043
2	0xba819c1a	-0.0009888441
3	0x3c782b24	0.015147004
4	0xbd697761	-0.056998614
5	0x3b440cfa	0.0029914961
6	0xbc50e612	-0.012750166
7	0xbd416439	-0.04721472
8	0xbc41a51b	-0.011819149
9	0xbd950439	-0.07276196
10	0x3d8915bc	0.06693599
11	0x3d6c3840	0.05767083
12	0xbd9cba6f	-0.07652747
13	0x3ce6c0f6	0.028168183
14	0x3d185cca	0.037197866
15	0x3e44582c	0.1917426
16	0x3cb67161	0.02227086
17	0xbcc18419	-0.02362256
18	0x3cde23fc	0.027116768
19	0x3d04fb4a	0.03246621
20	0xbca8809c	-0.020569138
21	0xbdcec122	-0.10095431
22	0xbd567698	-0.052359194
23	0x3d96fdd0	0.0737263
24	0xbe3a0a8e	-0.18168089
25	0xbe96a313	-0.2942129
26	0xbda194c6	-0.078897044
27	0xbbb38157	-0.005478065
28	0x3e2142a0	0.15748072
29	0x3daaa6fa	0.083326295
30	0x3dc08a0d	0.09401331
31	0xbe62a2be	-0.22132394
32	0xbe18c30f	-0.14918159
33	0x3d770e4c	0.06031637
34	0xbe7b26f9	-0.24526586
35	0x3e29d31b	0.16584437
36	0x3de44244	0.11145452
37	0x3d7ca14e	0.06167727
38	0x3da664c4	0.08124688
39	0xbe3ce744	-0.18447596
40	0x3d1c0714	0.038092688
41	0xbd45b7e1	-0.048271064
42	0xbcd341ce	-0.025788214
43	0x3e6d8aee	0.23197529
44	0xbcdcfa66	-0.026974868
45	0x3e0f1ccd	0.1397583
46	0x3e55ebb3	0.20890693
47	0x3cf32aac	0.029683433
48	0x3e0c56f3	0.13705043
49	0xbe15e129	-0.14636673
50	0x3dfea09c	0.124329776
51	0x3e200c81	0.1562977
52	0xbe1c1f0a	-0.15246215
53	0x3cd6c993	0.026219165
54	0x3c3abcf5	0.01139759
55	0xbe92a969	-0.28644875
56	0xbd77c828	-0.06049362
57	0x3db6b570	0.08921325
58	0x3dfe7372	0.12424363
59	0xbd9fb787	-0.07798677
60	0xbe9eeb3d	-0.31038848
61	0xbe1654e4	-0.1468082
62	0x3da2e7f3	0.07954397
63	0x3d3950bb	0.045243006
64	0xbe021892	-0.12704685
65	0xbe351a88	-0.17685902
66	0xbc862efd	-0.016379828
67	0xbdbcbca6	-0.09215669
68	0xbd66a4f4	-0.056309655
69	0x3c1e08f4	0.009645689
70	0x3d60e643	0.054907095
71	0xbea971a5	-0.33094516
72	0xbdc4a456	-0.09601657
73	0x3ddf7933	0.10911789
74	0x3d9b60da	0.07586832
75	0xbc540428	-0.012940444
76	0x3e0dca38	0.13846672
77	0xbe902e69	-0.28160408
78	0xbd8b51bf	-0.06802701
79	0xbd9016ed	-0.07035623
80	0x3d384af4	0.044993356
81	0x3ca706de	0.020389017
82	0x3dff21a7	0.124575906
83	0x3df9c38d	0.121955015
84	0x3e018e93	0.12652044
85	0xbae50394	-0.001747238
86	0x3e4f9ae6	0.20273933
87	0x3eab5234	0.33461154
88	0xbdc82e76	-0.09774487
89	0xbe01e183	-0.12683682
90	0xbdbaa2c0	-0.09113073
91	0x3dfcc6d1	0.12342609
92	0x3da454ba	0.08023973
93	0xbe21dc95	-0.15806802
94	0xbd35c8e5	-0.04438104
95	0x3ded68ec	0.11592278
96	0x3d1e7b8a	0.038692035
97	0xbcda303c	-0.026634328
98	0x3da602d7	0.081060104
99	0xbc74075e	-0.014894335
100	0x3d6f9403	0.058490764
101	0x3b0f5cc0	0.0021875352
102	0x3d992716	0.07478158
103	0x3dc28aad	0.094991066
104	0x3d1dac22	0.038494237
105	0x3e1eb345	0.15498073
106	0xbdad1e6e	-0.084530696
107	0x3d891160	0.06692767
108	0x3e17dad7	0.14829575
109	0xbda2ad6a	-0.07943232
110	0xbe341ddb	-0.17589514
111	0x3d7b641c	0.06137477
112	0xbda12ee8	-0.07870275
113	0x3d9d09c4	0.07667878
114	0x3de3f2ba	0.11130281
115	0xbd1cffa6	-0.038329743
116	0x3d9df4ea	0.07712729
117	0x3dbab367	0.091162495
118	0x3e25505c	0.16143936
119	0xbcb6e962	-0.022328082
120	0xbe718973	-0.23587589
121	0x3e218da6	0.15776691
122	0xbe05ce03	-0.13066868
123	0xbd5a5f73	-0.053313684
124	0x3ce03cb5	0.027372697
125	0x3da99a68	0.08281404
126	0xbde6947a	-0.112587884
127	0x3e3c92d9	0.18415393

linear2.weight f4 [10, 128]
0	0x3ee36015	0.44409242
1	0x3ed6e2e1	0.4196997
2	0x3eabdcaa	0.3356679
3	0x3ddbfedd	0.10741971
4	0x3eb4b4d9	0.35294226
5	0x3e19083a	0.14944544
6	0x3e199176	0.14996895
7	0x3e1532f0	0.14570212
8	0xbe3377f2	-0.17526224
9	0xbe5a953b	-0.2134599
10	0x3e243673	0.16036396
11	0x3e72c919	0.23709525
12	0x3e4f9a74	0.20273763
13	0x3d8793f4	0.06620017
14	0x3e774a77	0.241495
15	0xbca6070a	-0.020267028
16	0x3e0857c9	0.13314737
17	0xbda68f5c	-0.081328124
18	0x3e934b30	0.287683
19	0x3de988e7	0.11403065
20	0xbe6127bd	-0.21987815
21	0xbe39856d	-0.18117304
22	0xbe8797dd	-0.2648305
23	0x3e41ab1c	0.1891293
24	0xbef9703a	-0.48718435
25	0x3cb5bea1	0.022185626
26	0x3be5d066	0.0070133684
27	0x3dce2695	0.10065953
28	0xbe8e6e36	-0.2781846
29	0xbb82d5c7	-0.0039927694
30	0x3da02436	0.07819407
31	0x3d9d3c3c	0.076775044
32	0xbeb72c00	-0.35775757
33	0x3e48c0d9	0.19604816
34	0xbed0a93f	-0.40754125
35	0xbeb71006	-0.35754412
36	0x3e5a93b1	0.21345402
37	0x3e234931	0.15945889
38	0x3d9b381d	0.07579062
39	0xbe638603	-0.2221909
40	0xbbd210d2	-0.0064106965
41	0xbe397069	-0.18109287
42	0x3f08f57c	0.5349958
43	0xbda09773	-0.07841387
44	0xbe52b68d	-0.2057745
45	0x3d66334f	0.056201275
46	0x3ea6202b	0.32446417
47	0xbdaf66ef	-0.08564555
48	0xbe85da89	-0.26143292
49	0x3e2ccbb1	0.16874577
50	0xbdc3e104	-0.09564403
51	0xbde4d60e	-0.1117364
52	0x3d5676d4	0.052359417
53	0x3d16a48e	0.036778025
54	0x3eb214e8	0.34781575
55	0xbd02a539	-0.03189585
56	0xbd6b0721	-0.057379846
57	0xbdc605ec	-0.09669098
58	0x3e0634c4	0.13106066
59	0xbc63e382	-0.013909223
60	0xbe9c9fdd	-0.30590716
61	0x3dfb8d9a	0.12282868
62	0xbe328f02	-0.17437366
63	0xbcc8cadd	-0.024510795
64	0x3c61ae3b	0.01377445
65	0xbdd47d5b	-0.10375472
66	0xbe75a6a5	-0.23989351
67	0xbe5bb38d	-0.21455212
68	0xbdbad774	-0.09123126
69	0xbcf1f0c6	-0.029533755
70	0x3e0a1e1e	0.13488051
71	0xbedb297b	-0.42805085
72	0xbd7a6982	-0.061135776
73	0x3e0219c2	0.12705138
74	0xbe37b065	-0.17938383
75	0x3eb2d795	0.349301
76	0x3c203003	0.009777072
77	0xbd9e0a1a	-0.077167705
78	0xbe7c1db1	-0.24620701
79	0x3e18ed99	0.14934386
80	0x3eb657dd	0.3561391
81	0x3e3a405a	0.1818861
82	0x3e3db920	0.18527651
83	0x3d0255f3	0.03182025
84	0xbe44827a	-0.19190398
85	0xbe9dbc7e	-0.3080787
86	0x3e18ecee	0.14934132
87	0x3eaa3173	0.33240852
88	0x3e014c41	0.12626745
89	0xbe1ea416	-0.15492281
90	0xbe92fe28	-0.2870953
91	0xbe6533fc	-0.22383112
92	0x3e09fef8	0.13476169
93	0x3e36822a	0.17823091
94	0xbd89140e	-0.06693278
95	0x3a6584e5	0.00087554596
96	0xbea1379e	-0.31487745
97	0x3e82b250	0.25526667
98	0x3e93526d	0.28773823
99	0xbec13508	-0.37735772
100	0xbe6fe76d	-0.23428126
101	0xbe14f197	-0.14545284
102	0xbe352728	-0.17690718
103	0x3e8a9a93	0.27071056
104	0x3e6d4c2f	0.23173593
105	0x3e0594fe	0.13045117
106	0xbe82c65d	-0.25541964
107	0x3d4ad970	0.04952377
108	0x3e5e3460	0.21699667
109	0xbe326afd	-0.17423625
110	0x3e1f451c	0.15553707
111	0xbd12d495	-0.035847265
112	0xbe6fddd4	-0.23424464
113	0xbe8ebca3	-0.27878293
114	0x3e4a6804	0.19766241
115	0x3dd19936	0.10234301
116	0xbe004894	-0.12527686
117	0x3d97f0b6	0.07418959
118	0x3e8382d2	0.25685745
119	0xbf0645b9	-0.5245014
120	0xbe24ca24	-0.16092736
121	0x3e5585e2	0.20851853
122	0xbd82dc77	-0.063897066
123	0xbeaabff1	-0.33349565
124	0x3cfd8c34	0.030950643
125	0x3e61c63a	0.22048274
126	0xbe2943aa	-0.16529718
127	0x3c3b1f81	0.011421085
128	0xbe26a37c	-0.16273302
129	0xbe99ba9f	-0.30025193
130	0xbe4b2962	-0.19840005
131	0xbee571ce	-0.4481339
132	0x3dd7aacd	0.105306245
133	0x3e728e2f	0.23687051
134	0xbdbc9b7a	-0.09209342
135	0xbdae0fe6	-0.08499126
136	0x3e48d648	0.19612992
137	0x3eadb2bd	0.3392543
138	0xbe869ca2	-0.26291376
139	0x3deb21d1	0.11481059
140	0x3e2ecc2c	0.17070073
141	0x3d906441	0.07050372
142	0xbed4a2d2	-0.41530472
143	0x3dd21be1	0.10259224
144	0x3e6b2ab8	0.22965515
145	0x3e04ca2d	0.12967749
146	0x3e931dc6	0.28733653
147	0xbe43a39e	-0.19105384
148	0x3e972fb9	0.29528597
149	0x3ed229b3	0.4104744
150	0x3e9e74f0	0.3094859
151	0xbe5e9776	-0.21737465
152	0x3ebb5ebc	0.36595714
153	0xbd921503	-0.07132914
154	0x3dda4ffb	0.10659786
155	0xbe8161b9	-0.2526987
156	0x3d846a1d	0.06465552
157	0x3e76cf88	0.24102604
158	0xbd3b5e5b	-0.04574428
159	0xbe8efc4c	-0.27926862
160	0xbe26113f	-0.16217516
161	0x3df68ca5	0.120385446
162	0x3e644592	0.22292164
163	0xbcba9cea	-0.0227799
164	0xbeb47294	-0.35243666
165	0xbd69f7e1	-0.05712116
166	0xbe7f73bd	-0.24946494
167	0xbe05e82c	-0.13076848
168	0xbde546d6	-0.111951515
169	0x3e9aa87a	0.30206662
170	0x3dc6d738	0.097090185
171	0x3de3b07f	0.11117648
172	0xbe596cd7	-0.21232925
173	0x3eee2e7a	0.46519834
174	0x3e6c2e4e	0.23064539
175	0xbe9642f9	-0.2934797
176	0x3e64c91b	0.2234234
177	0x3dc9910c	0.098421186
178	0xbea5f717	-0.32415077
179	0x3eb151c9	0.3463271
180	0xbdf40d90	-0.11916649
181	0x3e055c83	0.13023572
182	0x3d55dc37	0.052211966
183	0x3e34c3c5	0.17652805
184	0xbcb1cd06	-0.021704208
185	0x3e83d70d	0.25750008
186	0xbe4003a2	-0.18751386
187	0xbee812fd	-0.45326987
188	0x3e0d2c7a	0.13786498
189	0x3e8d1684	0.2755624
190	0xbeae93c4	-0.3409711
191	0x3ec9e730	0.39434195
192	0x3e0c723e	0.13715455
193	0x3e4bfdec	0.19921082
194	0xbdbe44d0	-0.09290469
195	0xbe40020f	-0.18750785
196	0x3e8743db	0.26418957
197	0xbdbdcd52	-0.09267677
198	0xbe5d472a	-0.21609178
199	0x3ed8e57f	0.42362592
200	0xbe31fa9a	-0.17380753
201	0xbd1643b4	-0.03668566
202	0x3ea8f2d9	0.32997778
203	0x3e4936bb	0.19649784
204	0xbe403cbe	-0.18773171
205	0x3e9f66c9	0.31133106
206	0x3e747a80	0.23874855
207	0x3e8c8039	0.27441576
208	0x3dc4a51e	0.09601806
209	0x3e14072f	0.14455865
210	0xbe4a28db	-0.19742148
211	0xbe43472b	-0.19070117
212	0x3de36b59	0.11104459
213	0xbe2008b7	-0.15628324
214	0x3e46da66	0.1941925
215	0x3da63b31	0.081167586
216	0xbed141e4	-0.40870583
217	0xbe116544	-0.14198786
218	0xbc4cb731	-0.012494848
219	0xbcfbe1ab	-0.030747255
220	0xbc919270	-0.017770022
221	0x3e90be15	0.2827002
222	0x3e13519f	0.14386605
223	0xbdbf61ce	-0.09344827
224	0x3e9d69a8	0.30744672
225	0x3de248e5	0.1104906
226	0x3e08403c	0.13305753
227	0x3e30c3ca	0.17262188
228	0xbece0382	-0.4023705
229	0x3df27a70	0.11839759
230	0x3e8dcc5f	0.27694985
231	0x3ec985eb	0.39359984
232	0x3d4ff39e	0.05076944
233	0x3e79000c	0.24316424
234	0xbe8645f1	-0.26225236
235	0xbe8a401a	-0.2700203
236	0x3e71d563	0.23616557
237	0x3e24996a	0.16074148
238	0x3e07c6ba	0.13259402
239	0xbe93b92d	-0.28852215
240	0xbe93106a	-0.2872346
241	0x3dbae737	0.09126132
242	0xbe16996b	-0.14706962
243	0x3bdcfdcf	0.0067441235
244	0xbe231cb6	-0.15928921
245	0xbea13cc4	-0.31491673
246	0xbe9b62cd	-0.30348817
247	0x3eb12eb7	0.34605953
248	0xbcc635e1	-0.024195613
249	0xbe8cb5ee	-0.2748255
250	0x3e168ad6	0.14701399
251	0x3d31484e	0.043281846
252	0x3e261bf9	0.16221608
253	0xbc6d22c3	-0.01447362
254	0xbe14d730	-0.14535213
255	0xbeb9f18b	-0.36317095

linear2.bias f4 [10]
0	0x3e806f1a	0.25084764
1	0xb92bcfa8	-0.00016385189
2	0xbd496bad	-0.049174953
3	0x3c207918	0.009794496
4	0xbed20ac1	-0.4102383
5	0x3f151b40	0.58244705
6	0x3df4dc36	0.119560644
7	0xbe002b81	-0.12516595
8	0xbe7a9c03	-0.24473576
9	0xbed1abc3	-0.40951356
