lab_3/logs_task_2b/epoch=84-step=6800.ckpt (torch, 411483 bytes, 4 tensors)

linear1.weight f4 [128, 784]
00000000: e6b6 843c b0ba 053d b1ad bdbc 5f04 823c
00000010: 7a88 9bbc ab95 0e3d 78af 60b9 d49f 613c
00000020: cf29 c4bc 55a9 763c 2f51 b5bc a4e4 18bd
00000030: fb73 d7bb c7f4 a7bd 27c4 95bc 9243 fc3c
00000040: e691 1fbd 97f9 49bd 542f d03c 59c0 833d
00000050: 1177 0f3d 5abe ce3c fd8b 8a3b 2c61 2a3d
00000060: fe1a f3bc 5dae 0d3d 5fd4 c43c ca55 90ba
00000070: 54c2 76bc 8be3 85bc b4a7 9c3c aa18 5c3c
00000080: ab2c e4bc b26c aa3c 0a26 3f3c 1e66 a33c
00000090: a302 0d3d 83a2 a7bd 4c6c ccbd c15f 813c
000000a0: 65a1 39bc 1191 b1bc 7c3b 6abd b4d7 0f3d
000000b0: 7fa7 94bc fbe4 a2bd adcf 66bd 0e19 af3d
000000c0: c743 d13c 293e e33c 703d 893d 8edb dd3c
000000d0: 3cd8 173c 4a90 183d 722f 993c 8833 26bc
000000e0: 2d66 553b 24e1 cebc f6e8 323c 5483 7c3c
000000f0: cb23 a03c 87ac d13b 7feb 693c 4b02 e93c
00000100: 0957 063d f0b3 12bd 8941 6cbd 0eae 263b
00000110: 31cc 94bd be37 eabd e404 02be e665 e8bd
00000120: 7b97 1dbd acb4 6dbc 7474 70bb bad3 8e3b
00000130: f399 a23d c68e 993b e032 3c3d c704 113d
00000140: b441 213d 8acd 0cbb b9cf 163c 1848 dd3c
00000150: 9eb6 8d3b 32c7 103d 55d2 103d df1e c63c
00000160: 61d6 f03c b215 3d3d 4e74 ff3c d003 a43d
00000170: a929 0c3d 9235 78bc d323 8fbc 53fc 0c3c
00000180: 1972 94bc 012d b7bd 7b9f 0fbd 74d4 c6bc
00000190: 55cc 403d 0a15 45bb 43b1 c73c d2ba 233d
000001a0: 8813 233d a55e 5b3d c7e9 c93c a9fe af3b
000001b0: ddc6 1a3d ebf0 9a3b 3615 4d3d 0792 cb3a
000001c0: 6d34 7ebc 5f1d d63c 58bd a7bc edf4 93bb
000001d0: ffa5 2dbd 7dd9 1c3d 625b 86bc 8759 fdbc
000001e0: 803c bc3c 23b9 fb3a c358 8bbd 494f 6dbd
000001f0: 72aa 8b3d e384 17bd 60c4 3a3c 1d01 0a3d
00000200: ae2a 393d 0316 d0bc 4587 a5bc 8e4e 91bd
00000210: 5b99 283d 3f7f 0d3d 3679 3f3c 5357 4abd
00000220: 3866 51bb 854f e23b 1318 7a3b 5f12 7e3c
00000230: 5a6b ebbc 8300 c7b9 b6f8 1b3b 5618 1839
00000240: 8076 98bc 5fc9 fa3c a9c1 0ebc ad8a b73c
00000250: a408 bf3c 08fd b03c f2dc 363d cede 593c
00000260: c04c fe3b 306b 843c 494b 5bbc 588c 4a3a
00000270: 77f0 a33c 5c28 babc 701e 633d f2b5 6bbc
00000280: 5061 e4bb 61c6 c5bc 3b21 a73c 0d44 8ebc
00000290: 6d93 8e3d 7972 873d a391 bb3c 686b ad3c
000002a0: 9248 2d3d a41c bcbb 3ace 303c d94c 1a3d
000002b0: 1676 373c 6d21 453c fa41 853c b6b3 6ebc
000002c0: 1130 803d d281 9d3d 401c c93d 4c83 a23c
000002d0: f8e7 893c fad2 823c cd79 683c e60d c2bc
000002e0: 2d0f 803d f094 7b3d 3a38 be3d 3403 e03c
000002f0: 4678 5dbd e224 1dbd 8607 49bd 51cc 56bd
00000300: a93a 8d3c 4fb9 0a3d 34ad 853d 7256 45bc
00000310: 7007 f13c 5d42 2c3d 8411 6d3c 3ad0 2bbc
00000320: da3b 28bd 7fda 68bb 5a8f 6b3b 1e35 fbbc
00000330: 236c ba3d 9136 b23d 8ed7 533d b90e 093c
00000340: bc33 33bb c689 dbbc 6833 40bd fbe1 0a3c
00000350: 05d8 83bb b33d 9c3d 6ec7 e43d 6418 c7bb
00000360: 3740 f0bc d77c 75bd bdc3 0cbd bf7d 933b
00000370: a188 95b9 b9d1 053d f926 d63c 10c9 cf3c
00000380: a304 873b cd14 9e3c d45f 703c ad58 c73c
00000390: 58ab 47bd e3f7 32bc 0eb0 42bd e6ff fc3b
000003a0: aa65 143c 5c26 f83c 1671 093d 1e02 013d
000003b0: 7b76 893d 4eaa fc3b 2ef0 7fbc b424 383c
000003c0: 811d 293d 5592 9c3d 2772 e03c 56cb cbb9
000003d0: aab9 ca3c 6a32 27bd f4f7 b2bd e5f4 663c
000003e0: 0d86 6abc 8c50 3c3d 6487 453d 78f6 763b
000003f0: ba93 bc3b 0513 703c 15b7 ef3c 3901 a7bc
0.016200494 0.032648742 -0.023154112 0.015871225 -0.018985976 0.034810703 -0.00021427672 0.013771016
-0.023945717 0.01505502 -0.022133438 -0.037327424 -0.0065751052 -0.082009844 -0.01828201 0.030793939
-0.0389575 -0.049310293 0.025413193 0.06433172 0.03502566 0.025237251 0.0042281137 0.041596577
-0.029675957 0.034590114 0.024027048 -0.0011011895 -0.01506098 -0.016343853 0.019122936 0.013433615
-0.02785333 0.020803783 0.011666784 0.019946154 0.034426343 -0.081852935 -0.099815935 0.01579273
-0.011329983 -0.021675618 -0.057185635 0.03511782 -0.018146275 -0.07953831 -0.0563504 0.08549701
0.025545014 0.027739601 0.067011714 0.02708223 0.009267863 0.03724698 0.018699382 -0.010144122
0.0032562122 -0.02525384 0.0109198 0.01541217 0.019548317 0.0063987407 0.014277338 0.028443476
0.032797847 -0.035816133 -0.057679687 0.0025433335 -0.07265509 -0.11436413 -0.12697178 -0.113475606
-0.03847454 -0.014508408 -0.0036690505 0.004358736 0.0793952 0.0046862094 0.045946956 0.035404947
0.0393693 -0.0021484816 0.009204798 0.027011916 0.004324748 0.035346217 0.03535684 0.024184642
0.029399099 0.04616327 0.031183388 0.0800854 0.034219418 -0.015149491 -0.017473137 0.008605081
-0.018120812 -0.08944131 -0.0350642 -0.024271227 0.047069866 -0.0030072355 0.024376517 0.039973088
0.03981355 0.053557057 0.024647607 0.005370934 0.037787307 0.0047284267 0.050069056 0.001553119
-0.015515429 0.026137052 -0.020476028 -0.0045152814 -0.042394634 0.03829335 -0.016400997 -0.030926479
0.022978067 0.0019204955 -0.06804039 -0.05793694 0.06819619 -0.036991965 0.0113993585 0.033692468
0.04520672 -0.025401121 -0.020206103 -0.07095061 0.041161876 0.03454518 0.011686614 -0.049399685
-0.0031951796 0.006906452 0.0038161322 0.01550731 -0.028737713 -0.0003795662 0.0023799366 0.00014504915
-0.018611193 0.0306136 -0.008713164 0.022404993 0.02331955 0.02160503 0.044644304 0.01329775
0.007760614 0.016164392 -0.013384649 0.00077266013 0.020012124 -0.022724323 0.05544895 -0.014386641
-0.0069696084 -0.024142446 0.020401588 -0.017366434 0.06961713 0.06613631 0.022896593 0.02116938
0.042305537 -0.005740719 0.010791356 0.037670944 0.0111975875 0.012031895 0.016266812 -0.014569214
0.06259168 0.07690777 0.098198414 0.019837998 0.016834244 0.015969742 0.014189196 -0.023688268
0.062528946 0.061421335 0.09288068 0.027345277 -0.05406978 -0.038365252 -0.04907944 -0.052440945
0.017239885 0.03386813 0.065271765 -0.012044536 0.029422492 0.042055476 0.014469508 -0.010486657
-0.041072704 -0.0035530624 0.0035943598 -0.030664977 0.09102657 0.08701814 0.05171924 0.008365327
-0.0027344069 -0.026799094 -0.046924025 0.0084767295 -0.0040235543 0.07628956 0.11170851 -0.0060759056
-0.029327495 -0.05993351 -0.034366358 0.004501074 -0.0002852129 0.03267071 0.02614163 0.025364429
0.004120426 0.019297028 0.014671285 0.024334276 -0.04874739 -0.010923359 -0.04753118 0.007720935
0.009057442 0.030291729 0.033555113 0.03149616 0.067120515 0.0077107316 -0.015621228 0.011239219
0.041287903 0.07645098 0.027398182 -0.00038870674 0.024746735 -0.040819563 -0.087386996 0.014096473
-0.014314187 0.045975253 0.04822482 0.0037683528 0.005754915 0.014652972 0.029262105 -0.020386325

linear1.bias f4 [128]
00000000: fda9 e6bd 7911 2c3d 0ac3 28bd c7f4 33bd
00000010: 557c 0f3b d8b5 6abd e80b b73d 5d98 603e
00000020: 6679 dc3b bf07 543c a0b2 04bc 2475 063e
00000030: f8da d03d 82fc e1bd 6070 743d 162f 303d
00000040: 5bc4 c2bc ded6 02be 59e8 64bd d2d1 e03d
00000050: c062 8bbe 4319 2bbe adf3 f63b 01c8 13be
00000060: 3142 3c3e 9fa0 cc3c dde8 cf3d 6ce4 3ebe
00000070: 6d1f 59be 19c0 7dbb 07c0 32be 2f67 2c3e
00000080: 9299 b4bd bb2b 113e db63 013d 9c15 7fbe
00000090: 39d1 9cbd 67a1 09bd 42b9 c13d 6eb5 873e
000000a0: 82ce 6bbd 7b36 1d3e bddc 983e 1ac8 3a3b
000000b0: 2331 d03d 682f 2abe 64d3 803b 99a5 083e
000000c0: 1e45 edbd a051 0d3e 088e f23c 4a55 8cbe
000000d0: 93b5 81bd 338c 293e 5d73 283e 6ce4 05be
000000e0: f3d1 c7be 3b31 4ebd e16f 2c3e 1802 633c
000000f0: b1c6 63be c050 1dbe bfa0 7abd b13a e6bd
00000100: f01e 07be d023 f93c 0a4c 19bd 9477 89be
00000110: 39c7 63be 05ac 3e3e 93bc 77bc 655b 2fbc
00000120: 92ff 2e3e 7972 1abe 6b35 10be 4340 25be
00000130: 4d37 423d f8b2 3c3e 34ef 943d d3f4 ea3d
00000140: 5bcd d93d 0b25 553b 754e 983e f4dc 493e
00000150: 5bbe 5dbe 6469 77bd dcb5 53be 8375 b23d
00000160: 0004 653c 1148 703d aa4a 9bbd 977c 1e3e
00000170: a90a c53d d2b6 f6bd d4e7 f93d c768 27bd
00000180: c438 823c 6d39 973d 4a2e eb3d 7216 143e
00000190: bf6e 2bbb c136 fb3d d9b3 85bc f533 b53d
000001a0: 8f61 bc3d 953c 6cbd 6acf 46be 78d2 1f3d
000001b0: 9878 a0bd 9a48 2dbc 7db7 a43d ab15 45bd
000001c0: 4157 603e ac4e 953d cbea 1c3e 5a93 3dbd
000001d0: aad7 82be d670 223e 3ca6 0ebe e289 dfbc
000001e0: 31c9 543c 4393 653e 6472 f8bd 92b5 4f3e
000001f0: 8cb6 ef3d adf6 33be 431f 033e d04c 15be
-0.112628914 0.04200885 -0.04120163 -0.04393461 0.0021894176 -0.057302326 0.08937818 0.21933122
0.006728339 0.0129413 -0.008099228 0.13130623 0.10198015 -0.1103449 0.05967748 0.043013655
-0.02377527 -0.12777278 -0.055885646 0.1097752 -0.27223778 -0.16708855 0.0075363726 -0.14431764
0.18384625 0.024978934 0.10151837 -0.18641824 -0.21203394 -0.0038719235 -0.17456065 0.16836236
-0.08818354 0.14176838 0.03158937 -0.24910587 -0.076570936 -0.03360119 0.09459163 0.26505607
-0.057569988 0.15352814 0.2985591 0.0028500617 0.10165622 -0.16619647 0.0039314497 0.1334442
-0.11585449 0.13800669 0.029608741 -0.2740882 -0.06333461 0.16557388 0.16450258 -0.13075417
-0.39027366 -0.05033992 0.16839553 0.01385548 -0.22243764 -0.15362835 -0.061188456 -0.11241663
-0.13195395 0.030412585 -0.037426032 -0.26849043 -0.22243966 0.18620308 -0.015120643 -0.0107029425
0.1708968 -0.1508273 -0.14082877 -0.16137795 0.04741602 0.18427646 0.07272187 0.11472478
0.106348716 0.00325233 0.29747358 0.19713193 -0.21654646 -0.060403243 -0.20674843 0.0871382
0.013978004 0.058662478 -0.075826004 0.15477215 0.09621174 -0.12046589 0.12202421 -0.040871408
0.015896209 0.07384 0.11483438 0.14461687 -0.002615854 0.12266303 -0.01632111 0.08847801
0.09198295 -0.057674963 -0.1941506 0.039019078 -0.078355014 -0.010576392 0.0804281 -0.048116367
0.21908285 0.07290396 0.15323941 -0.046283104 -0.25555164 0.15863356 -0.13930601 -0.027287427
0.012987421 0.22419457 -0.12131193 0.20284107 0.1170474 -0.17574568 0.12804894 -0.14580083

linear2.weight f4 [10, 128]
00000000: 939f 493e 644d 2d3e 440b a53b 5bb4 603d
00000010: 59b3 ae3e 2d1a bcbe 05a2 a53e 3c11 ec3e
00000020: ac67 c23e 687c f63e 03a9 df3e a121 5cbe
00000030: 8860 013d aff9 01be 474b 6b3e 3aa2 c63d
00000040: a068 f8bd c619 1abe 8d10 8ebe a8f4 b13e
00000050: 6beb d3be 32c2 ca3e 128e 433e 7566 0ebc
00000060: 970f 78be 2db1 e93e 07c3 a03e 5d9a b73d
00000070: 9ee1 07bf 3a29 763e a2d6 c5be 0af4 fabe
00000080: 8ce5 e8bd 5ee6 103f 8d4c 683d 4a30 b0bd
00000090: 1165 6abe f876 d2be bfb4 8a3e 6d18 4abe
000000a0: b3df d1be d18e 533e 15b2 ab3e 64da 08bf
000000b0: adfb febd 284a 553e 0676 e4be 0229 35be
000000c0: abb9 f03c d951 24be c912 9b3e 8bab 2fbe
000000d0: d80a 52bc 9550 8d3e 4ca8 9f3e fabd b13d
000000e0: 6aa2 8fbe 17e4 ecbd c63e 0ebc 89a7 6bbe
000000f0: 900b 94be 62a4 583d 9ea3 80be 52db 9fbe
00000100: c1ad 26be bb75 92be 5868 22be 6339 adbe
00000110: bb75 a6bd 6391 bb3e 9b5c 6cbe 5cc0 1f3f
00000120: bc7d 7e3d 7633 f93d b27b 0ebe 8580 883e
00000130: f008 983e 0635 953c cfbf 3b3e 07d9 0d3d
00000140: 62c3 16bd a46d afbe df0a 743e 14bd da3e
00000150: 0ac9 aa3c e7c0 f43a 3750 d4be 9b0f 57be
00000160: 6849 83bd f540 8a3d 817b 2dbe 59eb 583c
00000170: 19fa 18bd ab9a df3d 96fb e03e 12a6 bfbe
00000180: 91dc 8ebe 2545 1cbe 1bf9 56be 85ed a33e
00000190: 2e8c 1f3e 0bb8 f63d d3ba 63bd 9f39 d63d
000001a0: 8b43 243e 6b09 71be 5c2c 213e 97d0 a83c
000001b0: 63c4 a9bd 06ec aebe 3be3 8b3d 97f3 463d
000001c0: 1bfa 2ebe da1a 1bbd c1bf 9d3e d7f5 cabe
000001d0: 646f 90be 8efb 923e c74e 72be bd7f d5be
000001e0: 2497 2f3d f1e3 863e 1d94 a8be 6cce b13a
000001f0: d97b aebe c79f 25bd 20da 7a3d 932a 61be
00000200: 88fe 693e 37aa c53e 52ab ae3d 11ad b23c
00000210: d2cb 333d 038f 903d 7064 05bf c351 1ebe
00000220: 7513 943e 04cd 9f3b be5f c2be 14c4 453e
00000230: db43 713e ddd3 c53e 246d ac3e fda3 23be
00000240: 2a09 533e 6cf6 113f a872 9f3e 59b7 80be
00000250: fe83 d73e ee7d 86be 4eec b13c ad3e 90bd
00000260: 4e8f 44be fdfd b83e 01d1 0dbe eb9b bebe
00000270: 0d02 09be c3c4 7bbd 66a6 a23e a836 c3bd
00000280: 6ccb b8be 06fe cebe a60c a7be 22b3 d4bd
00000290: b53d 55be 17cc 9a3e 90cf b83d 6209 40be
000002a0: 5b0d b1be 138c ca3e 08f4 a53e d26c 9bbe
000002b0: a675 b23e 5cfe 173e 40b9 fb3c d201 c73e
000002c0: e24d 7c3d fade 303e e659 df3d 3fa1 6fbd
000002d0: aa42 323e 01cc 8b3e d5fd b7be fe87 70bc
000002e0: 5aef 603e 062f 6fbc fe24 59be e7f4 ce3e
000002f0: f39c a73e ad62 c23d 382b 723d 4627 babe
00000300: 48c1 d53e f9d3 2fbd 2ea7 8dbe a9b9 023f
00000310: 791c 52be 83b7 90be 1932 833e f53e 123e
00000320: 5268 52be 95ba d13e c550 d53e 749d 483e
00000330: 85cf 6e3e a56d 1e3e 5b16 71be d0a1 30be
00000340: 4349 5d3e 63d8 35be ba62 a73d 77b9 b2bc
00000350: d66d acbe c2d2 bbbd 3014 d2bd 8e7a 2ebe
00000360: b25c 58bd 362f 993e 0e06 5a3d f59e 2abe
00000370: be94 753e 89bf 5d3e 69ee 2a3d dd3f 1ebe
00000380: ae68 efbe e515 1d3e 98d7 c03e 0466 e73e
00000390: c5f1 033e b3c9 8a3e 084c a0be 155b cebd
000003a0: 0332 8d3e 3f7a c23c fe4f 223e bdfa 70be
000003b0: 7e81 bdbe 4e2f ab3e da9f aebd f308 ccbe
000003c0: e417 8abe c593 acbe 6c57 b2be 3126 cb3e
000003d0: f2da 233e 634e 96be 265e 6d3e 4892 8a3e
000003e0: 7cbc 673e b268 dcbe 321f 5abe 6284 8fbe
000003f0: 2d10 c73e 1910 b8bd 577f 453e 01ce 503e
0.19689779 0.16924053 0.0050367434 0.0548595 0.34121206 -0.3673872 0.32350174 0.461069
0.3796972 0.4814179 0.43683633 -0.21497203 0.0315862 -0.12692903 0.22977935 0.09698911
-0.12129331 -0.15048894 -0.27747002 0.3475697 -0.41390547 0.39601284 0.19097164 -0.00869142
-0.24224697 0.45642987 0.31398794 0.08964989 -0.5307864 0.24039164 -0.38640314 -0.49014312
-0.113719076 0.5660151 0.05671363 -0.086029604 -0.22890116 -0.4110639 0.27091023 -0.1973588
-0.4099098 0.20659949 0.33534303 -0.5345824 -0.12450347 0.2082907 -0.44621295 -0.17691424
0.029385408 -0.16046847 0.3028777 -0.17155282 -0.012819968 0.27600542 0.31183088 0.08678813
-0.280536 -0.11566942 -0.008681959 -0.23013128 -0.2891507 0.052891143 -0.2512483 -0.31222016
-0.1627722 -0.28605446 -0.15860116 -0.33832845 -0.08127924 0.3663436 -0.23082201 0.6240289
0.06213163 0.121680185 -0.13914374 0.26660553 0.2969432 0.01821376 0.18334888 0.0346308
-0.036807425 -0.34263337 0.23832272 0.4272238 0.020847816 0.0018673212 -0.4146745 -0.21002047
-0.064104855 0.06750671 -0.16941644 0.013239705 -0.037347887 0.109181724 0.43941945 -0.3743139
-0.27902654 -0.15260752 -0.20993464 0.3201715 0.15580818 0.12046822 -0.05559809 0.10460209
0.1604139 -0.23538749 0.15739578 0.020607276 -0.08289411 -0.34164447 0.0683045 0.04857215
-0.17087595 -0.037867405 0.3081036 -0.39640686 -0.28209984 0.28707546 -0.23662864 -0.4169902
0.04286875 0.2634578 -0.329255 0.0013565547 -0.34078863 -0.04043558 0.061243176 -0.21988897
0.22851002 0.38606426 0.085287705 0.02181104 0.04389555 0.07058527 -0.5210638 -0.15460877
0.28921095 0.0048767347 -0.3796367 0.19313079 0.23561041 0.386382 0.33677018 -0.15980525
0.20608965 0.57016635 0.31142163 -0.25139883 0.4209289 -0.26267952 0.021719124 -0.070432045
-0.19195291 0.36131278 -0.1384926 -0.3722833 -0.13379689 -0.061466943 0.31767577 -0.09531909
-0.360927 -0.4042818 -0.32626837 -0.10385729 -0.2082432 0.30233833 0.090239644 -0.1875358
-0.34580502 0.39559993 0.32412744 -0.3035646 0.34855384 0.14843124 0.030727983 0.38868576
0.061597712 0.17272559 0.10905819 -0.058503386 0.17408243 0.2730408 -0.35935846 -0.014680861
0.21966305 -0.014598614 -0.21205518 0.4042122 0.3273693 0.09491477 0.059123248 -0.36358088
0.41749024 -0.042926762 -0.2766661 0.51064545 -0.20518674 -0.28265008 0.2562416 0.14281829
-0.20547608 0.40962663 0.41663185 0.19591314 0.2332135 0.15471514 -0.23543684 -0.17249227
0.21609978 -0.17758326 0.081731275 -0.021816952 -0.33677548 -0.09171058 -0.10257757 -0.17038938
-0.052822776 0.29918832 0.05322843 -0.166622 0.23982522 0.21655096 0.041731272 -0.1545405
-0.46759552 0.15340383 0.37664485 0.4519502 0.12885197 0.2710701 -0.31308007 -0.10075966
0.27577218 0.023739932 0.15850827 -0.23533149 -0.37012857 0.33434528 -0.08526583 -0.39850578
-0.26971352 -0.3370649 -0.34832323 0.39677575 0.1600149 -0.2935668 0.23180446 0.2706473
0.22630495 -0.43048626 -0.21300963 -0.28030688 0.3887953 -0.089874454 0.19286858 0.20391084

linear2.bias f4 [10]
00000000: 0bb9 8c3e 1fe5 bbbd 0a44 89bd 4346 a2bd
00000010: 16e2 e4be 3c96 203f 400d 103e 0710 b8bc
00000020: 04eb 42be 4661 03bf
0.27484927 -0.09174561 -0.067024305 -0.079235576 -0.4470374 0.6272924 0.14067554 -0.02246858
-0.19034964 -0.513203
